…
I0612 10:24:50.083163  2993 net.cpp:49] Initializing net from parameters: 
name: "SiameseNet"
state {
  phase: TRAIN
}
layer {
  name: "pair_data"
  type: "ImageData"
  top: "pair_data"
  top: "labels"
  include {
    phase: TRAIN
  }
  transform_param {
    mirror: true
    crop_size: 48
  }
  image_data_param {
    source: "examples/SFEW/data/siamese_bi_multi/Train/train"
    batch_size: 64
    shuffle: true
    new_height: 60
    new_width: 60
    is_color: false
    root_folder: "/home/zibo/Data/Database/SFEW_60x60/"
    image_num: 2
    label_dim: 4
  }
}
layer {
  name: "slice_pair"
  type: "Slice"
  bottom: "pair_data"
  top: "data"
  top: "data_p"
  include {
    phase: TRAIN
  }
  slice_param {
    slice_dim: 1
    slice_point: 1
  }
}
layer {
  name: "slice_tri"
  type: "Slice"
  bottom: "labels"
  top: "sim"
  top: "label1"
  top: "label2"
  top: "subsim"
  include {
    phase: TRAIN
  }
  slice_param {
    slice_dim: 1
    slice_point: 1
    slice_point: 2
    slice_point: 3
  }
}
layer {
  name: "conv11"
  type: "Convolution"
  bottom: "data"
  top: "conv11"
  param {
    name: "conv11_w"
    lr_mult: 1
    decay_mult: 1
  }
  param {
    name: "conv11_b"
    lr_mult: 2
    decay_mult: 0
  }
  convolution_param {
    num_output: 64
    pad: 1
    kernel_size: 3
    stride: 2
    weight_filler {
      type: "xavier"
    }
    bias_filler {
      type: "constant"
    }
  }
}
layer {
  name: "relu11"
  type: "PReLU"
  bottom: "conv11"
  top: "conv11"
}
layer {
  name: "bn11"
  type: "BatchNorm"
  bottom: "conv11"
  top: "bn11"
  param {
    lr_mult: 0
  }
  param {
    lr_mult: 0
  }
  param {
    lr_mult: 0
  }
}
layer {
  name: "pool1"
  type: "Pooling"
  bottom: "bn11"
  top: "pool1"
  pooling_param {
    pool: MAX
    kernel_size: 3
    stride: 2
    pad: 1
  }
}
layer {
  name: "conv21"
  type: "Convolution"
  bottom: "pool1"
  top: "conv21"
  param {
    name: "conv21_w"
    lr_mult: 1
    decay_mult: 1
  }
  param {
    name: "conv21_b"
    lr_mult: 2
    decay_mult: 0
  }
  convolution_param {
    num_output: 128
    pad: 1
    kernel_size: 3
    weight_filler {
      type: "xavier"
    }
    bias_filler {
      type: "constant"
    }
  }
}
layer {
  name: "relu21"
  type: "PReLU"
  bottom: "conv21"
  top: "conv21"
}
layer {
  name: "bn21"
  type: "BatchNorm"
  bottom: "conv21"
  top: "bn21"
  param {
    lr_mult: 0
  }
  param {
    lr_mult: 0
  }
  param {
    lr_mult: 0
  }
}
layer {
  name: "pool2"
  type: "Pooling"
  bottom: "bn21"
  top: "pool2"
  pooling_param {
    pool: MAX
    kernel_size: 3
    stride: 2
    pad: 1
  }
}
layer {
  name: "conv31"
  type: "Convolution"
  bottom: "pool2"
  top: "conv31"
  param {
    name: "conv31_w"
    lr_mult: 1
    decay_mult: 1
  }
  param {
    name: "conv31_b"
    lr_mult: 2
    decay_mult: 0
  }
  convolution_param {
    num_output: 128
    pad: 1
    kernel_size: 3
    weight_filler {
      type: "xavier"
    }
    bias_filler {
      type: "constant"
    }
  }
}
layer {
  name: "relu31"
  type: "PReLU"
  bottom: "conv31"
  top: "conv31"
}
layer {
  name: "bn31"
  type: "BatchNorm"
  bottom: "conv31"
  top: "bn31"
  param {
    lr_mult: 0
  }
  param {
    lr_mult: 0
  }
  param {
    lr_mult: 0
  }
}
layer {
  name: "fc4"
  type: "InnerProduct"
  bottom: "bn31"
  top: "fc4"
  param {
    name: "fc4_w"
    lr_mult: 1
    decay_mult: 1
  }
  param {
    name: "fc4_b"
    lr_mult: 2
    decay_mult: 0
  }
  inner_product_param {
    num_output: 1024
    weight_filler {
      type: "xavier"
    }
    bias_filler {
      type: "constant"
    }
  }
}
layer {
  name: "relu4"
  type: "PReLU"
  bottom: "fc4"
  top: "fc4"
}
layer {
  name: "drop4"
  type: "Dropout"
  bottom: "fc4"
  top: "fc4"
  include {
    phase: TRAIN
  }
  dropout_param {
    dropout_ratio: 0.6
  }
}
layer {
  name: "fc5"
  type: "InnerProduct"
  bottom: "fc4"
  top: "fc5"
  param {
    name: "fc5_w"
    lr_mult: 1
    decay_mult: 1
  }
  param {
    name: "fc5_b"
    lr_mult: 2
    decay_mult: 0
  }
  inner_product_param {
    num_output: 1024
    weight_filler {
      type: "gaussian"
      std: 0.0001
    }
    bias_filler {
      type: "constant"
    }
  }
}
layer {
  name: "relu5"
  type: "PReLU"
  bottom: "fc5"
  top: "fc5"
}
layer {
  name: "drop5"
  type: "Dropout"
  bottom: "fc5"
  top: "fc5"
  include {
    phase: TRAIN
  }
  dropout_param {
    dropout_ratio: 0.6
  }
}
layer {
  name: "fc5_sub"
  type: "InnerProduct"
  bottom: "fc4"
  top: "fc5_sub"
  param {
    name: "fc5_sub_w"
    lr_mult: 1
    decay_mult: 1
  }
  param {
    name: "fc5_sub_b"
    lr_mult: 2
    decay_mult: 0
  }
  inner_product_param {
    num_output: 1024
    weight_filler {
      type: "gaussian"
      std: 0.0001
    }
    bias_filler {
      type: "constant"
    }
  }
}
layer {
  name: "relu5_sub"
  type: "PReLU"
  bottom: "fc5_sub"
  top: "fc5_sub"
}
layer {
  name: "drop5_sub"
  type: "Dropout"
  bottom: "fc5_sub"
  top: "fc5_sub"
  include {
    phase: TRAIN
  }
  dropout_param {
    dropout_ratio: 0.6
  }
}
layer {
  name: "concat"
  type: "Concat"
  bottom: "fc5"
  bottom: "fc5_sub"
  top: "features"
}
layer {
  name: "pred_new"
  type: "InnerProduct"
  bottom: "features"
  top: "pred_new"
  param {
    name: "pred_w"
    lr_mult: 10
    decay_mult: 1
  }
  param {
    name: "pred_b"
    lr_mult: 20
    decay_mult: 0
  }
  inner_product_param {
    num_output: 7
    weight_filler {
      type: "gaussian"
      std: 0.01
    }
    bias_filler {
      type: "constant"
      value: 0
    }
  }
}
layer {
  name: "conv11_p"
  type: "Convolution"
  bottom: "data_p"
  top: "conv11_p"
  param {
    name: "conv11_w"
    lr_mult: 1
    decay_mult: 1
  }
  param {
    name: "conv11_b"
    lr_mult: 2
    decay_mult: 0
  }
  include {
    phase: TRAIN
  }
  convolution_param {
    num_output: 64
    pad: 1
    kernel_size: 3
    stride: 2
    weight_filler {
      type: "xavier"
    }
    bias_filler {
      type: "constant"
    }
  }
}
layer {
  name: "relu11_p"
  type: "PReLU"
  bottom: "conv11_p"
  top: "conv11_p"
}
layer {
  name: "bn11_p"
  type: "BatchNorm"
  bottom: "conv11_p"
  top: "bn11_p"
  param {
    lr_mult: 0
  }
  param {
    lr_mult: 0
  }
  param {
    lr_mult: 0
  }
}
layer {
  name: "pool1_p"
  type: "Pooling"
  bottom: "bn11_p"
  top: "pool1_p"
  pooling_param {
    pool: MAX
    kernel_size: 3
    stride: 2
    pad: 1
  }
}
layer {
  name: "conv21_p"
  type: "Convolution"
  bottom: "pool1_p"
  top: "conv21_p"
  param {
    name: "conv21_w"
    lr_mult: 1
    decay_mult: 1
  }
  param {
    name: "conv21_b"
    lr_mult: 2
    decay_mult: 0
  }
  convolution_param {
    num_output: 128
    pad: 1
    kernel_size: 3
    weight_filler {
      type: "xavier"
    }
    bias_filler {
      type: "constant"
    }
  }
}
layer {
  name: "relu21_p"
  type: "PReLU"
  bottom: "conv21_p"
  top: "conv21_p"
}
layer {
  name: "bn21_p"
  type: "BatchNorm"
  bottom: "conv21_p"
  top: "bn21_p"
  param {
    lr_mult: 0
  }
  param {
    lr_mult: 0
  }
  param {
    lr_mult: 0
  }
}
layer {
  name: "pool2_p"
  type: "Pooling"
  bottom: "bn21_p"
  top: "pool2_p"
  pooling_param {
    pool: MAX
    kernel_size: 3
    stride: 2
    pad: 1
  }
}
layer {
  name: "conv31_p"
  type: "Convolution"
  bottom: "pool2_p"
  top: "conv31_p"
  param {
    name: "conv31_w"
    lr_mult: 1
    decay_mult: 1
  }
  param {
    name: "conv31_b"
    lr_mult: 2
    decay_mult: 0
  }
  convolution_param {
    num_output: 128
    pad: 1
    kernel_size: 3
    weight_filler {
      type: "xavier"
    }
    bias_filler {
      type: "constant"
    }
  }
}
layer {
  name: "relu31_p"
  type: "PReLU"
  bottom: "conv31_p"
  top: "conv31_p"
}
layer {
  name: "bn31_p"
  type: "BatchNorm"
  bottom: "conv31_p"
  top: "bn31_p"
  param {
    lr_mult: 0
  }
  param {
    lr_mult: 0
  }
  param {
    lr_mult: 0
  }
}
layer {
  name: "fc4_p"
  type: "InnerProduct"
  bottom: "bn31_p"
  top: "fc4_p"
  param {
    name: "fc4_w"
    lr_mult: 1
    decay_mult: 1
  }
  param {
    name: "fc4_b"
    lr_mult: 2
    decay_mult: 0
  }
  inner_product_param {
    num_output: 1024
    weight_filler {
      type: "xavier"
    }
    bias_filler {
      type: "constant"
    }
  }
}
layer {
  name: "relu4_p"
  type: "PReLU"
  bottom: "fc4_p"
  top: "fc4_p"
}
layer {
  name: "drop4_p"
  type: "Dropout"
  bottom: "fc4_p"
  top: "fc4_p"
  include {
    phase: TRAIN
  }
  dropout_param {
    dropout_ratio: 0.6
  }
}
layer {
  name: "fc5_p"
  type: "InnerProduct"
  bottom: "fc4_p"
  top: "fc5_p"
  param {
    name: "fc5_w"
    lr_mult: 1
    decay_mult: 1
  }
  param {
    name: "fc5_b"
    lr_mult: 2
    decay_mult: 0
  }
  inner_product_param {
    num_output: 1024
    weight_filler {
      type: "xavier"
    }
    bias_filler {
      type: "constant"
    }
  }
}
layer {
  name: "relu5_p"
  type: "PReLU"
  bottom: "fc5_p"
  top: "fc5_p"
}
layer {
  name: "drop5_p"
  type: "Dropout"
  bottom: "fc5_p"
  top: "fc5_p"
  include {
    phase: TRAIN
  }
  dropout_param {
    dropout_ratio: 0.6
  }
}
layer {
  name: "fc5_p_sub"
  type: "InnerProduct"
  bottom: "fc4_p"
  top: "fc5_p_sub"
  param {
    name: "fc5_sub_w"
    lr_mult: 1
    decay_mult: 1
  }
  param {
    name: "fc5_sub_b"
    lr_mult: 2
    decay_mult: 0
  }
  inner_product_param {
    num_output: 1024
    weight_filler {
      type: "gaussian"
      std: 0.0001
    }
    bias_filler {
      type: "constant"
    }
  }
}
layer {
  name: "relu5_p_sub"
  type: "PReLU"
  bottom: "fc5_p_sub"
  top: "fc5_p_sub"
}
layer {
  name: "drop5_p_sub"
  type: "Dropout"
  bottom: "fc5_p_sub"
  top: "fc5_p_sub"
  include {
    phase: TRAIN
  }
  dropout_param {
    dropout_ratio: 0.6
  }
}
layer {
  name: "concat_p"
  type: "Concat"
  bottom: "fc5_p"
  bottom: "fc5_p_sub"
  top: "features_p"
}
layer {
  name: "pred_new_p"
  type: "InnerProduct"
  bottom: "features_p"
  top: "pred_new_p"
  param {
    name: "pred_w"
    lr_mult: 10
    decay_mult: 1
  }
  param {
    name: "pred_b"
    lr_mult: 20
    decay_mult: 0
  }
  inner_product_param {
    num_output: 7
    weight_filler {
      type: "gaussian"
      std: 0.01
    }
    bias_filler {
      type: "constant"
      value: 0
    }
  }
}
layer {
  name: "pred"
  type: "InnerProduct"
  bottom: "fc5"
  top: "pred"
  param {
    name: "pred_exp_w"
    lr_mult: 1
    decay_mult: 1
  }
  param {
    name: "pred_exp_b"
    lr_mult: 2
    decay_mult: 0
  }
  inner_product_param {
    num_output: 7
    weight_filler {
      type: "gaussian"
      std: 0.01
    }
    bias_filler {
      type: "constant"
      value: 0
    }
  }
}
layer {
  name: "pred_p"
  type: "InnerProduct"
  bottom: "fc5_p"
  top: "pred_p"
  param {
    name: "pred_exp_w"
    lr_mult: 1
    decay_mult: 1
  }
  param {
    name: "pred_exp_b"
    lr_mult: 2
    decay_mult: 0
  }
  inner_product_param {
    num_output: 7
    weight_filler {
      type: "gaussian"
      std: 0.01
    }
    bias_filler {
      type: "constant"
      value: 0
    }
  }
}
layer {
  name: "loss_contrastive"
  type: "ContrastiveLoss"
  bottom: "fc5"
  bottom: "fc5_p"
  bottom: "sim"
  top: "contrastive_loss_label"
  loss_weight: 1
  include {
    phase: TRAIN
  }
  contrastive_loss_param {
    margin: 1
  }
}
layer {
  name: "loss_contrastive_sub"
  type: "ContrastiveLoss"
  bottom: "fc5_sub"
  bottom: "fc5_p_sub"
  bottom: "subsim"
  top: "contrastive_loss_sub"
  loss_weight: 5
  include {
    phase: TRAIN
  }
  contrastive_loss_param {
    margin: 10
  }
}
layer {
  name: "loss_1"
  type: "SoftmaxWithLoss"
  bottom: "pred_new"
  bottom: "label1"
  top: "loss_1"
}
layer {
  name: "accuracy1"
  type: "Accuracy"
  bottom: "pred_new"
  bottom: "label1"
  top: "accuracy1"
  include {
    phase: TRAIN
  }
}
layer {
  name: "accuracy2"
  type: "Accuracy"
  bottom: "pred_new_p"
  bottom: "label2"
  top: "accuracy2"
  include {
    phase: TRAIN
  }
}
layer {
  name: "accuracy_exp"
  type: "Accuracy"
  bottom: "pred"
  bottom: "label1"
  top: "accuracy_exp"
}
layer {
  name: "accuracy_exp_p"
  type: "Accuracy"
  bottom: "pred_p"
  bottom: "label2"
  top: "accuracy_exp_p"
  include {
    phase: TRAIN
  }
}
layer {
  name: "loss_2"
  type: "SoftmaxWithLoss"
  bottom: "pred_new_p"
  bottom: "label2"
  top: "loss_2"
  loss_weight: 1
  include {
    phase: TRAIN
  }
}
layer {
  name: "loss_exp"
  type: "SoftmaxWithLoss"
  bottom: "pred"
  bottom: "label1"
  top: "loss_exp"
  loss_weight: 1
  include {
    phase: TRAIN
  }
}
layer {
  name: "loss_exp_p"
  type: "SoftmaxWithLoss"
  bottom: "pred_p"
  bottom: "label2"
  top: "loss_exp_p"
  loss_weight: 1
  include {
    phase: TRAIN
  }
}
I0612 10:24:50.083762  2993 layer_factory.hpp:77] Creating layer pair_data
I0612 10:24:50.083825  2993 net.cpp:91] Creating Layer pair_data
I0612 10:24:50.083842  2993 net.cpp:399] pair_data -> pair_data
I0612 10:24:50.083889  2993 net.cpp:399] pair_data -> labels
I0612 10:24:50.084453  2993 image_data_layer.cpp:40] Opening file examples/SFEW/data/siamese_bi_multi/Train/train
I0612 10:24:51.444313  2993 image_data_layer.cpp:70] Shuffling data
I0612 10:24:51.773769  2993 image_data_layer.cpp:75] A total of 376278 images.
I0612 10:24:51.792352  2993 image_data_layer.cpp:106] output data size: 64,2,48,48
I0612 10:24:51.796535  2993 net.cpp:141] Setting up pair_data
I0612 10:24:51.796576  2993 net.cpp:148] Top shape: 64 2 48 48 (294912)
I0612 10:24:51.796589  2993 net.cpp:148] Top shape: 64 4 (256)
I0612 10:24:51.796603  2993 net.cpp:156] Memory required for data: 1180672
I0612 10:24:51.796663  2993 layer_factory.hpp:77] Creating layer slice_pair
I0612 10:24:51.796766  2993 net.cpp:91] Creating Layer slice_pair
I0612 10:24:51.796785  2993 net.cpp:425] slice_pair <- pair_data
I0612 10:24:51.796810  2993 net.cpp:399] slice_pair -> data
I0612 10:24:51.796841  2993 net.cpp:399] slice_pair -> data_p
I0612 10:24:51.796978  2993 net.cpp:141] Setting up slice_pair
I0612 10:24:51.796998  2993 net.cpp:148] Top shape: 64 1 48 48 (147456)
I0612 10:24:51.797008  2993 net.cpp:148] Top shape: 64 1 48 48 (147456)
I0612 10:24:51.797019  2993 net.cpp:156] Memory required for data: 2360320
I0612 10:24:51.797026  2993 layer_factory.hpp:77] Creating layer slice_tri
I0612 10:24:51.797045  2993 net.cpp:91] Creating Layer slice_tri
I0612 10:24:51.797055  2993 net.cpp:425] slice_tri <- labels
I0612 10:24:51.797070  2993 net.cpp:399] slice_tri -> sim
I0612 10:24:51.797086  2993 net.cpp:399] slice_tri -> label1
I0612 10:24:51.797101  2993 net.cpp:399] slice_tri -> label2
I0612 10:24:51.797117  2993 net.cpp:399] slice_tri -> subsim
I0612 10:24:51.797245  2993 net.cpp:141] Setting up slice_tri
I0612 10:24:51.797291  2993 net.cpp:148] Top shape: 64 1 (64)
I0612 10:24:51.797302  2993 net.cpp:148] Top shape: 64 1 (64)
I0612 10:24:51.797310  2993 net.cpp:148] Top shape: 64 1 (64)
I0612 10:24:51.797318  2993 net.cpp:148] Top shape: 64 1 (64)
I0612 10:24:51.797325  2993 net.cpp:156] Memory required for data: 2361344
I0612 10:24:51.797333  2993 layer_factory.hpp:77] Creating layer label1_slice_tri_1_split
I0612 10:24:51.797354  2993 net.cpp:91] Creating Layer label1_slice_tri_1_split
I0612 10:24:51.797363  2993 net.cpp:425] label1_slice_tri_1_split <- label1
I0612 10:24:51.797375  2993 net.cpp:399] label1_slice_tri_1_split -> label1_slice_tri_1_split_0
I0612 10:24:51.797389  2993 net.cpp:399] label1_slice_tri_1_split -> label1_slice_tri_1_split_1
I0612 10:24:51.797402  2993 net.cpp:399] label1_slice_tri_1_split -> label1_slice_tri_1_split_2
I0612 10:24:51.797415  2993 net.cpp:399] label1_slice_tri_1_split -> label1_slice_tri_1_split_3
I0612 10:24:51.797505  2993 net.cpp:141] Setting up label1_slice_tri_1_split
I0612 10:24:51.797520  2993 net.cpp:148] Top shape: 64 1 (64)
I0612 10:24:51.797529  2993 net.cpp:148] Top shape: 64 1 (64)
I0612 10:24:51.797538  2993 net.cpp:148] Top shape: 64 1 (64)
I0612 10:24:51.797546  2993 net.cpp:148] Top shape: 64 1 (64)
I0612 10:24:51.797554  2993 net.cpp:156] Memory required for data: 2362368
I0612 10:24:51.797561  2993 layer_factory.hpp:77] Creating layer label2_slice_tri_2_split
I0612 10:24:51.797579  2993 net.cpp:91] Creating Layer label2_slice_tri_2_split
I0612 10:24:51.797588  2993 net.cpp:425] label2_slice_tri_2_split <- label2
I0612 10:24:51.797600  2993 net.cpp:399] label2_slice_tri_2_split -> label2_slice_tri_2_split_0
I0612 10:24:51.797612  2993 net.cpp:399] label2_slice_tri_2_split -> label2_slice_tri_2_split_1
I0612 10:24:51.797624  2993 net.cpp:399] label2_slice_tri_2_split -> label2_slice_tri_2_split_2
I0612 10:24:51.797636  2993 net.cpp:399] label2_slice_tri_2_split -> label2_slice_tri_2_split_3
I0612 10:24:51.797713  2993 net.cpp:141] Setting up label2_slice_tri_2_split
I0612 10:24:51.797726  2993 net.cpp:148] Top shape: 64 1 (64)
I0612 10:24:51.797735  2993 net.cpp:148] Top shape: 64 1 (64)
I0612 10:24:51.797744  2993 net.cpp:148] Top shape: 64 1 (64)
I0612 10:24:51.797752  2993 net.cpp:148] Top shape: 64 1 (64)
I0612 10:24:51.797760  2993 net.cpp:156] Memory required for data: 2363392
I0612 10:24:51.797768  2993 layer_factory.hpp:77] Creating layer conv11
I0612 10:24:51.797806  2993 net.cpp:91] Creating Layer conv11
I0612 10:24:51.797816  2993 net.cpp:425] conv11 <- data
I0612 10:24:51.797828  2993 net.cpp:399] conv11 -> conv11
I0612 10:24:52.220686  2993 net.cpp:141] Setting up conv11
I0612 10:24:52.220772  2993 net.cpp:148] Top shape: 64 64 24 24 (2359296)
I0612 10:24:52.220782  2993 net.cpp:156] Memory required for data: 11800576
I0612 10:24:52.220815  2993 layer_factory.hpp:77] Creating layer relu11
I0612 10:24:52.220841  2993 net.cpp:91] Creating Layer relu11
I0612 10:24:52.220852  2993 net.cpp:425] relu11 <- conv11
I0612 10:24:52.220865  2993 net.cpp:386] relu11 -> conv11 (in-place)
I0612 10:24:52.222033  2993 net.cpp:141] Setting up relu11
I0612 10:24:52.222055  2993 net.cpp:148] Top shape: 64 64 24 24 (2359296)
I0612 10:24:52.222064  2993 net.cpp:156] Memory required for data: 21237760
I0612 10:24:52.222084  2993 layer_factory.hpp:77] Creating layer bn11
I0612 10:24:52.222115  2993 net.cpp:91] Creating Layer bn11
I0612 10:24:52.222124  2993 net.cpp:425] bn11 <- conv11
I0612 10:24:52.222138  2993 net.cpp:399] bn11 -> bn11
I0612 10:24:52.222427  2993 net.cpp:141] Setting up bn11
I0612 10:24:52.222445  2993 net.cpp:148] Top shape: 64 64 24 24 (2359296)
I0612 10:24:52.222453  2993 net.cpp:156] Memory required for data: 30674944
I0612 10:24:52.222475  2993 layer_factory.hpp:77] Creating layer pool1
I0612 10:24:52.222493  2993 net.cpp:91] Creating Layer pool1
I0612 10:24:52.222502  2993 net.cpp:425] pool1 <- bn11
I0612 10:24:52.222514  2993 net.cpp:399] pool1 -> pool1
I0612 10:24:52.222592  2993 net.cpp:141] Setting up pool1
I0612 10:24:52.222627  2993 net.cpp:148] Top shape: 64 64 13 13 (692224)
I0612 10:24:52.222657  2993 net.cpp:156] Memory required for data: 33443840
I0612 10:24:52.222666  2993 layer_factory.hpp:77] Creating layer conv21
I0612 10:24:52.222687  2993 net.cpp:91] Creating Layer conv21
I0612 10:24:52.222697  2993 net.cpp:425] conv21 <- pool1
I0612 10:24:52.222708  2993 net.cpp:399] conv21 -> conv21
I0612 10:24:52.225785  2993 net.cpp:141] Setting up conv21
I0612 10:24:52.225812  2993 net.cpp:148] Top shape: 64 128 13 13 (1384448)
I0612 10:24:52.225821  2993 net.cpp:156] Memory required for data: 38981632
I0612 10:24:52.225833  2993 layer_factory.hpp:77] Creating layer relu21
I0612 10:24:52.225850  2993 net.cpp:91] Creating Layer relu21
I0612 10:24:52.225859  2993 net.cpp:425] relu21 <- conv21
I0612 10:24:52.225870  2993 net.cpp:386] relu21 -> conv21 (in-place)
I0612 10:24:52.226009  2993 net.cpp:141] Setting up relu21
I0612 10:24:52.226027  2993 net.cpp:148] Top shape: 64 128 13 13 (1384448)
I0612 10:24:52.226035  2993 net.cpp:156] Memory required for data: 44519424
I0612 10:24:52.226054  2993 layer_factory.hpp:77] Creating layer bn21
I0612 10:24:52.226068  2993 net.cpp:91] Creating Layer bn21
I0612 10:24:52.226076  2993 net.cpp:425] bn21 <- conv21
I0612 10:24:52.226089  2993 net.cpp:399] bn21 -> bn21
I0612 10:24:52.226347  2993 net.cpp:141] Setting up bn21
I0612 10:24:52.226366  2993 net.cpp:148] Top shape: 64 128 13 13 (1384448)
I0612 10:24:52.226372  2993 net.cpp:156] Memory required for data: 50057216
I0612 10:24:52.226388  2993 layer_factory.hpp:77] Creating layer pool2
I0612 10:24:52.226402  2993 net.cpp:91] Creating Layer pool2
I0612 10:24:52.226409  2993 net.cpp:425] pool2 <- bn21
I0612 10:24:52.226420  2993 net.cpp:399] pool2 -> pool2
I0612 10:24:52.226477  2993 net.cpp:141] Setting up pool2
I0612 10:24:52.226492  2993 net.cpp:148] Top shape: 64 128 7 7 (401408)
I0612 10:24:52.226500  2993 net.cpp:156] Memory required for data: 51662848
I0612 10:24:52.226507  2993 layer_factory.hpp:77] Creating layer conv31
I0612 10:24:52.226528  2993 net.cpp:91] Creating Layer conv31
I0612 10:24:52.226537  2993 net.cpp:425] conv31 <- pool2
I0612 10:24:52.226550  2993 net.cpp:399] conv31 -> conv31
I0612 10:24:52.229378  2993 net.cpp:141] Setting up conv31
I0612 10:24:52.229404  2993 net.cpp:148] Top shape: 64 128 7 7 (401408)
I0612 10:24:52.229413  2993 net.cpp:156] Memory required for data: 53268480
I0612 10:24:52.229425  2993 layer_factory.hpp:77] Creating layer relu31
I0612 10:24:52.229440  2993 net.cpp:91] Creating Layer relu31
I0612 10:24:52.229449  2993 net.cpp:425] relu31 <- conv31
I0612 10:24:52.229460  2993 net.cpp:386] relu31 -> conv31 (in-place)
I0612 10:24:52.230525  2993 net.cpp:141] Setting up relu31
I0612 10:24:52.230546  2993 net.cpp:148] Top shape: 64 128 7 7 (401408)
I0612 10:24:52.230554  2993 net.cpp:156] Memory required for data: 54874112
I0612 10:24:52.230567  2993 layer_factory.hpp:77] Creating layer bn31
I0612 10:24:52.230584  2993 net.cpp:91] Creating Layer bn31
I0612 10:24:52.230594  2993 net.cpp:425] bn31 <- conv31
I0612 10:24:52.230607  2993 net.cpp:399] bn31 -> bn31
I0612 10:24:52.230871  2993 net.cpp:141] Setting up bn31
I0612 10:24:52.230888  2993 net.cpp:148] Top shape: 64 128 7 7 (401408)
I0612 10:24:52.230896  2993 net.cpp:156] Memory required for data: 56479744
I0612 10:24:52.230916  2993 layer_factory.hpp:77] Creating layer fc4
I0612 10:24:52.230937  2993 net.cpp:91] Creating Layer fc4
I0612 10:24:52.230954  2993 net.cpp:425] fc4 <- bn31
I0612 10:24:52.230967  2993 net.cpp:399] fc4 -> fc4
I0612 10:24:52.326195  2993 net.cpp:141] Setting up fc4
I0612 10:24:52.326273  2993 net.cpp:148] Top shape: 64 1024 (65536)
I0612 10:24:52.326283  2993 net.cpp:156] Memory required for data: 56741888
I0612 10:24:52.326304  2993 layer_factory.hpp:77] Creating layer relu4
I0612 10:24:52.326323  2993 net.cpp:91] Creating Layer relu4
I0612 10:24:52.326334  2993 net.cpp:425] relu4 <- fc4
I0612 10:24:52.326349  2993 net.cpp:386] relu4 -> fc4 (in-place)
I0612 10:24:52.326490  2993 net.cpp:141] Setting up relu4
I0612 10:24:52.326541  2993 net.cpp:148] Top shape: 64 1024 (65536)
I0612 10:24:52.326570  2993 net.cpp:156] Memory required for data: 57004032
I0612 10:24:52.326591  2993 layer_factory.hpp:77] Creating layer drop4
I0612 10:24:52.326609  2993 net.cpp:91] Creating Layer drop4
I0612 10:24:52.326617  2993 net.cpp:425] drop4 <- fc4
I0612 10:24:52.326632  2993 net.cpp:386] drop4 -> fc4 (in-place)
I0612 10:24:52.326688  2993 net.cpp:141] Setting up drop4
I0612 10:24:52.326701  2993 net.cpp:148] Top shape: 64 1024 (65536)
I0612 10:24:52.326709  2993 net.cpp:156] Memory required for data: 57266176
I0612 10:24:52.326716  2993 layer_factory.hpp:77] Creating layer fc4_drop4_0_split
I0612 10:24:52.326730  2993 net.cpp:91] Creating Layer fc4_drop4_0_split
I0612 10:24:52.326737  2993 net.cpp:425] fc4_drop4_0_split <- fc4
I0612 10:24:52.326750  2993 net.cpp:399] fc4_drop4_0_split -> fc4_drop4_0_split_0
I0612 10:24:52.326762  2993 net.cpp:399] fc4_drop4_0_split -> fc4_drop4_0_split_1
I0612 10:24:52.326822  2993 net.cpp:141] Setting up fc4_drop4_0_split
I0612 10:24:52.326835  2993 net.cpp:148] Top shape: 64 1024 (65536)
I0612 10:24:52.326844  2993 net.cpp:148] Top shape: 64 1024 (65536)
I0612 10:24:52.326851  2993 net.cpp:156] Memory required for data: 57790464
I0612 10:24:52.326859  2993 layer_factory.hpp:77] Creating layer fc5
I0612 10:24:52.326877  2993 net.cpp:91] Creating Layer fc5
I0612 10:24:52.326886  2993 net.cpp:425] fc5 <- fc4_drop4_0_split_0
I0612 10:24:52.326900  2993 net.cpp:399] fc5 -> fc5
I0612 10:24:52.379848  2993 net.cpp:141] Setting up fc5
I0612 10:24:52.379876  2993 net.cpp:148] Top shape: 64 1024 (65536)
I0612 10:24:52.379884  2993 net.cpp:156] Memory required for data: 58052608
I0612 10:24:52.379899  2993 layer_factory.hpp:77] Creating layer relu5
I0612 10:24:52.379910  2993 net.cpp:91] Creating Layer relu5
I0612 10:24:52.379919  2993 net.cpp:425] relu5 <- fc5
I0612 10:24:52.379930  2993 net.cpp:386] relu5 -> fc5 (in-place)
I0612 10:24:52.380058  2993 net.cpp:141] Setting up relu5
I0612 10:24:52.380074  2993 net.cpp:148] Top shape: 64 1024 (65536)
I0612 10:24:52.380081  2993 net.cpp:156] Memory required for data: 58314752
I0612 10:24:52.380096  2993 layer_factory.hpp:77] Creating layer drop5
I0612 10:24:52.380110  2993 net.cpp:91] Creating Layer drop5
I0612 10:24:52.380120  2993 net.cpp:425] drop5 <- fc5
I0612 10:24:52.380131  2993 net.cpp:386] drop5 -> fc5 (in-place)
I0612 10:24:52.380172  2993 net.cpp:141] Setting up drop5
I0612 10:24:52.380185  2993 net.cpp:148] Top shape: 64 1024 (65536)
I0612 10:24:52.380193  2993 net.cpp:156] Memory required for data: 58576896
I0612 10:24:52.380201  2993 layer_factory.hpp:77] Creating layer fc5_drop5_0_split
I0612 10:24:52.380213  2993 net.cpp:91] Creating Layer fc5_drop5_0_split
I0612 10:24:52.380221  2993 net.cpp:425] fc5_drop5_0_split <- fc5
I0612 10:24:52.380233  2993 net.cpp:399] fc5_drop5_0_split -> fc5_drop5_0_split_0
I0612 10:24:52.380245  2993 net.cpp:399] fc5_drop5_0_split -> fc5_drop5_0_split_1
I0612 10:24:52.380259  2993 net.cpp:399] fc5_drop5_0_split -> fc5_drop5_0_split_2
I0612 10:24:52.380327  2993 net.cpp:141] Setting up fc5_drop5_0_split
I0612 10:24:52.380342  2993 net.cpp:148] Top shape: 64 1024 (65536)
I0612 10:24:52.380350  2993 net.cpp:148] Top shape: 64 1024 (65536)
I0612 10:24:52.380359  2993 net.cpp:148] Top shape: 64 1024 (65536)
I0612 10:24:52.380367  2993 net.cpp:156] Memory required for data: 59363328
I0612 10:24:52.380373  2993 layer_factory.hpp:77] Creating layer fc5_sub
I0612 10:24:52.380390  2993 net.cpp:91] Creating Layer fc5_sub
I0612 10:24:52.380399  2993 net.cpp:425] fc5_sub <- fc4_drop4_0_split_1
I0612 10:24:52.380414  2993 net.cpp:399] fc5_sub -> fc5_sub
I0612 10:24:52.433226  2993 net.cpp:141] Setting up fc5_sub
I0612 10:24:52.433261  2993 net.cpp:148] Top shape: 64 1024 (65536)
I0612 10:24:52.433270  2993 net.cpp:156] Memory required for data: 59625472
I0612 10:24:52.433284  2993 layer_factory.hpp:77] Creating layer relu5_sub
I0612 10:24:52.433303  2993 net.cpp:91] Creating Layer relu5_sub
I0612 10:24:52.433313  2993 net.cpp:425] relu5_sub <- fc5_sub
I0612 10:24:52.433362  2993 net.cpp:386] relu5_sub -> fc5_sub (in-place)
I0612 10:24:52.433500  2993 net.cpp:141] Setting up relu5_sub
I0612 10:24:52.433516  2993 net.cpp:148] Top shape: 64 1024 (65536)
I0612 10:24:52.433524  2993 net.cpp:156] Memory required for data: 59887616
I0612 10:24:52.433537  2993 layer_factory.hpp:77] Creating layer drop5_sub
I0612 10:24:52.433552  2993 net.cpp:91] Creating Layer drop5_sub
I0612 10:24:52.433560  2993 net.cpp:425] drop5_sub <- fc5_sub
I0612 10:24:52.433573  2993 net.cpp:386] drop5_sub -> fc5_sub (in-place)
I0612 10:24:52.433614  2993 net.cpp:141] Setting up drop5_sub
I0612 10:24:52.433627  2993 net.cpp:148] Top shape: 64 1024 (65536)
I0612 10:24:52.433634  2993 net.cpp:156] Memory required for data: 60149760
I0612 10:24:52.433642  2993 layer_factory.hpp:77] Creating layer fc5_sub_drop5_sub_0_split
I0612 10:24:52.433653  2993 net.cpp:91] Creating Layer fc5_sub_drop5_sub_0_split
I0612 10:24:52.433661  2993 net.cpp:425] fc5_sub_drop5_sub_0_split <- fc5_sub
I0612 10:24:52.433672  2993 net.cpp:399] fc5_sub_drop5_sub_0_split -> fc5_sub_drop5_sub_0_split_0
I0612 10:24:52.433694  2993 net.cpp:399] fc5_sub_drop5_sub_0_split -> fc5_sub_drop5_sub_0_split_1
I0612 10:24:52.433753  2993 net.cpp:141] Setting up fc5_sub_drop5_sub_0_split
I0612 10:24:52.433769  2993 net.cpp:148] Top shape: 64 1024 (65536)
I0612 10:24:52.433779  2993 net.cpp:148] Top shape: 64 1024 (65536)
I0612 10:24:52.433785  2993 net.cpp:156] Memory required for data: 60674048
I0612 10:24:52.433794  2993 layer_factory.hpp:77] Creating layer concat
I0612 10:24:52.433806  2993 net.cpp:91] Creating Layer concat
I0612 10:24:52.433815  2993 net.cpp:425] concat <- fc5_drop5_0_split_0
I0612 10:24:52.433825  2993 net.cpp:425] concat <- fc5_sub_drop5_sub_0_split_0
I0612 10:24:52.433837  2993 net.cpp:399] concat -> features
I0612 10:24:52.433881  2993 net.cpp:141] Setting up concat
I0612 10:24:52.433895  2993 net.cpp:148] Top shape: 64 2048 (131072)
I0612 10:24:52.433902  2993 net.cpp:156] Memory required for data: 61198336
I0612 10:24:52.433912  2993 layer_factory.hpp:77] Creating layer pred_new
I0612 10:24:52.433928  2993 net.cpp:91] Creating Layer pred_new
I0612 10:24:52.433936  2993 net.cpp:425] pred_new <- features
I0612 10:24:52.433951  2993 net.cpp:399] pred_new -> pred_new
I0612 10:24:52.434805  2993 net.cpp:141] Setting up pred_new
I0612 10:24:52.434823  2993 net.cpp:148] Top shape: 64 7 (448)
I0612 10:24:52.434830  2993 net.cpp:156] Memory required for data: 61200128
I0612 10:24:52.434842  2993 layer_factory.hpp:77] Creating layer pred_new_pred_new_0_split
I0612 10:24:52.434854  2993 net.cpp:91] Creating Layer pred_new_pred_new_0_split
I0612 10:24:52.434862  2993 net.cpp:425] pred_new_pred_new_0_split <- pred_new
I0612 10:24:52.434875  2993 net.cpp:399] pred_new_pred_new_0_split -> pred_new_pred_new_0_split_0
I0612 10:24:52.434887  2993 net.cpp:399] pred_new_pred_new_0_split -> pred_new_pred_new_0_split_1
I0612 10:24:52.434947  2993 net.cpp:141] Setting up pred_new_pred_new_0_split
I0612 10:24:52.434962  2993 net.cpp:148] Top shape: 64 7 (448)
I0612 10:24:52.434972  2993 net.cpp:148] Top shape: 64 7 (448)
I0612 10:24:52.434978  2993 net.cpp:156] Memory required for data: 61203712
I0612 10:24:52.434986  2993 layer_factory.hpp:77] Creating layer conv11_p
I0612 10:24:52.435009  2993 net.cpp:91] Creating Layer conv11_p
I0612 10:24:52.435017  2993 net.cpp:425] conv11_p <- data_p
I0612 10:24:52.435031  2993 net.cpp:399] conv11_p -> conv11_p
I0612 10:24:52.436619  2993 net.cpp:141] Setting up conv11_p
I0612 10:24:52.436645  2993 net.cpp:148] Top shape: 64 64 24 24 (2359296)
I0612 10:24:52.436653  2993 net.cpp:156] Memory required for data: 70640896
I0612 10:24:52.436663  2993 net.cpp:484] Sharing parameters 'conv11_w' owned by layer 'conv11', param index 0
I0612 10:24:52.436674  2993 net.cpp:484] Sharing parameters 'conv11_b' owned by layer 'conv11', param index 1
I0612 10:24:52.436682  2993 layer_factory.hpp:77] Creating layer relu11_p
I0612 10:24:52.436705  2993 net.cpp:91] Creating Layer relu11_p
I0612 10:24:52.436724  2993 net.cpp:425] relu11_p <- conv11_p
I0612 10:24:52.436749  2993 net.cpp:386] relu11_p -> conv11_p (in-place)
I0612 10:24:52.436949  2993 net.cpp:141] Setting up relu11_p
I0612 10:24:52.436966  2993 net.cpp:148] Top shape: 64 64 24 24 (2359296)
I0612 10:24:52.436975  2993 net.cpp:156] Memory required for data: 80078080
I0612 10:24:52.436990  2993 layer_factory.hpp:77] Creating layer bn11_p
I0612 10:24:52.437005  2993 net.cpp:91] Creating Layer bn11_p
I0612 10:24:52.437014  2993 net.cpp:425] bn11_p <- conv11_p
I0612 10:24:52.437027  2993 net.cpp:399] bn11_p -> bn11_p
I0612 10:24:52.437325  2993 net.cpp:141] Setting up bn11_p
I0612 10:24:52.437342  2993 net.cpp:148] Top shape: 64 64 24 24 (2359296)
I0612 10:24:52.437350  2993 net.cpp:156] Memory required for data: 89515264
I0612 10:24:52.437377  2993 layer_factory.hpp:77] Creating layer pool1_p
I0612 10:24:52.437394  2993 net.cpp:91] Creating Layer pool1_p
I0612 10:24:52.437402  2993 net.cpp:425] pool1_p <- bn11_p
I0612 10:24:52.437417  2993 net.cpp:399] pool1_p -> pool1_p
I0612 10:24:52.437482  2993 net.cpp:141] Setting up pool1_p
I0612 10:24:52.437497  2993 net.cpp:148] Top shape: 64 64 13 13 (692224)
I0612 10:24:52.437505  2993 net.cpp:156] Memory required for data: 92284160
I0612 10:24:52.437512  2993 layer_factory.hpp:77] Creating layer conv21_p
I0612 10:24:52.437535  2993 net.cpp:91] Creating Layer conv21_p
I0612 10:24:52.437544  2993 net.cpp:425] conv21_p <- pool1_p
I0612 10:24:52.437558  2993 net.cpp:399] conv21_p -> conv21_p
I0612 10:24:52.440712  2993 net.cpp:141] Setting up conv21_p
I0612 10:24:52.440738  2993 net.cpp:148] Top shape: 64 128 13 13 (1384448)
I0612 10:24:52.440747  2993 net.cpp:156] Memory required for data: 97821952
I0612 10:24:52.440757  2993 net.cpp:484] Sharing parameters 'conv21_w' owned by layer 'conv21', param index 0
I0612 10:24:52.440768  2993 net.cpp:484] Sharing parameters 'conv21_b' owned by layer 'conv21', param index 1
I0612 10:24:52.440776  2993 layer_factory.hpp:77] Creating layer relu21_p
I0612 10:24:52.440790  2993 net.cpp:91] Creating Layer relu21_p
I0612 10:24:52.440799  2993 net.cpp:425] relu21_p <- conv21_p
I0612 10:24:52.440811  2993 net.cpp:386] relu21_p -> conv21_p (in-place)
I0612 10:24:52.440978  2993 net.cpp:141] Setting up relu21_p
I0612 10:24:52.440995  2993 net.cpp:148] Top shape: 64 128 13 13 (1384448)
I0612 10:24:52.441004  2993 net.cpp:156] Memory required for data: 103359744
I0612 10:24:52.441015  2993 layer_factory.hpp:77] Creating layer bn21_p
I0612 10:24:52.441031  2993 net.cpp:91] Creating Layer bn21_p
I0612 10:24:52.441040  2993 net.cpp:425] bn21_p <- conv21_p
I0612 10:24:52.441052  2993 net.cpp:399] bn21_p -> bn21_p
I0612 10:24:52.441370  2993 net.cpp:141] Setting up bn21_p
I0612 10:24:52.441387  2993 net.cpp:148] Top shape: 64 128 13 13 (1384448)
I0612 10:24:52.441395  2993 net.cpp:156] Memory required for data: 108897536
I0612 10:24:52.441409  2993 layer_factory.hpp:77] Creating layer pool2_p
I0612 10:24:52.441423  2993 net.cpp:91] Creating Layer pool2_p
I0612 10:24:52.441431  2993 net.cpp:425] pool2_p <- bn21_p
I0612 10:24:52.441447  2993 net.cpp:399] pool2_p -> pool2_p
I0612 10:24:52.441514  2993 net.cpp:141] Setting up pool2_p
I0612 10:24:52.441529  2993 net.cpp:148] Top shape: 64 128 7 7 (401408)
I0612 10:24:52.441536  2993 net.cpp:156] Memory required for data: 110503168
I0612 10:24:52.441545  2993 layer_factory.hpp:77] Creating layer conv31_p
I0612 10:24:52.441565  2993 net.cpp:91] Creating Layer conv31_p
I0612 10:24:52.441576  2993 net.cpp:425] conv31_p <- pool2_p
I0612 10:24:52.441592  2993 net.cpp:399] conv31_p -> conv31_p
I0612 10:24:52.444674  2993 net.cpp:141] Setting up conv31_p
I0612 10:24:52.444701  2993 net.cpp:148] Top shape: 64 128 7 7 (401408)
I0612 10:24:52.444710  2993 net.cpp:156] Memory required for data: 112108800
I0612 10:24:52.444720  2993 net.cpp:484] Sharing parameters 'conv31_w' owned by layer 'conv31', param index 0
I0612 10:24:52.444730  2993 net.cpp:484] Sharing parameters 'conv31_b' owned by layer 'conv31', param index 1
I0612 10:24:52.444741  2993 layer_factory.hpp:77] Creating layer relu31_p
I0612 10:24:52.444782  2993 net.cpp:91] Creating Layer relu31_p
I0612 10:24:52.444792  2993 net.cpp:425] relu31_p <- conv31_p
I0612 10:24:52.444807  2993 net.cpp:386] relu31_p -> conv31_p (in-place)
I0612 10:24:52.444963  2993 net.cpp:141] Setting up relu31_p
I0612 10:24:52.444984  2993 net.cpp:148] Top shape: 64 128 7 7 (401408)
I0612 10:24:52.444993  2993 net.cpp:156] Memory required for data: 113714432
I0612 10:24:52.445003  2993 layer_factory.hpp:77] Creating layer bn31_p
I0612 10:24:52.445019  2993 net.cpp:91] Creating Layer bn31_p
I0612 10:24:52.445027  2993 net.cpp:425] bn31_p <- conv31_p
I0612 10:24:52.445039  2993 net.cpp:399] bn31_p -> bn31_p
I0612 10:24:52.445340  2993 net.cpp:141] Setting up bn31_p
I0612 10:24:52.445358  2993 net.cpp:148] Top shape: 64 128 7 7 (401408)
I0612 10:24:52.445365  2993 net.cpp:156] Memory required for data: 115320064
I0612 10:24:52.445379  2993 layer_factory.hpp:77] Creating layer fc4_p
I0612 10:24:52.445394  2993 net.cpp:91] Creating Layer fc4_p
I0612 10:24:52.445402  2993 net.cpp:425] fc4_p <- bn31_p
I0612 10:24:52.445418  2993 net.cpp:399] fc4_p -> fc4_p
I0612 10:24:52.534957  2993 net.cpp:141] Setting up fc4_p
I0612 10:24:52.535028  2993 net.cpp:148] Top shape: 64 1024 (65536)
I0612 10:24:52.535038  2993 net.cpp:156] Memory required for data: 115582208
I0612 10:24:52.535053  2993 net.cpp:484] Sharing parameters 'fc4_w' owned by layer 'fc4', param index 0
I0612 10:24:52.535064  2993 net.cpp:484] Sharing parameters 'fc4_b' owned by layer 'fc4', param index 1
I0612 10:24:52.535074  2993 layer_factory.hpp:77] Creating layer relu4_p
I0612 10:24:52.535100  2993 net.cpp:91] Creating Layer relu4_p
I0612 10:24:52.535111  2993 net.cpp:425] relu4_p <- fc4_p
I0612 10:24:52.535130  2993 net.cpp:386] relu4_p -> fc4_p (in-place)
I0612 10:24:52.535287  2993 net.cpp:141] Setting up relu4_p
I0612 10:24:52.535307  2993 net.cpp:148] Top shape: 64 1024 (65536)
I0612 10:24:52.535315  2993 net.cpp:156] Memory required for data: 115844352
I0612 10:24:52.535329  2993 layer_factory.hpp:77] Creating layer drop4_p
I0612 10:24:52.535346  2993 net.cpp:91] Creating Layer drop4_p
I0612 10:24:52.535356  2993 net.cpp:425] drop4_p <- fc4_p
I0612 10:24:52.535367  2993 net.cpp:386] drop4_p -> fc4_p (in-place)
I0612 10:24:52.535415  2993 net.cpp:141] Setting up drop4_p
I0612 10:24:52.535429  2993 net.cpp:148] Top shape: 64 1024 (65536)
I0612 10:24:52.535437  2993 net.cpp:156] Memory required for data: 116106496
I0612 10:24:52.535445  2993 layer_factory.hpp:77] Creating layer fc4_p_drop4_p_0_split
I0612 10:24:52.535457  2993 net.cpp:91] Creating Layer fc4_p_drop4_p_0_split
I0612 10:24:52.535465  2993 net.cpp:425] fc4_p_drop4_p_0_split <- fc4_p
I0612 10:24:52.535476  2993 net.cpp:399] fc4_p_drop4_p_0_split -> fc4_p_drop4_p_0_split_0
I0612 10:24:52.535491  2993 net.cpp:399] fc4_p_drop4_p_0_split -> fc4_p_drop4_p_0_split_1
I0612 10:24:52.535557  2993 net.cpp:141] Setting up fc4_p_drop4_p_0_split
I0612 10:24:52.535573  2993 net.cpp:148] Top shape: 64 1024 (65536)
I0612 10:24:52.535583  2993 net.cpp:148] Top shape: 64 1024 (65536)
I0612 10:24:52.535589  2993 net.cpp:156] Memory required for data: 116630784
I0612 10:24:52.535598  2993 layer_factory.hpp:77] Creating layer fc5_p
I0612 10:24:52.535622  2993 net.cpp:91] Creating Layer fc5_p
I0612 10:24:52.535634  2993 net.cpp:425] fc5_p <- fc4_p_drop4_p_0_split_0
I0612 10:24:52.535648  2993 net.cpp:399] fc5_p -> fc5_p
I0612 10:24:52.550536  2993 net.cpp:141] Setting up fc5_p
I0612 10:24:52.550571  2993 net.cpp:148] Top shape: 64 1024 (65536)
I0612 10:24:52.550580  2993 net.cpp:156] Memory required for data: 116892928
I0612 10:24:52.550592  2993 net.cpp:484] Sharing parameters 'fc5_w' owned by layer 'fc5', param index 0
I0612 10:24:52.550602  2993 net.cpp:484] Sharing parameters 'fc5_b' owned by layer 'fc5', param index 1
I0612 10:24:52.550611  2993 layer_factory.hpp:77] Creating layer relu5_p
I0612 10:24:52.550626  2993 net.cpp:91] Creating Layer relu5_p
I0612 10:24:52.550637  2993 net.cpp:425] relu5_p <- fc5_p
I0612 10:24:52.550668  2993 net.cpp:386] relu5_p -> fc5_p (in-place)
I0612 10:24:52.550829  2993 net.cpp:141] Setting up relu5_p
I0612 10:24:52.550845  2993 net.cpp:148] Top shape: 64 1024 (65536)
I0612 10:24:52.550853  2993 net.cpp:156] Memory required for data: 117155072
I0612 10:24:52.550863  2993 layer_factory.hpp:77] Creating layer drop5_p
I0612 10:24:52.550879  2993 net.cpp:91] Creating Layer drop5_p
I0612 10:24:52.550887  2993 net.cpp:425] drop5_p <- fc5_p
I0612 10:24:52.550899  2993 net.cpp:386] drop5_p -> fc5_p (in-place)
I0612 10:24:52.550945  2993 net.cpp:141] Setting up drop5_p
I0612 10:24:52.550961  2993 net.cpp:148] Top shape: 64 1024 (65536)
I0612 10:24:52.550967  2993 net.cpp:156] Memory required for data: 117417216
I0612 10:24:52.550976  2993 layer_factory.hpp:77] Creating layer fc5_p_drop5_p_0_split
I0612 10:24:52.550987  2993 net.cpp:91] Creating Layer fc5_p_drop5_p_0_split
I0612 10:24:52.550995  2993 net.cpp:425] fc5_p_drop5_p_0_split <- fc5_p
I0612 10:24:52.551005  2993 net.cpp:399] fc5_p_drop5_p_0_split -> fc5_p_drop5_p_0_split_0
I0612 10:24:52.551020  2993 net.cpp:399] fc5_p_drop5_p_0_split -> fc5_p_drop5_p_0_split_1
I0612 10:24:52.551033  2993 net.cpp:399] fc5_p_drop5_p_0_split -> fc5_p_drop5_p_0_split_2
I0612 10:24:52.551111  2993 net.cpp:141] Setting up fc5_p_drop5_p_0_split
I0612 10:24:52.551126  2993 net.cpp:148] Top shape: 64 1024 (65536)
I0612 10:24:52.551134  2993 net.cpp:148] Top shape: 64 1024 (65536)
I0612 10:24:52.551143  2993 net.cpp:148] Top shape: 64 1024 (65536)
I0612 10:24:52.551151  2993 net.cpp:156] Memory required for data: 118203648
I0612 10:24:52.551158  2993 layer_factory.hpp:77] Creating layer fc5_p_sub
I0612 10:24:52.551173  2993 net.cpp:91] Creating Layer fc5_p_sub
I0612 10:24:52.551182  2993 net.cpp:425] fc5_p_sub <- fc4_p_drop4_p_0_split_1
I0612 10:24:52.551194  2993 net.cpp:399] fc5_p_sub -> fc5_p_sub
I0612 10:24:52.604118  2993 net.cpp:141] Setting up fc5_p_sub
I0612 10:24:52.604159  2993 net.cpp:148] Top shape: 64 1024 (65536)
I0612 10:24:52.604168  2993 net.cpp:156] Memory required for data: 118465792
I0612 10:24:52.604179  2993 net.cpp:484] Sharing parameters 'fc5_sub_w' owned by layer 'fc5_sub', param index 0
I0612 10:24:52.604192  2993 net.cpp:484] Sharing parameters 'fc5_sub_b' owned by layer 'fc5_sub', param index 1
I0612 10:24:52.604202  2993 layer_factory.hpp:77] Creating layer relu5_p_sub
I0612 10:24:52.604217  2993 net.cpp:91] Creating Layer relu5_p_sub
I0612 10:24:52.604234  2993 net.cpp:425] relu5_p_sub <- fc5_p_sub
I0612 10:24:52.604246  2993 net.cpp:386] relu5_p_sub -> fc5_p_sub (in-place)
I0612 10:24:52.604388  2993 net.cpp:141] Setting up relu5_p_sub
I0612 10:24:52.604404  2993 net.cpp:148] Top shape: 64 1024 (65536)
I0612 10:24:52.604413  2993 net.cpp:156] Memory required for data: 118727936
I0612 10:24:52.604423  2993 layer_factory.hpp:77] Creating layer drop5_p_sub
I0612 10:24:52.604441  2993 net.cpp:91] Creating Layer drop5_p_sub
I0612 10:24:52.604451  2993 net.cpp:425] drop5_p_sub <- fc5_p_sub
I0612 10:24:52.604462  2993 net.cpp:386] drop5_p_sub -> fc5_p_sub (in-place)
I0612 10:24:52.604506  2993 net.cpp:141] Setting up drop5_p_sub
I0612 10:24:52.604519  2993 net.cpp:148] Top shape: 64 1024 (65536)
I0612 10:24:52.604527  2993 net.cpp:156] Memory required for data: 118990080
I0612 10:24:52.604535  2993 layer_factory.hpp:77] Creating layer fc5_p_sub_drop5_p_sub_0_split
I0612 10:24:52.604547  2993 net.cpp:91] Creating Layer fc5_p_sub_drop5_p_sub_0_split
I0612 10:24:52.604554  2993 net.cpp:425] fc5_p_sub_drop5_p_sub_0_split <- fc5_p_sub
I0612 10:24:52.604565  2993 net.cpp:399] fc5_p_sub_drop5_p_sub_0_split -> fc5_p_sub_drop5_p_sub_0_split_0
I0612 10:24:52.604580  2993 net.cpp:399] fc5_p_sub_drop5_p_sub_0_split -> fc5_p_sub_drop5_p_sub_0_split_1
I0612 10:24:52.604640  2993 net.cpp:141] Setting up fc5_p_sub_drop5_p_sub_0_split
I0612 10:24:52.604655  2993 net.cpp:148] Top shape: 64 1024 (65536)
I0612 10:24:52.604665  2993 net.cpp:148] Top shape: 64 1024 (65536)
I0612 10:24:52.604671  2993 net.cpp:156] Memory required for data: 119514368
I0612 10:24:52.604679  2993 layer_factory.hpp:77] Creating layer concat_p
I0612 10:24:52.604717  2993 net.cpp:91] Creating Layer concat_p
I0612 10:24:52.604727  2993 net.cpp:425] concat_p <- fc5_p_drop5_p_0_split_0
I0612 10:24:52.604737  2993 net.cpp:425] concat_p <- fc5_p_sub_drop5_p_sub_0_split_0
I0612 10:24:52.604748  2993 net.cpp:399] concat_p -> features_p
I0612 10:24:52.604799  2993 net.cpp:141] Setting up concat_p
I0612 10:24:52.604814  2993 net.cpp:148] Top shape: 64 2048 (131072)
I0612 10:24:52.604820  2993 net.cpp:156] Memory required for data: 120038656
I0612 10:24:52.604828  2993 layer_factory.hpp:77] Creating layer pred_new_p
I0612 10:24:52.604843  2993 net.cpp:91] Creating Layer pred_new_p
I0612 10:24:52.604852  2993 net.cpp:425] pred_new_p <- features_p
I0612 10:24:52.604869  2993 net.cpp:399] pred_new_p -> pred_new_p
I0612 10:24:52.605729  2993 net.cpp:141] Setting up pred_new_p
I0612 10:24:52.605747  2993 net.cpp:148] Top shape: 64 7 (448)
I0612 10:24:52.605756  2993 net.cpp:156] Memory required for data: 120040448
I0612 10:24:52.605764  2993 net.cpp:484] Sharing parameters 'pred_w' owned by layer 'pred_new', param index 0
I0612 10:24:52.605774  2993 net.cpp:484] Sharing parameters 'pred_b' owned by layer 'pred_new', param index 1
I0612 10:24:52.605782  2993 layer_factory.hpp:77] Creating layer pred_new_p_pred_new_p_0_split
I0612 10:24:52.605793  2993 net.cpp:91] Creating Layer pred_new_p_pred_new_p_0_split
I0612 10:24:52.605803  2993 net.cpp:425] pred_new_p_pred_new_p_0_split <- pred_new_p
I0612 10:24:52.605813  2993 net.cpp:399] pred_new_p_pred_new_p_0_split -> pred_new_p_pred_new_p_0_split_0
I0612 10:24:52.605828  2993 net.cpp:399] pred_new_p_pred_new_p_0_split -> pred_new_p_pred_new_p_0_split_1
I0612 10:24:52.605901  2993 net.cpp:141] Setting up pred_new_p_pred_new_p_0_split
I0612 10:24:52.605917  2993 net.cpp:148] Top shape: 64 7 (448)
I0612 10:24:52.605926  2993 net.cpp:148] Top shape: 64 7 (448)
I0612 10:24:52.605933  2993 net.cpp:156] Memory required for data: 120044032
I0612 10:24:52.605942  2993 layer_factory.hpp:77] Creating layer pred
I0612 10:24:52.605960  2993 net.cpp:91] Creating Layer pred
I0612 10:24:52.605970  2993 net.cpp:425] pred <- fc5_drop5_0_split_1
I0612 10:24:52.605983  2993 net.cpp:399] pred -> pred
I0612 10:24:52.606484  2993 net.cpp:141] Setting up pred
I0612 10:24:52.606503  2993 net.cpp:148] Top shape: 64 7 (448)
I0612 10:24:52.606509  2993 net.cpp:156] Memory required for data: 120045824
I0612 10:24:52.606521  2993 layer_factory.hpp:77] Creating layer pred_pred_0_split
I0612 10:24:52.606536  2993 net.cpp:91] Creating Layer pred_pred_0_split
I0612 10:24:52.606545  2993 net.cpp:425] pred_pred_0_split <- pred
I0612 10:24:52.606557  2993 net.cpp:399] pred_pred_0_split -> pred_pred_0_split_0
I0612 10:24:52.606570  2993 net.cpp:399] pred_pred_0_split -> pred_pred_0_split_1
I0612 10:24:52.606628  2993 net.cpp:141] Setting up pred_pred_0_split
I0612 10:24:52.606642  2993 net.cpp:148] Top shape: 64 7 (448)
I0612 10:24:52.606650  2993 net.cpp:148] Top shape: 64 7 (448)
I0612 10:24:52.606657  2993 net.cpp:156] Memory required for data: 120049408
I0612 10:24:52.606665  2993 layer_factory.hpp:77] Creating layer pred_p
I0612 10:24:52.606683  2993 net.cpp:91] Creating Layer pred_p
I0612 10:24:52.606693  2993 net.cpp:425] pred_p <- fc5_p_drop5_p_0_split_1
I0612 10:24:52.606705  2993 net.cpp:399] pred_p -> pred_p
I0612 10:24:52.607205  2993 net.cpp:141] Setting up pred_p
I0612 10:24:52.607221  2993 net.cpp:148] Top shape: 64 7 (448)
I0612 10:24:52.607229  2993 net.cpp:156] Memory required for data: 120051200
I0612 10:24:52.607239  2993 net.cpp:484] Sharing parameters 'pred_exp_w' owned by layer 'pred', param index 0
I0612 10:24:52.607247  2993 net.cpp:484] Sharing parameters 'pred_exp_b' owned by layer 'pred', param index 1
I0612 10:24:52.607255  2993 layer_factory.hpp:77] Creating layer pred_p_pred_p_0_split
I0612 10:24:52.607270  2993 net.cpp:91] Creating Layer pred_p_pred_p_0_split
I0612 10:24:52.607278  2993 net.cpp:425] pred_p_pred_p_0_split <- pred_p
I0612 10:24:52.607290  2993 net.cpp:399] pred_p_pred_p_0_split -> pred_p_pred_p_0_split_0
I0612 10:24:52.607322  2993 net.cpp:399] pred_p_pred_p_0_split -> pred_p_pred_p_0_split_1
I0612 10:24:52.607400  2993 net.cpp:141] Setting up pred_p_pred_p_0_split
I0612 10:24:52.607420  2993 net.cpp:148] Top shape: 64 7 (448)
I0612 10:24:52.607430  2993 net.cpp:148] Top shape: 64 7 (448)
I0612 10:24:52.607437  2993 net.cpp:156] Memory required for data: 120054784
I0612 10:24:52.607445  2993 layer_factory.hpp:77] Creating layer loss_contrastive
I0612 10:24:52.607462  2993 net.cpp:91] Creating Layer loss_contrastive
I0612 10:24:52.607470  2993 net.cpp:425] loss_contrastive <- fc5_drop5_0_split_2
I0612 10:24:52.607481  2993 net.cpp:425] loss_contrastive <- fc5_p_drop5_p_0_split_2
…
I0612 10:24:52.627244  2993 net.cpp:313] The NetState phase (1) differed from the phase (0) specified by a rule in layer loss_exp_p
I0612 10:24:52.628079  2993 net.cpp:49] Initializing net from parameters: 
name: "SiameseNet"
state {
  phase: TEST
}
layer {
  name: "data_p"
  type: "ImageData"
  top: "data_p"
  top: "label2"
  include {
    phase: TEST
  }
  transform_param {
    crop_size: 48
  }
  image_data_param {
    source: "/home/zibo/Data/Database/SFEW/Exp_multi/Train/train"
    batch_size: 1230
    shuffle: false
    new_height: 60
    new_width: 60
    is_color: false
    root_folder: "/home/zibo/Data/Database/SFEW_60x60/"
    image_num: 1
    label_dim: 1
  }
}
layer {
  name: "silence"
  type: "Silence"
  bottom: "data_p"
  include {
    phase: TEST
  }
}
layer {
  name: "silence"
  type: "Silence"
  bottom: "label2"
  include {
    phase: TEST
  }
}
layer {
  name: "data"
  type: "ImageData"
  top: "data"
  top: "label1"
  include {
    phase: TEST
  }
  transform_param {
    crop_size: 48
  }
  image_data_param {
    source: "/home/zibo/Data/Database/SFEW/Exp_multi/Train/test"
    batch_size: 410
    shuffle: false
    new_height: 60
    new_width: 60
    is_color: false
    root_folder: "/home/zibo/Data/Database/SFEW_60x60/"
    image_num: 1
    label_dim: 1
  }
}
layer {
  name: "conv11"
  type: "Convolution"
  bottom: "data"
  top: "conv11"
  param {
    name: "conv11_w"
    lr_mult: 1
    decay_mult: 1
  }
  param {
    name: "conv11_b"
    lr_mult: 2
    decay_mult: 0
  }
  convolution_param {
    num_output: 64
    pad: 1
    kernel_size: 3
    stride: 2
    weight_filler {
      type: "xavier"
    }
    bias_filler {
      type: "constant"
    }
  }
}
layer {
  name: "relu11"
  type: "PReLU"
  bottom: "conv11"
  top: "conv11"
}
layer {
  name: "bn11"
  type: "BatchNorm"
  bottom: "conv11"
  top: "bn11"
  param {
    lr_mult: 0
  }
  param {
    lr_mult: 0
  }
  param {
    lr_mult: 0
  }
}
layer {
  name: "pool1"
  type: "Pooling"
  bottom: "bn11"
  top: "pool1"
  pooling_param {
    pool: MAX
    kernel_size: 3
    stride: 2
    pad: 1
  }
}
layer {
  name: "conv21"
  type: "Convolution"
  bottom: "pool1"
  top: "conv21"
  param {
    name: "conv21_w"
    lr_mult: 1
    decay_mult: 1
  }
  param {
    name: "conv21_b"
    lr_mult: 2
    decay_mult: 0
  }
  convolution_param {
    num_output: 128
    pad: 1
    kernel_size: 3
    weight_filler {
      type: "xavier"
    }
    bias_filler {
      type: "constant"
    }
  }
}
layer {
  name: "relu21"
  type: "PReLU"
  bottom: "conv21"
  top: "conv21"
}
layer {
  name: "bn21"
  type: "BatchNorm"
  bottom: "conv21"
  top: "bn21"
  param {
    lr_mult: 0
  }
  param {
    lr_mult: 0
  }
  param {
    lr_mult: 0
  }
}
layer {
  name: "pool2"
  type: "Pooling"
  bottom: "bn21"
  top: "pool2"
  pooling_param {
    pool: MAX
    kernel_size: 3
    stride: 2
    pad: 1
  }
}
layer {
  name: "conv31"
  type: "Convolution"
  bottom: "pool2"
  top: "conv31"
  param {
    name: "conv31_w"
    lr_mult: 1
    decay_mult: 1
  }
  param {
    name: "conv31_b"
    lr_mult: 2
    decay_mult: 0
  }
  convolution_param {
    num_output: 128
    pad: 1
    kernel_size: 3
    weight_filler {
      type: "xavier"
    }
    bias_filler {
      type: "constant"
    }
  }
}
layer {
  name: "relu31"
  type: "PReLU"
  bottom: "conv31"
  top: "conv31"
}
layer {
  name: "bn31"
  type: "BatchNorm"
  bottom: "conv31"
  top: "bn31"
  param {
    lr_mult: 0
  }
  param {
    lr_mult: 0
  }
  param {
    lr_mult: 0
  }
}
layer {
  name: "fc4"
  type: "InnerProduct"
  bottom: "bn31"
  top: "fc4"
  param {
    name: "fc4_w"
    lr_mult: 1
    decay_mult: 1
  }
  param {
    name: "fc4_b"
    lr_mult: 2
    decay_mult: 0
  }
  inner_product_param {
    num_output: 1024
    weight_filler {
      type: "xavier"
    }
    bias_filler {
      type: "constant"
    }
  }
}
layer {
  name: "relu4"
  type: "PReLU"
  bottom: "fc4"
  top: "fc4"
}
layer {
  name: "fc5"
  type: "InnerProduct"
  bottom: "fc4"
  top: "fc5"
  param {
    name: "fc5_w"
    lr_mult: 1
    decay_mult: 1
  }
  param {
    name: "fc5_b"
    lr_mult: 2
    decay_mult: 0
  }
  inner_product_param {
    num_output: 1024
    weight_filler {
      type: "gaussian"
      std: 0.0001
    }
    bias_filler {
      type: "constant"
    }
  }
}
layer {
  name: "relu5"
  type: "PReLU"
  bottom: "fc5"
  top: "fc5"
}
layer {
  name: "fc5_sub"
  type: "InnerProduct"
  bottom: "fc4"
  top: "fc5_sub"
  param {
    name: "fc5_sub_w"
    lr_mult: 1
    decay_mult: 1
  }
  param {
    name: "fc5_sub_b"
    lr_mult: 2
    decay_mult: 0
  }
  inner_product_param {
    num_output: 1024
    weight_filler {
      type: "gaussian"
      std: 0.0001
    }
    bias_filler {
      type: "constant"
    }
  }
}
layer {
  name: "relu5_sub"
  type: "PReLU"
  bottom: "fc5_sub"
  top: "fc5_sub"
}
layer {
  name: "concat"
  type: "Concat"
  bottom: "fc5"
  bottom: "fc5_sub"
  top: "features"
}
layer {
  name: "pred_new"
  type: "InnerProduct"
  bottom: "features"
  top: "pred_new"
  param {
    name: "pred_w"
    lr_mult: 10
    decay_mult: 1
  }
  param {
    name: "pred_b"
    lr_mult: 20
    decay_mult: 0
  }
  inner_product_param {
    num_output: 7
    weight_filler {
      type: "gaussian"
      std: 0.01
    }
    bias_filler {
      type: "constant"
      value: 0
    }
  }
}
layer {
  name: "conv11_p"
  type: "Convolution"
  bottom: "data"
  top: "conv11_p"
  param {
    name: "conv11_w"
    lr_mult: 1
    decay_mult: 1
  }
  param {
    name: "conv11_b"
    lr_mult: 2
    decay_mult: 0
  }
  include {
    phase: TEST
  }
  convolution_param {
    num_output: 64
    pad: 1
    kernel_size: 3
    stride: 2
    weight_filler {
      type: "xavier"
    }
    bias_filler {
      type: "constant"
    }
  }
}
layer {
  name: "relu11_p"
  type: "PReLU"
  bottom: "conv11_p"
  top: "conv11_p"
}
layer {
  name: "bn11_p"
  type: "BatchNorm"
  bottom: "conv11_p"
  top: "bn11_p"
  param {
    lr_mult: 0
  }
  param {
    lr_mult: 0
  }
  param {
    lr_mult: 0
  }
}
layer {
  name: "pool1_p"
  type: "Pooling"
  bottom: "bn11_p"
  top: "pool1_p"
  pooling_param {
    pool: MAX
    kernel_size: 3
    stride: 2
    pad: 1
  }
}
layer {
  name: "conv21_p"
  type: "Convolution"
  bottom: "pool1_p"
  top: "conv21_p"
  param {
    name: "conv21_w"
    lr_mult: 1
    decay_mult: 1
  }
  param {
    name: "conv21_b"
    lr_mult: 2
    decay_mult: 0
  }
  convolution_param {
    num_output: 128
    pad: 1
    kernel_size: 3
    weight_filler {
      type: "xavier"
    }
    bias_filler {
      type: "constant"
    }
  }
}
layer {
  name: "relu21_p"
  type: "PReLU"
  bottom: "conv21_p"
  top: "conv21_p"
}
layer {
  name: "bn21_p"
  type: "BatchNorm"
  bottom: "conv21_p"
  top: "bn21_p"
  param {
    lr_mult: 0
  }
  param {
    lr_mult: 0
  }
  param {
    lr_mult: 0
  }
}
layer {
  name: "pool2_p"
  type: "Pooling"
  bottom: "bn21_p"
  top: "pool2_p"
  pooling_param {
    pool: MAX
    kernel_size: 3
    stride: 2
    pad: 1
  }
}
layer {
  name: "conv31_p"
  type: "Convolution"
  bottom: "pool2_p"
  top: "conv31_p"
  param {
    name: "conv31_w"
    lr_mult: 1
    decay_mult: 1
  }
  param {
    name: "conv31_b"
    lr_mult: 2
    decay_mult: 0
  }
  convolution_param {
    num_output: 128
    pad: 1
    kernel_size: 3
    weight_filler {
      type: "xavier"
    }
    bias_filler {
      type: "constant"
    }
  }
}
layer {
  name: "relu31_p"
  type: "PReLU"
  bottom: "conv31_p"
  top: "conv31_p"
}
layer {
  name: "bn31_p"
  type: "BatchNorm"
  bottom: "conv31_p"
  top: "bn31_p"
  param {
    lr_mult: 0
  }
  param {
    lr_mult: 0
  }
  param {
    lr_mult: 0
  }
}
layer {
  name: "fc4_p"
  type: "InnerProduct"
  bottom: "bn31_p"
  top: "fc4_p"
  param {
    name: "fc4_w"
    lr_mult: 1
    decay_mult: 1
  }
  param {
    name: "fc4_b"
    lr_mult: 2
    decay_mult: 0
  }
  inner_product_param {
    num_output: 1024
    weight_filler {
      type: "xavier"
    }
    bias_filler {
      type: "constant"
    }
  }
}
layer {
  name: "relu4_p"
  type: "PReLU"
  bottom: "fc4_p"
  top: "fc4_p"
}
layer {
  name: "fc5_p"
  type: "InnerProduct"
  bottom: "fc4_p"
  top: "fc5_p"
  param {
    name: "fc5_w"
    lr_mult: 1
    decay_mult: 1
  }
  param {
    name: "fc5_b"
    lr_mult: 2
    decay_mult: 0
  }
  inner_product_param {
    num_output: 1024
    weight_filler {
      type: "xavier"
    }
    bias_filler {
      type: "constant"
    }
  }
}
layer {
  name: "relu5_p"
  type: "PReLU"
  bottom: "fc5_p"
  top: "fc5_p"
}
layer {
  name: "fc5_p_sub"
  type: "InnerProduct"
  bottom: "fc4_p"
  top: "fc5_p_sub"
  param {
    name: "fc5_sub_w"
    lr_mult: 1
    decay_mult: 1
  }
  param {
    name: "fc5_sub_b"
    lr_mult: 2
    decay_mult: 0
  }
  inner_product_param {
    num_output: 1024
    weight_filler {
      type: "gaussian"
      std: 0.0001
    }
    bias_filler {
      type: "constant"
    }
  }
}
layer {
  name: "relu5_p_sub"
  type: "PReLU"
  bottom: "fc5_p_sub"
  top: "fc5_p_sub"
}
layer {
  name: "concat_p"
  type: "Concat"
  bottom: "fc5_p"
  bottom: "fc5_p_sub"
  top: "features_p"
}
layer {
  name: "pred_new_p"
  type: "InnerProduct"
  bottom: "features_p"
  top: "pred_new_p"
  param {
    name: "pred_w"
    lr_mult: 10
    decay_mult: 1
  }
  param {
    name: "pred_b"
    lr_mult: 20
    decay_mult: 0
  }
  inner_product_param {
    num_output: 7
    weight_filler {
      type: "gaussian"
      std: 0.01
    }
    bias_filler {
      type: "constant"
      value: 0
    }
  }
}
layer {
  name: "pred"
  type: "InnerProduct"
  bottom: "fc5"
  top: "pred"
  param {
    name: "pred_exp_w"
    lr_mult: 1
    decay_mult: 1
  }
  param {
    name: "pred_exp_b"
    lr_mult: 2
    decay_mult: 0
  }
  inner_product_param {
    num_output: 7
    weight_filler {
      type: "gaussian"
      std: 0.01
    }
    bias_filler {
      type: "constant"
      value: 0
    }
  }
}
layer {
  name: "pred_p"
  type: "InnerProduct"
  bottom: "fc5_p"
  top: "pred_p"
  param {
    name: "pred_exp_w"
    lr_mult: 1
    decay_mult: 1
  }
  param {
    name: "pred_exp_b"
    lr_mult: 2
    decay_mult: 0
  }
  inner_product_param {
    num_output: 7
    weight_filler {
      type: "gaussian"
      std: 0.01
    }
    bias_filler {
      type: "constant"
      value: 0
    }
  }
}
layer {
  name: "loss_1"
  type: "SoftmaxWithLoss"
  bottom: "pred_new"
  bottom: "label1"
  top: "loss_1"
}
layer {
  name: "score"
  type: "Score"
  bottom: "pred_new"
  bottom: "label1"
  top: "score"
  include {
    phase: TEST
  }
  score_param {
    dest_file: "examples/FER2013/results/results_test"
  }
}
layer {
  name: "accuracy_testing"
  type: "Accuracy"
  bottom: "pred_new"
  bottom: "label1"
  top: "accuracy_testing"
  include {
    phase: TEST
  }
}
layer {
  name: "accuracy_training"
  type: "Accuracy"
  bottom: "pred_new_p"
  bottom: "label1"
  top: "accuracy_training"
  include {
    phase: TEST
  }
}
layer {
  name: "accuracy_exp"
  type: "Accuracy"
  bottom: "pred"
  bottom: "label1"
  top: "accuracy_exp"
}
layer {
  name: "accuracy_exp_p"
  type: "Accuracy"
  bottom: "pred_p"
  bottom: "label1"
  top: "accuracy_exp_p"
  include {
    phase: TEST
  }
}
I0612 10:24:52.628494  2993 layer_factory.hpp:77] Creating layer data_p
I0612 10:24:52.628525  2993 net.cpp:91] Creating Layer data_p
I0612 10:24:52.628535  2993 net.cpp:399] data_p -> data_p
I0612 10:24:52.628553  2993 net.cpp:399] data_p -> label2
I0612 10:24:52.628571  2993 image_data_layer.cpp:40] Opening file /home/zibo/Data/Database/SFEW/Exp_multi/Train/train
I0612 10:24:52.630590  2993 image_data_layer.cpp:75] A total of 868 images.
I0612 10:24:52.631098  2993 image_data_layer.cpp:106] output data size: 1230,1,48,48
I0612 10:24:52.667599  2993 net.cpp:141] Setting up data_p
I0612 10:24:52.667680  2993 net.cpp:148] Top shape: 1230 1 48 48 (2833920)
I0612 10:24:52.667695  2993 net.cpp:148] Top shape: 1230 1 (1230)
I0612 10:24:52.667701  2993 net.cpp:156] Memory required for data: 11340600
I0612 10:24:52.667716  2993 layer_factory.hpp:77] Creating layer silence
I0612 10:24:52.667743  2993 net.cpp:91] Creating Layer silence
I0612 10:24:52.667753  2993 net.cpp:425] silence <- data_p
I0612 10:24:52.667769  2993 net.cpp:141] Setting up silence
I0612 10:24:52.667776  2993 net.cpp:156] Memory required for data: 11340600
I0612 10:24:52.667785  2993 layer_factory.hpp:77] Creating layer silence
I0612 10:24:52.667806  2993 net.cpp:91] Creating Layer silence
I0612 10:24:52.667815  2993 net.cpp:425] silence <- label2
I0612 10:24:52.667825  2993 net.cpp:141] Setting up silence
I0612 10:24:52.667832  2993 net.cpp:156] Memory required for data: 11340600
I0612 10:24:52.667840  2993 layer_factory.hpp:77] Creating layer data
I0612 10:24:52.667914  2993 net.cpp:91] Creating Layer data
I0612 10:24:52.667927  2993 net.cpp:399] data -> data
I0612 10:24:52.667953  2993 net.cpp:399] data -> label1
I0612 10:24:52.667969  2993 image_data_layer.cpp:40] Opening file /home/zibo/Data/Database/SFEW/Exp_multi/Train/test
I0612 10:24:52.669016  2993 image_data_layer.cpp:75] A total of 410 images.
I0612 10:24:52.669544  2993 image_data_layer.cpp:106] output data size: 410,1,48,48
I0612 10:24:52.683817  2993 net.cpp:141] Setting up data
I0612 10:24:52.683876  2993 net.cpp:148] Top shape: 410 1 48 48 (944640)
I0612 10:24:52.683888  2993 net.cpp:148] Top shape: 410 1 (410)
I0612 10:24:52.683897  2993 net.cpp:156] Memory required for data: 15120800
I0612 10:24:52.683910  2993 layer_factory.hpp:77] Creating layer data_data_0_split
I0612 10:24:52.683930  2993 net.cpp:91] Creating Layer data_data_0_split
I0612 10:24:52.683939  2993 net.cpp:425] data_data_0_split <- data
I0612 10:24:52.683954  2993 net.cpp:399] data_data_0_split -> data_data_0_split_0
I0612 10:24:52.683972  2993 net.cpp:399] data_data_0_split -> data_data_0_split_1
I0612 10:24:52.684123  2993 net.cpp:141] Setting up data_data_0_split
I0612 10:24:52.684151  2993 net.cpp:148] Top shape: 410 1 48 48 (944640)
I0612 10:24:52.684161  2993 net.cpp:148] Top shape: 410 1 48 48 (944640)
I0612 10:24:52.684168  2993 net.cpp:156] Memory required for data: 22677920
I0612 10:24:52.684177  2993 layer_factory.hpp:77] Creating layer label1_data_1_split
I0612 10:24:52.684192  2993 net.cpp:91] Creating Layer label1_data_1_split
I0612 10:24:52.684201  2993 net.cpp:425] label1_data_1_split <- label1
I0612 10:24:52.684212  2993 net.cpp:399] label1_data_1_split -> label1_data_1_split_0
I0612 10:24:52.684226  2993 net.cpp:399] label1_data_1_split -> label1_data_1_split_1
I0612 10:24:52.684244  2993 net.cpp:399] label1_data_1_split -> label1_data_1_split_2
I0612 10:24:52.684259  2993 net.cpp:399] label1_data_1_split -> label1_data_1_split_3
I0612 10:24:52.684270  2993 net.cpp:399] label1_data_1_split -> label1_data_1_split_4
I0612 10:24:52.684283  2993 net.cpp:399] label1_data_1_split -> label1_data_1_split_5
I0612 10:24:52.684432  2993 net.cpp:141] Setting up label1_data_1_split
I0612 10:24:52.684451  2993 net.cpp:148] Top shape: 410 1 (410)
I0612 10:24:52.684461  2993 net.cpp:148] Top shape: 410 1 (410)
I0612 10:24:52.684470  2993 net.cpp:148] Top shape: 410 1 (410)
I0612 10:24:52.684479  2993 net.cpp:148] Top shape: 410 1 (410)
I0612 10:24:52.684487  2993 net.cpp:148] Top shape: 410 1 (410)
I0612 10:24:52.684496  2993 net.cpp:148] Top shape: 410 1 (410)
I0612 10:24:52.684504  2993 net.cpp:156] Memory required for data: 22687760
I0612 10:24:52.684511  2993 layer_factory.hpp:77] Creating layer conv11
I0612 10:24:52.684535  2993 net.cpp:91] Creating Layer conv11
I0612 10:24:52.684545  2993 net.cpp:425] conv11 <- data_data_0_split_0
I0612 10:24:52.684564  2993 net.cpp:399] conv11 -> conv11
I0612 10:24:52.712492  2993 net.cpp:141] Setting up conv11
I0612 10:24:52.712589  2993 net.cpp:148] Top shape: 410 64 24 24 (15114240)
I0612 10:24:52.712604  2993 net.cpp:156] Memory required for data: 83144720
I0612 10:24:52.712638  2993 layer_factory.hpp:77] Creating layer relu11
I0612 10:24:52.712668  2993 net.cpp:91] Creating Layer relu11
I0612 10:24:52.712682  2993 net.cpp:425] relu11 <- conv11
I0612 10:24:52.712698  2993 net.cpp:386] relu11 -> conv11 (in-place)
I0612 10:24:52.712996  2993 net.cpp:141] Setting up relu11
I0612 10:24:52.713024  2993 net.cpp:148] Top shape: 410 64 24 24 (15114240)
I0612 10:24:52.713034  2993 net.cpp:156] Memory required for data: 143601680
I0612 10:24:52.713053  2993 layer_factory.hpp:77] Creating layer bn11
I0612 10:24:52.713076  2993 net.cpp:91] Creating Layer bn11
I0612 10:24:52.713088  2993 net.cpp:425] bn11 <- conv11
I0612 10:24:52.713104  2993 net.cpp:399] bn11 -> bn11
I0612 10:24:52.723274  2993 net.cpp:141] Setting up bn11
I0612 10:24:52.723323  2993 net.cpp:148] Top shape: 410 64 24 24 (15114240)
I0612 10:24:52.723336  2993 net.cpp:156] Memory required for data: 204058640
I0612 10:24:52.723395  2993 layer_factory.hpp:77] Creating layer pool1
I0612 10:24:52.723443  2993 net.cpp:91] Creating Layer pool1
I0612 10:24:52.723456  2993 net.cpp:425] pool1 <- bn11
I0612 10:24:52.723474  2993 net.cpp:399] pool1 -> pool1
I0612 10:24:52.723587  2993 net.cpp:141] Setting up pool1
I0612 10:24:52.723639  2993 net.cpp:148] Top shape: 410 64 13 13 (4434560)
I0612 10:24:52.723654  2993 net.cpp:156] Memory required for data: 221796880
I0612 10:24:52.723664  2993 layer_factory.hpp:77] Creating layer conv21
I0612 10:24:52.723706  2993 net.cpp:91] Creating Layer conv21
I0612 10:24:52.723718  2993 net.cpp:425] conv21 <- pool1
I0612 10:24:52.723739  2993 net.cpp:399] conv21 -> conv21
I0612 10:24:52.728493  2993 net.cpp:141] Setting up conv21
I0612 10:24:52.728528  2993 net.cpp:148] Top shape: 410 128 13 13 (8869120)
I0612 10:24:52.728539  2993 net.cpp:156] Memory required for data: 257273360
I0612 10:24:52.728556  2993 layer_factory.hpp:77] Creating layer relu21
I0612 10:24:52.728579  2993 net.cpp:91] Creating Layer relu21
I0612 10:24:52.728591  2993 net.cpp:425] relu21 <- conv21
I0612 10:24:52.728605  2993 net.cpp:386] relu21 -> conv21 (in-place)
I0612 10:24:52.728838  2993 net.cpp:141] Setting up relu21
I0612 10:24:52.728863  2993 net.cpp:148] Top shape: 410 128 13 13 (8869120)
I0612 10:24:52.728871  2993 net.cpp:156] Memory required for data: 292749840
I0612 10:24:52.728891  2993 layer_factory.hpp:77] Creating layer bn21
I0612 10:24:52.728914  2993 net.cpp:91] Creating Layer bn21
I0612 10:24:52.728924  2993 net.cpp:425] bn21 <- conv21
I0612 10:24:52.728945  2993 net.cpp:399] bn21 -> bn21
I0612 10:24:52.729380  2993 net.cpp:141] Setting up bn21
I0612 10:24:52.729406  2993 net.cpp:148] Top shape: 410 128 13 13 (8869120)
I0612 10:24:52.729416  2993 net.cpp:156] Memory required for data: 328226320
I0612 10:24:52.729436  2993 layer_factory.hpp:77] Creating layer pool2
I0612 10:24:52.729456  2993 net.cpp:91] Creating Layer pool2
I0612 10:24:52.729467  2993 net.cpp:425] pool2 <- bn21
I0612 10:24:52.729482  2993 net.cpp:399] pool2 -> pool2
I0612 10:24:52.729573  2993 net.cpp:141] Setting up pool2
I0612 10:24:52.729591  2993 net.cpp:148] Top shape: 410 128 7 7 (2571520)
I0612 10:24:52.729600  2993 net.cpp:156] Memory required for data: 338512400
I0612 10:24:52.729612  2993 layer_factory.hpp:77] Creating layer conv31
I0612 10:24:52.729640  2993 net.cpp:91] Creating Layer conv31
I0612 10:24:52.729652  2993 net.cpp:425] conv31 <- pool2
I0612 10:24:52.729679  2993 net.cpp:399] conv31 -> conv31
I0612 10:24:52.733933  2993 net.cpp:141] Setting up conv31
I0612 10:24:52.733974  2993 net.cpp:148] Top shape: 410 128 7 7 (2571520)
I0612 10:24:52.733986  2993 net.cpp:156] Memory required for data: 348798480
I0612 10:24:52.734002  2993 layer_factory.hpp:77] Creating layer relu31
I0612 10:24:52.734017  2993 net.cpp:91] Creating Layer relu31
I0612 10:24:52.734027  2993 net.cpp:425] relu31 <- conv31
I0612 10:24:52.734041  2993 net.cpp:386] relu31 -> conv31 (in-place)
I0612 10:24:52.734284  2993 net.cpp:141] Setting up relu31
I0612 10:24:52.734310  2993 net.cpp:148] Top shape: 410 128 7 7 (2571520)
I0612 10:24:52.734320  2993 net.cpp:156] Memory required for data: 359084560
I0612 10:24:52.734334  2993 layer_factory.hpp:77] Creating layer bn31
I0612 10:24:52.734361  2993 net.cpp:91] Creating Layer bn31
I0612 10:24:52.734374  2993 net.cpp:425] bn31 <- conv31
I0612 10:24:52.734388  2993 net.cpp:399] bn31 -> bn31
I0612 10:24:52.734830  2993 net.cpp:141] Setting up bn31
I0612 10:24:52.734853  2993 net.cpp:148] Top shape: 410 128 7 7 (2571520)
I0612 10:24:52.734863  2993 net.cpp:156] Memory required for data: 369370640
I0612 10:24:52.734889  2993 layer_factory.hpp:77] Creating layer fc4
I0612 10:24:52.734912  2993 net.cpp:91] Creating Layer fc4
I0612 10:24:52.734923  2993 net.cpp:425] fc4 <- bn31
I0612 10:24:52.734942  2993 net.cpp:399] fc4 -> fc4
I0612 10:24:52.826792  2993 net.cpp:141] Setting up fc4
I0612 10:24:52.826859  2993 net.cpp:148] Top shape: 410 1024 (419840)
I0612 10:24:52.826869  2993 net.cpp:156] Memory required for data: 371050000
I0612 10:24:52.826912  2993 layer_factory.hpp:77] Creating layer relu4
I0612 10:24:52.826948  2993 net.cpp:91] Creating Layer relu4
I0612 10:24:52.826959  2993 net.cpp:425] relu4 <- fc4
I0612 10:24:52.826977  2993 net.cpp:386] relu4 -> fc4 (in-place)
I0612 10:24:52.827164  2993 net.cpp:141] Setting up relu4
I0612 10:24:52.827183  2993 net.cpp:148] Top shape: 410 1024 (419840)
I0612 10:24:52.827190  2993 net.cpp:156] Memory required for data: 372729360
I0612 10:24:52.827203  2993 layer_factory.hpp:77] Creating layer fc4_relu4_0_split
I0612 10:24:52.827216  2993 net.cpp:91] Creating Layer fc4_relu4_0_split
I0612 10:24:52.827224  2993 net.cpp:425] fc4_relu4_0_split <- fc4
I0612 10:24:52.827245  2993 net.cpp:399] fc4_relu4_0_split -> fc4_relu4_0_split_0
I0612 10:24:52.827260  2993 net.cpp:399] fc4_relu4_0_split -> fc4_relu4_0_split_1
I0612 10:24:52.827337  2993 net.cpp:141] Setting up fc4_relu4_0_split
I0612 10:24:52.827355  2993 net.cpp:148] Top shape: 410 1024 (419840)
I0612 10:24:52.827364  2993 net.cpp:148] Top shape: 410 1024 (419840)
I0612 10:24:52.827371  2993 net.cpp:156] Memory required for data: 376088080
I0612 10:24:52.827379  2993 layer_factory.hpp:77] Creating layer fc5
I0612 10:24:52.827397  2993 net.cpp:91] Creating Layer fc5
I0612 10:24:52.827406  2993 net.cpp:425] fc5 <- fc4_relu4_0_split_0
I0612 10:24:52.827421  2993 net.cpp:399] fc5 -> fc5
I0612 10:24:52.889225  2993 net.cpp:141] Setting up fc5
I0612 10:24:52.889292  2993 net.cpp:148] Top shape: 410 1024 (419840)
I0612 10:24:52.889300  2993 net.cpp:156] Memory required for data: 377767440
I0612 10:24:52.889322  2993 layer_factory.hpp:77] Creating layer relu5
I0612 10:24:52.889341  2993 net.cpp:91] Creating Layer relu5
I0612 10:24:52.889353  2993 net.cpp:425] relu5 <- fc5
I0612 10:24:52.889366  2993 net.cpp:386] relu5 -> fc5 (in-place)
I0612 10:24:52.889551  2993 net.cpp:141] Setting up relu5
I0612 10:24:52.889567  2993 net.cpp:148] Top shape: 410 1024 (419840)
I0612 10:24:52.889576  2993 net.cpp:156] Memory required for data: 379446800
I0612 10:24:52.889588  2993 layer_factory.hpp:77] Creating layer fc5_relu5_0_split
I0612 10:24:52.889603  2993 net.cpp:91] Creating Layer fc5_relu5_0_split
I0612 10:24:52.889611  2993 net.cpp:425] fc5_relu5_0_split <- fc5
I0612 10:24:52.889623  2993 net.cpp:399] fc5_relu5_0_split -> fc5_relu5_0_split_0
I0612 10:24:52.889637  2993 net.cpp:399] fc5_relu5_0_split -> fc5_relu5_0_split_1
I0612 10:24:52.889711  2993 net.cpp:141] Setting up fc5_relu5_0_split
I0612 10:24:52.889727  2993 net.cpp:148] Top shape: 410 1024 (419840)
I0612 10:24:52.889736  2993 net.cpp:148] Top shape: 410 1024 (419840)
I0612 10:24:52.889744  2993 net.cpp:156] Memory required for data: 382805520
I0612 10:24:52.889753  2993 layer_factory.hpp:77] Creating layer fc5_sub
I0612 10:24:52.889770  2993 net.cpp:91] Creating Layer fc5_sub
I0612 10:24:52.889780  2993 net.cpp:425] fc5_sub <- fc4_relu4_0_split_1
I0612 10:24:52.889793  2993 net.cpp:399] fc5_sub -> fc5_sub
I0612 10:24:52.943434  2993 net.cpp:141] Setting up fc5_sub
I0612 10:24:52.943495  2993 net.cpp:148] Top shape: 410 1024 (419840)
I0612 10:24:52.943505  2993 net.cpp:156] Memory required for data: 384484880
I0612 10:24:52.943523  2993 layer_factory.hpp:77] Creating layer relu5_sub
I0612 10:24:52.943542  2993 net.cpp:91] Creating Layer relu5_sub
I0612 10:24:52.943553  2993 net.cpp:425] relu5_sub <- fc5_sub
I0612 10:24:52.943567  2993 net.cpp:386] relu5_sub -> fc5_sub (in-place)
I0612 10:24:52.943776  2993 net.cpp:141] Setting up relu5_sub
I0612 10:24:52.943796  2993 net.cpp:148] Top shape: 410 1024 (419840)
I0612 10:24:52.943804  2993 net.cpp:156] Memory required for data: 386164240
I0612 10:24:52.943816  2993 layer_factory.hpp:77] Creating layer concat
I0612 10:24:52.943833  2993 net.cpp:91] Creating Layer concat
I0612 10:24:52.943843  2993 net.cpp:425] concat <- fc5_relu5_0_split_0
I0612 10:24:52.943856  2993 net.cpp:425] concat <- fc5_sub
I0612 10:24:52.943867  2993 net.cpp:399] concat -> features
I0612 10:24:52.943917  2993 net.cpp:141] Setting up concat
I0612 10:24:52.943961  2993 net.cpp:148] Top shape: 410 2048 (839680)
I0612 10:24:52.943990  2993 net.cpp:156] Memory required for data: 389522960
I0612 10:24:52.943999  2993 layer_factory.hpp:77] Creating layer pred_new
I0612 10:24:52.944015  2993 net.cpp:91] Creating Layer pred_new
I0612 10:24:52.944025  2993 net.cpp:425] pred_new <- features
I0612 10:24:52.944039  2993 net.cpp:399] pred_new -> pred_new
I0612 10:24:52.944947  2993 net.cpp:141] Setting up pred_new
I0612 10:24:52.944965  2993 net.cpp:148] Top shape: 410 7 (2870)
I0612 10:24:52.944973  2993 net.cpp:156] Memory required for data: 389534440
I0612 10:24:52.944986  2993 layer_factory.hpp:77] Creating layer pred_new_pred_new_0_split
I0612 10:24:52.944998  2993 net.cpp:91] Creating Layer pred_new_pred_new_0_split
I0612 10:24:52.945011  2993 net.cpp:425] pred_new_pred_new_0_split <- pred_new
I0612 10:24:52.945024  2993 net.cpp:399] pred_new_pred_new_0_split -> pred_new_pred_new_0_split_0
I0612 10:24:52.945039  2993 net.cpp:399] pred_new_pred_new_0_split -> pred_new_pred_new_0_split_1
I0612 10:24:52.945052  2993 net.cpp:399] pred_new_pred_new_0_split -> pred_new_pred_new_0_split_2
I0612 10:24:52.945142  2993 net.cpp:141] Setting up pred_new_pred_new_0_split
I0612 10:24:52.945158  2993 net.cpp:148] Top shape: 410 7 (2870)
I0612 10:24:52.945166  2993 net.cpp:148] Top shape: 410 7 (2870)
I0612 10:24:52.945176  2993 net.cpp:148] Top shape: 410 7 (2870)
I0612 10:24:52.945183  2993 net.cpp:156] Memory required for data: 389568880
I0612 10:24:52.945191  2993 layer_factory.hpp:77] Creating layer conv11_p
I0612 10:24:52.945219  2993 net.cpp:91] Creating Layer conv11_p
I0612 10:24:52.945230  2993 net.cpp:425] conv11_p <- data_data_0_split_1
I0612 10:24:52.945245  2993 net.cpp:399] conv11_p -> conv11_p
I0612 10:24:52.947221  2993 net.cpp:141] Setting up conv11_p
I0612 10:24:52.947245  2993 net.cpp:148] Top shape: 410 64 24 24 (15114240)
I0612 10:24:52.947254  2993 net.cpp:156] Memory required for data: 450025840
I0612 10:24:52.947264  2993 net.cpp:484] Sharing parameters 'conv11_w' owned by layer 'conv11', param index 0
I0612 10:24:52.947275  2993 net.cpp:484] Sharing parameters 'conv11_b' owned by layer 'conv11', param index 1
I0612 10:24:52.947284  2993 layer_factory.hpp:77] Creating layer relu11_p
I0612 10:24:52.947299  2993 net.cpp:91] Creating Layer relu11_p
I0612 10:24:52.947310  2993 net.cpp:425] relu11_p <- conv11_p
I0612 10:24:52.947321  2993 net.cpp:386] relu11_p -> conv11_p (in-place)
I0612 10:24:52.947557  2993 net.cpp:141] Setting up relu11_p
I0612 10:24:52.947578  2993 net.cpp:148] Top shape: 410 64 24 24 (15114240)
I0612 10:24:52.947587  2993 net.cpp:156] Memory required for data: 510482800
I0612 10:24:52.947597  2993 layer_factory.hpp:77] Creating layer bn11_p
I0612 10:24:52.947640  2993 net.cpp:91] Creating Layer bn11_p
I0612 10:24:52.947655  2993 net.cpp:425] bn11_p <- conv11_p
I0612 10:24:52.947667  2993 net.cpp:399] bn11_p -> bn11_p
I0612 10:24:52.948050  2993 net.cpp:141] Setting up bn11_p
I0612 10:24:52.948068  2993 net.cpp:148] Top shape: 410 64 24 24 (15114240)
I0612 10:24:52.948077  2993 net.cpp:156] Memory required for data: 570939760
I0612 10:24:52.948108  2993 layer_factory.hpp:77] Creating layer pool1_p
I0612 10:24:52.948124  2993 net.cpp:91] Creating Layer pool1_p
I0612 10:24:52.948134  2993 net.cpp:425] pool1_p <- bn11_p
I0612 10:24:52.948146  2993 net.cpp:399] pool1_p -> pool1_p
I0612 10:24:52.948230  2993 net.cpp:141] Setting up pool1_p
I0612 10:24:52.948269  2993 net.cpp:148] Top shape: 410 64 13 13 (4434560)
I0612 10:24:52.948279  2993 net.cpp:156] Memory required for data: 588678000
I0612 10:24:52.948287  2993 layer_factory.hpp:77] Creating layer conv21_p
I0612 10:24:52.948318  2993 net.cpp:91] Creating Layer conv21_p
I0612 10:24:52.948328  2993 net.cpp:425] conv21_p <- pool1_p
I0612 10:24:52.948341  2993 net.cpp:399] conv21_p -> conv21_p
I0612 10:24:52.951897  2993 net.cpp:141] Setting up conv21_p
I0612 10:24:52.951923  2993 net.cpp:148] Top shape: 410 128 13 13 (8869120)
I0612 10:24:52.951931  2993 net.cpp:156] Memory required for data: 624154480
I0612 10:24:52.951951  2993 net.cpp:484] Sharing parameters 'conv21_w' owned by layer 'conv21', param index 0
I0612 10:24:52.951975  2993 net.cpp:484] Sharing parameters 'conv21_b' owned by layer 'conv21', param index 1
I0612 10:24:52.951987  2993 layer_factory.hpp:77] Creating layer relu21_p
I0612 10:24:52.951998  2993 net.cpp:91] Creating Layer relu21_p
I0612 10:24:52.952006  2993 net.cpp:425] relu21_p <- conv21_p
I0612 10:24:52.952021  2993 net.cpp:386] relu21_p -> conv21_p (in-place)
I0612 10:24:52.952242  2993 net.cpp:141] Setting up relu21_p
I0612 10:24:52.952262  2993 net.cpp:148] Top shape: 410 128 13 13 (8869120)
I0612 10:24:52.952270  2993 net.cpp:156] Memory required for data: 659630960
I0612 10:24:52.952282  2993 layer_factory.hpp:77] Creating layer bn21_p
I0612 10:24:52.952296  2993 net.cpp:91] Creating Layer bn21_p
I0612 10:24:52.952304  2993 net.cpp:425] bn21_p <- conv21_p
I0612 10:24:52.952318  2993 net.cpp:399] bn21_p -> bn21_p
I0612 10:24:52.952689  2993 net.cpp:141] Setting up bn21_p
I0612 10:24:52.952708  2993 net.cpp:148] Top shape: 410 128 13 13 (8869120)
I0612 10:24:52.952715  2993 net.cpp:156] Memory required for data: 695107440
I0612 10:24:52.952733  2993 layer_factory.hpp:77] Creating layer pool2_p
I0612 10:24:52.952749  2993 net.cpp:91] Creating Layer pool2_p
I0612 10:24:52.952759  2993 net.cpp:425] pool2_p <- bn21_p
I0612 10:24:52.952771  2993 net.cpp:399] pool2_p -> pool2_p
I0612 10:24:52.952844  2993 net.cpp:141] Setting up pool2_p
I0612 10:24:52.952862  2993 net.cpp:148] Top shape: 410 128 7 7 (2571520)
I0612 10:24:52.952868  2993 net.cpp:156] Memory required for data: 705393520
I0612 10:24:52.952877  2993 layer_factory.hpp:77] Creating layer conv31_p
I0612 10:24:52.952898  2993 net.cpp:91] Creating Layer conv31_p
I0612 10:24:52.952908  2993 net.cpp:425] conv31_p <- pool2_p
I0612 10:24:52.952926  2993 net.cpp:399] conv31_p -> conv31_p
I0612 10:24:52.956221  2993 net.cpp:141] Setting up conv31_p
I0612 10:24:52.956267  2993 net.cpp:148] Top shape: 410 128 7 7 (2571520)
I0612 10:24:52.956279  2993 net.cpp:156] Memory required for data: 715679600
I0612 10:24:52.956288  2993 net.cpp:484] Sharing parameters 'conv31_w' owned by layer 'conv31', param index 0
I0612 10:24:52.956300  2993 net.cpp:484] Sharing parameters 'conv31_b' owned by layer 'conv31', param index 1
I0612 10:24:52.956310  2993 layer_factory.hpp:77] Creating layer relu31_p
I0612 10:24:52.956322  2993 net.cpp:91] Creating Layer relu31_p
I0612 10:24:52.956331  2993 net.cpp:425] relu31_p <- conv31_p
I0612 10:24:52.956342  2993 net.cpp:386] relu31_p -> conv31_p (in-place)
I0612 10:24:52.956537  2993 net.cpp:141] Setting up relu31_p
I0612 10:24:52.956557  2993 net.cpp:148] Top shape: 410 128 7 7 (2571520)
I0612 10:24:52.956564  2993 net.cpp:156] Memory required for data: 725965680
I0612 10:24:52.956575  2993 layer_factory.hpp:77] Creating layer bn31_p
I0612 10:24:52.956593  2993 net.cpp:91] Creating Layer bn31_p
I0612 10:24:52.956603  2993 net.cpp:425] bn31_p <- conv31_p
I0612 10:24:52.956614  2993 net.cpp:399] bn31_p -> bn31_p
I0612 10:24:52.956985  2993 net.cpp:141] Setting up bn31_p
I0612 10:24:52.957005  2993 net.cpp:148] Top shape: 410 128 7 7 (2571520)
I0612 10:24:52.957012  2993 net.cpp:156] Memory required for data: 736251760
I0612 10:24:52.957028  2993 layer_factory.hpp:77] Creating layer fc4_p
I0612 10:24:52.957046  2993 net.cpp:91] Creating Layer fc4_p
I0612 10:24:52.957054  2993 net.cpp:425] fc4_p <- bn31_p
I0612 10:24:52.957067  2993 net.cpp:399] fc4_p -> fc4_p
I0612 10:24:53.047111  2993 net.cpp:141] Setting up fc4_p
I0612 10:24:53.047178  2993 net.cpp:148] Top shape: 410 1024 (419840)
I0612 10:24:53.047188  2993 net.cpp:156] Memory required for data: 737931120
I0612 10:24:53.047201  2993 net.cpp:484] Sharing parameters 'fc4_w' owned by layer 'fc4', param index 0
I0612 10:24:53.047214  2993 net.cpp:484] Sharing parameters 'fc4_b' owned by layer 'fc4', param index 1
I0612 10:24:53.047224  2993 layer_factory.hpp:77] Creating layer relu4_p
I0612 10:24:53.047255  2993 net.cpp:91] Creating Layer relu4_p
I0612 10:24:53.047268  2993 net.cpp:425] relu4_p <- fc4_p
I0612 10:24:53.047303  2993 net.cpp:386] relu4_p -> fc4_p (in-place)
I0612 10:24:53.047505  2993 net.cpp:141] Setting up relu4_p
I0612 10:24:53.047523  2993 net.cpp:148] Top shape: 410 1024 (419840)
I0612 10:24:53.047531  2993 net.cpp:156] Memory required for data: 739610480
I0612 10:24:53.047543  2993 layer_factory.hpp:77] Creating layer fc4_p_relu4_p_0_split
I0612 10:24:53.047555  2993 net.cpp:91] Creating Layer fc4_p_relu4_p_0_split
I0612 10:24:53.047564  2993 net.cpp:425] fc4_p_relu4_p_0_split <- fc4_p
I0612 10:24:53.047591  2993 net.cpp:399] fc4_p_relu4_p_0_split -> fc4_p_relu4_p_0_split_0
I0612 10:24:53.047631  2993 net.cpp:399] fc4_p_relu4_p_0_split -> fc4_p_relu4_p_0_split_1
I0612 10:24:53.047708  2993 net.cpp:141] Setting up fc4_p_relu4_p_0_split
I0612 10:24:53.047724  2993 net.cpp:148] Top shape: 410 1024 (419840)
I0612 10:24:53.047732  2993 net.cpp:148] Top shape: 410 1024 (419840)
I0612 10:24:53.047740  2993 net.cpp:156] Memory required for data: 742969200
I0612 10:24:53.047747  2993 layer_factory.hpp:77] Creating layer fc5_p
I0612 10:24:53.047766  2993 net.cpp:91] Creating Layer fc5_p
I0612 10:24:53.047775  2993 net.cpp:425] fc5_p <- fc4_p_relu4_p_0_split_0
I0612 10:24:53.047796  2993 net.cpp:399] fc5_p -> fc5_p
I0612 10:24:53.062224  2993 net.cpp:141] Setting up fc5_p
I0612 10:24:53.062253  2993 net.cpp:148] Top shape: 410 1024 (419840)
I0612 10:24:53.062263  2993 net.cpp:156] Memory required for data: 744648560
I0612 10:24:53.062274  2993 net.cpp:484] Sharing parameters 'fc5_w' owned by layer 'fc5', param index 0
I0612 10:24:53.062285  2993 net.cpp:484] Sharing parameters 'fc5_b' owned by layer 'fc5', param index 1
I0612 10:24:53.062294  2993 layer_factory.hpp:77] Creating layer relu5_p
I0612 10:24:53.062306  2993 net.cpp:91] Creating Layer relu5_p
I0612 10:24:53.062314  2993 net.cpp:425] relu5_p <- fc5_p
I0612 10:24:53.062330  2993 net.cpp:386] relu5_p -> fc5_p (in-place)
I0612 10:24:53.062492  2993 net.cpp:141] Setting up relu5_p
I0612 10:24:53.062510  2993 net.cpp:148] Top shape: 410 1024 (419840)
I0612 10:24:53.062517  2993 net.cpp:156] Memory required for data: 746327920
I0612 10:24:53.062530  2993 layer_factory.hpp:77] Creating layer fc5_p_relu5_p_0_split
I0612 10:24:53.062541  2993 net.cpp:91] Creating Layer fc5_p_relu5_p_0_split
I0612 10:24:53.062551  2993 net.cpp:425] fc5_p_relu5_p_0_split <- fc5_p
I0612 10:24:53.062562  2993 net.cpp:399] fc5_p_relu5_p_0_split -> fc5_p_relu5_p_0_split_0
I0612 10:24:53.062577  2993 net.cpp:399] fc5_p_relu5_p_0_split -> fc5_p_relu5_p_0_split_1
I0612 10:24:53.062664  2993 net.cpp:141] Setting up fc5_p_relu5_p_0_split
I0612 10:24:53.062681  2993 net.cpp:148] Top shape: 410 1024 (419840)
I0612 10:24:53.062690  2993 net.cpp:148] Top shape: 410 1024 (419840)
I0612 10:24:53.062697  2993 net.cpp:156] Memory required for data: 749686640
I0612 10:24:53.062705  2993 layer_factory.hpp:77] Creating layer fc5_p_sub
I0612 10:24:53.062721  2993 net.cpp:91] Creating Layer fc5_p_sub
I0612 10:24:53.062729  2993 net.cpp:425] fc5_p_sub <- fc4_p_relu4_p_0_split_1
I0612 10:24:53.062742  2993 net.cpp:399] fc5_p_sub -> fc5_p_sub
I0612 10:24:53.116297  2993 net.cpp:141] Setting up fc5_p_sub
I0612 10:24:53.116346  2993 net.cpp:148] Top shape: 410 1024 (419840)
I0612 10:24:53.116355  2993 net.cpp:156] Memory required for data: 751366000
I0612 10:24:53.116369  2993 net.cpp:484] Sharing parameters 'fc5_sub_w' owned by layer 'fc5_sub', param index 0
I0612 10:24:53.116380  2993 net.cpp:484] Sharing parameters 'fc5_sub_b' owned by layer 'fc5_sub', param index 1
I0612 10:24:53.116389  2993 layer_factory.hpp:77] Creating layer relu5_p_sub
I0612 10:24:53.116405  2993 net.cpp:91] Creating Layer relu5_p_sub
I0612 10:24:53.116415  2993 net.cpp:425] relu5_p_sub <- fc5_p_sub
I0612 10:24:53.116428  2993 net.cpp:386] relu5_p_sub -> fc5_p_sub (in-place)
I0612 10:24:53.116607  2993 net.cpp:141] Setting up relu5_p_sub
I0612 10:24:53.116624  2993 net.cpp:148] Top shape: 410 1024 (419840)
I0612 10:24:53.116632  2993 net.cpp:156] Memory required for data: 753045360
I0612 10:24:53.116664  2993 layer_factory.hpp:77] Creating layer concat_p
I0612 10:24:53.116696  2993 net.cpp:91] Creating Layer concat_p
I0612 10:24:53.116705  2993 net.cpp:425] concat_p <- fc5_p_relu5_p_0_split_0
I0612 10:24:53.116715  2993 net.cpp:425] concat_p <- fc5_p_sub
I0612 10:24:53.116727  2993 net.cpp:399] concat_p -> features_p
I0612 10:24:53.116786  2993 net.cpp:141] Setting up concat_p
I0612 10:24:53.116801  2993 net.cpp:148] Top shape: 410 2048 (839680)
I0612 10:24:53.116808  2993 net.cpp:156] Memory required for data: 756404080
I0612 10:24:53.116816  2993 layer_factory.hpp:77] Creating layer pred_new_p
I0612 10:24:53.116832  2993 net.cpp:91] Creating Layer pred_new_p
I0612 10:24:53.116842  2993 net.cpp:425] pred_new_p <- features_p
I0612 10:24:53.116855  2993 net.cpp:399] pred_new_p -> pred_new_p
I0612 10:24:53.117758  2993 net.cpp:141] Setting up pred_new_p
I0612 10:24:53.117777  2993 net.cpp:148] Top shape: 410 7 (2870)
I0612 10:24:53.117784  2993 net.cpp:156] Memory required for data: 756415560
I0612 10:24:53.117794  2993 net.cpp:484] Sharing parameters 'pred_w' owned by layer 'pred_new', param index 0
I0612 10:24:53.117805  2993 net.cpp:484] Sharing parameters 'pred_b' owned by layer 'pred_new', param index 1
I0612 10:24:53.117813  2993 layer_factory.hpp:77] Creating layer pred
I0612 10:24:53.117831  2993 net.cpp:91] Creating Layer pred
I0612 10:24:53.117841  2993 net.cpp:425] pred <- fc5_relu5_0_split_1
I0612 10:24:53.117854  2993 net.cpp:399] pred -> pred
I0612 10:24:53.118402  2993 net.cpp:141] Setting up pred
I0612 10:24:53.118419  2993 net.cpp:148] Top shape: 410 7 (2870)
I0612 10:24:53.118427  2993 net.cpp:156] Memory required for data: 756427040
I0612 10:24:53.118439  2993 layer_factory.hpp:77] Creating layer pred_p
I0612 10:24:53.118470  2993 net.cpp:91] Creating Layer pred_p
I0612 10:24:53.118484  2993 net.cpp:425] pred_p <- fc5_p_relu5_p_0_split_1
I0612 10:24:53.118499  2993 net.cpp:399] pred_p -> pred_p
I0612 10:24:53.119040  2993 net.cpp:141] Setting up pred_p
I0612 10:24:53.119057  2993 net.cpp:148] Top shape: 410 7 (2870)
I0612 10:24:53.119065  2993 net.cpp:156] Memory required for data: 756438520
I0612 10:24:53.119074  2993 net.cpp:484] Sharing parameters 'pred_exp_w' owned by layer 'pred', param index 0
I0612 10:24:53.119083  2993 net.cpp:484] Sharing parameters 'pred_exp_b' owned by layer 'pred', param index 1
I0612 10:24:53.119092  2993 layer_factory.hpp:77] Creating layer loss_1
I0612 10:24:53.119109  2993 net.cpp:91] Creating Layer loss_1
I0612 10:24:53.119118  2993 net.cpp:425] loss_1 <- pred_new_pred_new_0_split_0
I0612 10:24:53.119128  2993 net.cpp:425] loss_1 <- label1_data_1_split_0
I0612 10:24:53.119140  2993 net.cpp:399] loss_1 -> loss_1
I0612 10:24:53.119158  2993 layer_factory.hpp:77] Creating layer loss_1
I0612 10:24:53.119715  2993 net.cpp:141] Setting up loss_1
I0612 10:24:53.119737  2993 net.cpp:148] Top shape: (1)
I0612 10:24:53.119745  2993 net.cpp:151]     with loss weight 1
I0612 10:24:53.119766  2993 net.cpp:156] Memory required for data: 756438524
I0612 10:24:53.119774  2993 layer_factory.hpp:77] Creating layer score
I0612 10:24:53.119791  2993 net.cpp:91] Creating Layer score
I0612 10:24:53.119799  2993 net.cpp:425] score <- pred_new_pred_new_0_split_1
I0612 10:24:53.119809  2993 net.cpp:425] score <- label1_data_1_split_1
I0612 10:24:53.119825  2993 net.cpp:399] score -> score
I0612 10:24:53.119881  2993 net.cpp:141] Setting up score
I0612 10:24:53.119901  2993 net.cpp:148] Top shape: 1 1 1 1 (1)
I0612 10:24:53.119910  2993 net.cpp:156] Memory required for data: 756438528
I0612 10:24:53.119916  2993 layer_factory.hpp:77] Creating layer accuracy_testing
I0612 10:24:53.119930  2993 net.cpp:91] Creating Layer accuracy_testing
I0612 10:24:53.119940  2993 net.cpp:425] accuracy_testing <- pred_new_pred_new_0_split_2
I0612 10:24:53.119949  2993 net.cpp:425] accuracy_testing <- label1_data_1_split_2
…
I0612 20:32:30.967535 32030 net.cpp:49] Initializing net from parameters: 
name: "SiameseNet"
state {
  phase: TRAIN
}
layer {
  name: "pair_data"
  type: "ImageData"
  top: "pair_data"
  top: "labels"
  include {
    phase: TRAIN
  }
  transform_param {
    mirror: true
    crop_size: 48
  }
  image_data_param {
    source: "examples/SFEW/data/siamese_bi_multi/Train/train"
    batch_size: 64
    shuffle: true
    new_height: 60
    new_width: 60
    is_color: false
    root_folder: "/home/zibo/Data/Database/SFEW_60x60/"
    image_num: 2
    label_dim: 4
  }
}
layer {
  name: "slice_pair"
  type: "Slice"
  bottom: "pair_data"
  top: "data"
  top: "data_p"
  include {
    phase: TRAIN
  }
  slice_param {
    slice_dim: 1
    slice_point: 1
  }
}
layer {
  name: "slice_tri"
  type: "Slice"
  bottom: "labels"
  top: "sim"
  top: "label1"
  top: "label2"
  top: "subsim"
  include {
    phase: TRAIN
  }
  slice_param {
    slice_dim: 1
    slice_point: 1
    slice_point: 2
    slice_point: 3
  }
}
layer {
  name: "silence"
  type: "Silence"
  bottom: "data_p"
}
layer {
  name: "conv11"
  type: "Convolution"
  bottom: "data"
  top: "conv11"
  param {
    name: "conv11_w"
    lr_mult: 1
    decay_mult: 1
  }
  param {
    name: "conv11_b"
    lr_mult: 2
    decay_mult: 0
  }
  convolution_param {
    num_output: 64
    pad: 1
    kernel_size: 3
    stride: 2
    weight_filler {
      type: "xavier"
    }
    bias_filler {
      type: "constant"
    }
  }
}
layer {
  name: "relu11"
  type: "PReLU"
  bottom: "conv11"
  top: "conv11"
}
layer {
  name: "bn11"
  type: "BatchNorm"
  bottom: "conv11"
  top: "bn11"
  param {
    lr_mult: 0
  }
  param {
    lr_mult: 0
  }
  param {
    lr_mult: 0
  }
}
layer {
  name: "pool1"
  type: "Pooling"
  bottom: "bn11"
  top: "pool1"
  pooling_param {
    pool: MAX
    kernel_size: 3
    stride: 2
    pad: 1
  }
}
layer {
  name: "conv21"
  type: "Convolution"
  bottom: "pool1"
  top: "conv21"
  param {
    name: "conv21_w"
    lr_mult: 1
    decay_mult: 1
  }
  param {
    name: "conv21_b"
    lr_mult: 2
    decay_mult: 0
  }
  convolution_param {
    num_output: 128
    pad: 1
    kernel_size: 3
    weight_filler {
      type: "xavier"
    }
    bias_filler {
      type: "constant"
    }
  }
}
layer {
  name: "relu21"
  type: "PReLU"
  bottom: "conv21"
  top: "conv21"
}
layer {
  name: "bn21"
  type: "BatchNorm"
  bottom: "conv21"
  top: "bn21"
  param {
    lr_mult: 0
  }
  param {
    lr_mult: 0
  }
  param {
    lr_mult: 0
  }
}
layer {
  name: "pool2"
  type: "Pooling"
  bottom: "bn21"
  top: "pool2"
  pooling_param {
    pool: MAX
    kernel_size: 3
    stride: 2
    pad: 1
  }
}
layer {
  name: "conv31"
  type: "Convolution"
  bottom: "pool2"
  top: "conv31"
  param {
    name: "conv31_w"
    lr_mult: 1
    decay_mult: 1
  }
  param {
    name: "conv31_b"
    lr_mult: 2
    decay_mult: 0
  }
  convolution_param {
    num_output: 128
    pad: 1
    kernel_size: 3
    weight_filler {
      type: "xavier"
    }
    bias_filler {
      type: "constant"
    }
  }
}
layer {
  name: "relu31"
  type: "PReLU"
  bottom: "conv31"
  top: "conv31"
}
layer {
  name: "bn31"
  type: "BatchNorm"
  bottom: "conv31"
  top: "bn31"
  param {
    lr_mult: 0
  }
  param {
    lr_mult: 0
  }
  param {
    lr_mult: 0
  }
}
layer {
  name: "fc4"
  type: "InnerProduct"
  bottom: "bn31"
  top: "fc4"
  param {
    name: "fc4_w"
    lr_mult: 1
    decay_mult: 1
  }
  param {
    name: "fc4_b"
    lr_mult: 2
    decay_mult: 0
  }
  inner_product_param {
    num_output: 1024
    weight_filler {
      type: "xavier"
    }
    bias_filler {
      type: "constant"
    }
  }
}
layer {
  name: "relu4"
  type: "PReLU"
  bottom: "fc4"
  top: "fc4"
}
layer {
  name: "drop4"
  type: "Dropout"
  bottom: "fc4"
  top: "fc4"
  include {
    phase: TRAIN
  }
  dropout_param {
    dropout_ratio: 0.6
  }
}
layer {
  name: "fc5"
  type: "InnerProduct"
  bottom: "fc4"
  top: "fc5"
  param {
    name: "fc5_w"
    lr_mult: 1
    decay_mult: 1
  }
  param {
    name: "fc5_b"
    lr_mult: 2
    decay_mult: 0
  }
  inner_product_param {
    num_output: 1024
    weight_filler {
      type: "gaussian"
      std: 0.0001
    }
    bias_filler {
      type: "constant"
    }
  }
}
layer {
  name: "relu5"
  type: "PReLU"
  bottom: "fc5"
  top: "fc5"
}
layer {
  name: "drop5"
  type: "Dropout"
  bottom: "fc5"
  top: "fc5"
  include {
    phase: TRAIN
  }
  dropout_param {
    dropout_ratio: 0.6
  }
}
layer {
  name: "fc5_sub"
  type: "InnerProduct"
  bottom: "fc4"
  top: "fc5_sub"
  param {
    name: "fc5_sub_w"
    lr_mult: 1
    decay_mult: 1
  }
  param {
    name: "fc5_sub_b"
    lr_mult: 2
    decay_mult: 0
  }
  inner_product_param {
    num_output: 1024
    weight_filler {
      type: "gaussian"
      std: 0.0001
    }
    bias_filler {
      type: "constant"
    }
  }
}
layer {
  name: "relu5_sub"
  type: "PReLU"
  bottom: "fc5_sub"
  top: "fc5_sub"
}
layer {
  name: "drop5_sub"
  type: "Dropout"
  bottom: "fc5_sub"
  top: "fc5_sub"
  include {
    phase: TRAIN
  }
  dropout_param {
    dropout_ratio: 0.6
  }
}
layer {
  name: "concat"
  type: "Concat"
  bottom: "fc5"
  bottom: "fc5_sub"
  top: "features"
}
layer {
  name: "pred_new"
  type: "InnerProduct"
  bottom: "features"
  top: "pred_new"
  param {
    name: "pred_w"
    lr_mult: 10
    decay_mult: 1
  }
  param {
    name: "pred_b"
    lr_mult: 20
    decay_mult: 0
  }
  inner_product_param {
    num_output: 7
    weight_filler {
      type: "gaussian"
      std: 0.01
    }
    bias_filler {
      type: "constant"
      value: 0
    }
  }
}
layer {
  name: "conv11_p"
  type: "Convolution"
  bottom: "data"
  top: "conv11_p"
  param {
    name: "conv11_w"
    lr_mult: 1
    decay_mult: 1
  }
  param {
    name: "conv11_b"
    lr_mult: 2
    decay_mult: 0
  }
  include {
    phase: TRAIN
  }
  convolution_param {
    num_output: 64
    pad: 1
    kernel_size: 3
    stride: 2
    weight_filler {
      type: "xavier"
    }
    bias_filler {
      type: "constant"
    }
  }
}
layer {
  name: "relu11_p"
  type: "PReLU"
  bottom: "conv11_p"
  top: "conv11_p"
}
layer {
  name: "bn11_p"
  type: "BatchNorm"
  bottom: "conv11_p"
  top: "bn11_p"
  param {
    lr_mult: 0
  }
  param {
    lr_mult: 0
  }
  param {
    lr_mult: 0
  }
}
layer {
  name: "pool1_p"
  type: "Pooling"
  bottom: "bn11_p"
  top: "pool1_p"
  pooling_param {
    pool: MAX
    kernel_size: 3
    stride: 2
    pad: 1
  }
}
layer {
  name: "conv21_p"
  type: "Convolution"
  bottom: "pool1_p"
  top: "conv21_p"
  param {
    name: "conv21_w"
    lr_mult: 1
    decay_mult: 1
  }
  param {
    name: "conv21_b"
    lr_mult: 2
    decay_mult: 0
  }
  convolution_param {
    num_output: 128
    pad: 1
    kernel_size: 3
    weight_filler {
      type: "xavier"
    }
    bias_filler {
      type: "constant"
    }
  }
}
layer {
  name: "relu21_p"
  type: "PReLU"
  bottom: "conv21_p"
  top: "conv21_p"
}
layer {
  name: "bn21_p"
  type: "BatchNorm"
  bottom: "conv21_p"
  top: "bn21_p"
  param {
    lr_mult: 0
  }
  param {
    lr_mult: 0
  }
  param {
    lr_mult: 0
  }
}
layer {
  name: "pool2_p"
  type: "Pooling"
  bottom: "bn21_p"
  top: "pool2_p"
  pooling_param {
    pool: MAX
    kernel_size: 3
    stride: 2
    pad: 1
  }
}
layer {
  name: "conv31_p"
  type: "Convolution"
  bottom: "pool2_p"
  top: "conv31_p"
  param {
    name: "conv31_w"
    lr_mult: 1
    decay_mult: 1
  }
  param {
    name: "conv31_b"
    lr_mult: 2
    decay_mult: 0
  }
  convolution_param {
    num_output: 128
    pad: 1
    kernel_size: 3
    weight_filler {
      type: "xavier"
    }
    bias_filler {
      type: "constant"
    }
  }
}
layer {
  name: "relu31_p"
  type: "PReLU"
  bottom: "conv31_p"
  top: "conv31_p"
}
layer {
  name: "bn31_p"
  type: "BatchNorm"
  bottom: "conv31_p"
  top: "bn31_p"
  param {
    lr_mult: 0
  }
  param {
    lr_mult: 0
  }
  param {
    lr_mult: 0
  }
}
layer {
  name: "fc4_p"
  type: "InnerProduct"
  bottom: "bn31_p"
  top: "fc4_p"
  param {
    name: "fc4_w"
    lr_mult: 1
    decay_mult: 1
  }
  param {
    name: "fc4_b"
    lr_mult: 2
    decay_mult: 0
  }
  inner_product_param {
    num_output: 1024
    weight_filler {
      type: "xavier"
    }
    bias_filler {
      type: "constant"
    }
  }
}
layer {
  name: "relu4_p"
  type: "PReLU"
  bottom: "fc4_p"
  top: "fc4_p"
}
layer {
  name: "drop4_p"
  type: "Dropout"
  bottom: "fc4_p"
  top: "fc4_p"
  include {
    phase: TRAIN
  }
  dropout_param {
    dropout_ratio: 0.6
  }
}
layer {
  name: "fc5_p"
  type: "InnerProduct"
  bottom: "fc4_p"
  top: "fc5_p"
  param {
    name: "fc5_w"
    lr_mult: 1
    decay_mult: 1
  }
  param {
    name: "fc5_b"
    lr_mult: 2
    decay_mult: 0
  }
  inner_product_param {
    num_output: 1024
    weight_filler {
      type: "xavier"
    }
    bias_filler {
      type: "constant"
    }
  }
}
layer {
  name: "relu5_p"
  type: "PReLU"
  bottom: "fc5_p"
  top: "fc5_p"
}
layer {
  name: "drop5_p"
  type: "Dropout"
  bottom: "fc5_p"
  top: "fc5_p"
  include {
    phase: TRAIN
  }
  dropout_param {
    dropout_ratio: 0.6
  }
}
layer {
  name: "fc5_p_sub"
  type: "InnerProduct"
  bottom: "fc4_p"
  top: "fc5_p_sub"
  param {
    name: "fc5_sub_w"
    lr_mult: 1
    decay_mult: 1
  }
  param {
    name: "fc5_sub_b"
    lr_mult: 2
    decay_mult: 0
  }
  inner_product_param {
    num_output: 1024
    weight_filler {
      type: "gaussian"
      std: 0.0001
    }
    bias_filler {
      type: "constant"
    }
  }
}
layer {
  name: "relu5_p_sub"
  type: "PReLU"
  bottom: "fc5_p_sub"
  top: "fc5_p_sub"
}
layer {
  name: "drop5_p_sub"
  type: "Dropout"
  bottom: "fc5_p_sub"
  top: "fc5_p_sub"
  include {
    phase: TRAIN
  }
  dropout_param {
    dropout_ratio: 0.6
  }
}
layer {
  name: "concat_p"
  type: "Concat"
  bottom: "fc5_p"
  bottom: "fc5_p_sub"
  top: "features_p"
}
layer {
  name: "pred_new_p"
  type: "InnerProduct"
  bottom: "features_p"
  top: "pred_new_p"
  param {
    name: "pred_w"
    lr_mult: 10
    decay_mult: 1
  }
  param {
    name: "pred_b"
    lr_mult: 20
    decay_mult: 0
  }
  inner_product_param {
    num_output: 7
    weight_filler {
      type: "gaussian"
      std: 0.01
    }
    bias_filler {
      type: "constant"
      value: 0
    }
  }
}
layer {
  name: "pred"
  type: "InnerProduct"
  bottom: "fc5"
  top: "pred"
  param {
    name: "pred_exp_w"
    lr_mult: 1
    decay_mult: 1
  }
  param {
    name: "pred_exp_b"
    lr_mult: 2
    decay_mult: 0
  }
  inner_product_param {
    num_output: 7
    weight_filler {
      type: "gaussian"
      std: 0.01
    }
    bias_filler {
      type: "constant"
      value: 0
    }
  }
}
layer {
  name: "pred_p"
  type: "InnerProduct"
  bottom: "fc5_p"
  top: "pred_p"
  param {
    name: "pred_exp_w"
    lr_mult: 1
    decay_mult: 1
  }
  param {
    name: "pred_exp_b"
    lr_mult: 2
    decay_mult: 0
  }
  inner_product_param {
    num_output: 7
    weight_filler {
      type: "gaussian"
      std: 0.01
    }
    bias_filler {
      type: "constant"
      value: 0
    }
  }
}
layer {
  name: "loss_contrastive"
  type: "ContrastiveLoss"
  bottom: "fc5"
  bottom: "fc5_p"
  bottom: "sim"
  top: "contrastive_loss_label"
  loss_weight: 1
  include {
    phase: TRAIN
  }
  contrastive_loss_param {
    margin: 1
  }
}
layer {
  name: "loss_contrastive_sub"
  type: "ContrastiveLoss"
  bottom: "fc5_sub"
  bottom: "fc5_p_sub"
  bottom: "subsim"
  top: "contrastive_loss_sub"
  loss_weight: 5
  include {
    phase: TRAIN
  }
  contrastive_loss_param {
    margin: 10
  }
}
layer {
  name: "loss_1"
  type: "SoftmaxWithLoss"
  bottom: "pred_new"
  bottom: "label1"
  top: "loss_1"
}
layer {
  name: "accuracy1"
  type: "Accuracy"
  bottom: "pred_new"
  bottom: "label1"
  top: "accuracy1"
  include {
    phase: TRAIN
  }
}
layer {
  name: "accuracy2"
  type: "Accuracy"
  bottom: "pred_new_p"
  bottom: "label2"
  top: "accuracy2"
  include {
    phase: TRAIN
  }
}
layer {
  name: "accuracy_exp"
  type: "Accuracy"
  bottom: "pred"
  bottom: "label1"
  top: "accuracy_exp"
}
layer {
  name: "accuracy_exp_p"
  type: "Accuracy"
  bottom: "pred_p"
  bottom: "label2"
  top: "accuracy_exp_p"
  include {
    phase: TRAIN
  }
}
layer {
  name: "loss_2"
  type: "SoftmaxWithLoss"
  bottom: "pred_new_p"
  bottom: "label2"
  top: "loss_2"
  loss_weight: 1
  include {
    phase: TRAIN
  }
}
layer {
  name: "loss_exp"
  type: "SoftmaxWithLoss"
  bottom: "pred"
  bottom: "label1"
  top: "loss_exp"
  loss_weight: 1
  include {
    phase: TRAIN
  }
}
layer {
  name: "loss_exp_p"
  type: "SoftmaxWithLoss"
  bottom: "pred_p"
  bottom: "label2"
  top: "loss_exp_p"
  loss_weight: 1
  include {
    phase: TRAIN
  }
}
I0612 20:32:30.968147 32030 layer_factory.hpp:77] Creating layer pair_data
I0612 20:32:30.968209 32030 net.cpp:91] Creating Layer pair_data
I0612 20:32:30.968224 32030 net.cpp:399] pair_data -> pair_data
I0612 20:32:30.968263 32030 net.cpp:399] pair_data -> labels
I0612 20:32:30.968811 32030 image_data_layer.cpp:40] Opening file examples/SFEW/data/siamese_bi_multi/Train/train
I0612 20:32:32.435755 32030 image_data_layer.cpp:70] Shuffling data
I0612 20:32:32.793673 32030 image_data_layer.cpp:75] A total of 376278 images.
I0612 20:32:32.813369 32030 image_data_layer.cpp:106] output data size: 64,2,48,48
I0612 20:32:32.817800 32030 net.cpp:141] Setting up pair_data
I0612 20:32:32.817837 32030 net.cpp:148] Top shape: 64 2 48 48 (294912)
I0612 20:32:32.817849 32030 net.cpp:148] Top shape: 64 4 (256)
I0612 20:32:32.817857 32030 net.cpp:156] Memory required for data: 1180672
I0612 20:32:32.817878 32030 layer_factory.hpp:77] Creating layer slice_pair
I0612 20:32:32.818070 32030 net.cpp:91] Creating Layer slice_pair
I0612 20:32:32.818089 32030 net.cpp:425] slice_pair <- pair_data
I0612 20:32:32.818120 32030 net.cpp:399] slice_pair -> data
I0612 20:32:32.818150 32030 net.cpp:399] slice_pair -> data_p
I0612 20:32:32.818223 32030 net.cpp:141] Setting up slice_pair
I0612 20:32:32.818239 32030 net.cpp:148] Top shape: 64 1 48 48 (147456)
I0612 20:32:32.818249 32030 net.cpp:148] Top shape: 64 1 48 48 (147456)
I0612 20:32:32.818256 32030 net.cpp:156] Memory required for data: 2360320
I0612 20:32:32.818264 32030 layer_factory.hpp:77] Creating layer data_slice_pair_0_split
I0612 20:32:32.818312 32030 net.cpp:91] Creating Layer data_slice_pair_0_split
I0612 20:32:32.818322 32030 net.cpp:425] data_slice_pair_0_split <- data
I0612 20:32:32.818334 32030 net.cpp:399] data_slice_pair_0_split -> data_slice_pair_0_split_0
I0612 20:32:32.818348 32030 net.cpp:399] data_slice_pair_0_split -> data_slice_pair_0_split_1
I0612 20:32:32.818469 32030 net.cpp:141] Setting up data_slice_pair_0_split
I0612 20:32:32.818485 32030 net.cpp:148] Top shape: 64 1 48 48 (147456)
I0612 20:32:32.818517 32030 net.cpp:148] Top shape: 64 1 48 48 (147456)
I0612 20:32:32.818526 32030 net.cpp:156] Memory required for data: 3539968
I0612 20:32:32.818536 32030 layer_factory.hpp:77] Creating layer slice_tri
I0612 20:32:32.818550 32030 net.cpp:91] Creating Layer slice_tri
I0612 20:32:32.818558 32030 net.cpp:425] slice_tri <- labels
I0612 20:32:32.818575 32030 net.cpp:399] slice_tri -> sim
I0612 20:32:32.818600 32030 net.cpp:399] slice_tri -> label1
I0612 20:32:32.818616 32030 net.cpp:399] slice_tri -> label2
I0612 20:32:32.818631 32030 net.cpp:399] slice_tri -> subsim
I0612 20:32:32.818725 32030 net.cpp:141] Setting up slice_tri
I0612 20:32:32.818739 32030 net.cpp:148] Top shape: 64 1 (64)
I0612 20:32:32.818748 32030 net.cpp:148] Top shape: 64 1 (64)
I0612 20:32:32.818758 32030 net.cpp:148] Top shape: 64 1 (64)
I0612 20:32:32.818766 32030 net.cpp:148] Top shape: 64 1 (64)
I0612 20:32:32.818773 32030 net.cpp:156] Memory required for data: 3540992
I0612 20:32:32.818780 32030 layer_factory.hpp:77] Creating layer label1_slice_tri_1_split
I0612 20:32:32.818796 32030 net.cpp:91] Creating Layer label1_slice_tri_1_split
I0612 20:32:32.818804 32030 net.cpp:425] label1_slice_tri_1_split <- label1
I0612 20:32:32.818815 32030 net.cpp:399] label1_slice_tri_1_split -> label1_slice_tri_1_split_0
I0612 20:32:32.818828 32030 net.cpp:399] label1_slice_tri_1_split -> label1_slice_tri_1_split_1
I0612 20:32:32.818840 32030 net.cpp:399] label1_slice_tri_1_split -> label1_slice_tri_1_split_2
I0612 20:32:32.818853 32030 net.cpp:399] label1_slice_tri_1_split -> label1_slice_tri_1_split_3
I0612 20:32:32.818934 32030 net.cpp:141] Setting up label1_slice_tri_1_split
I0612 20:32:32.818948 32030 net.cpp:148] Top shape: 64 1 (64)
I0612 20:32:32.818956 32030 net.cpp:148] Top shape: 64 1 (64)
I0612 20:32:32.818964 32030 net.cpp:148] Top shape: 64 1 (64)
I0612 20:32:32.818974 32030 net.cpp:148] Top shape: 64 1 (64)
I0612 20:32:32.818979 32030 net.cpp:156] Memory required for data: 3542016
I0612 20:32:32.818987 32030 layer_factory.hpp:77] Creating layer label2_slice_tri_2_split
I0612 20:32:32.819000 32030 net.cpp:91] Creating Layer label2_slice_tri_2_split
I0612 20:32:32.819008 32030 net.cpp:425] label2_slice_tri_2_split <- label2
I0612 20:32:32.819020 32030 net.cpp:399] label2_slice_tri_2_split -> label2_slice_tri_2_split_0
I0612 20:32:32.819033 32030 net.cpp:399] label2_slice_tri_2_split -> label2_slice_tri_2_split_1
I0612 20:32:32.819046 32030 net.cpp:399] label2_slice_tri_2_split -> label2_slice_tri_2_split_2
I0612 20:32:32.819058 32030 net.cpp:399] label2_slice_tri_2_split -> label2_slice_tri_2_split_3
I0612 20:32:32.819136 32030 net.cpp:141] Setting up label2_slice_tri_2_split
I0612 20:32:32.819149 32030 net.cpp:148] Top shape: 64 1 (64)
I0612 20:32:32.819159 32030 net.cpp:148] Top shape: 64 1 (64)
I0612 20:32:32.819167 32030 net.cpp:148] Top shape: 64 1 (64)
I0612 20:32:32.819175 32030 net.cpp:148] Top shape: 64 1 (64)
I0612 20:32:32.819182 32030 net.cpp:156] Memory required for data: 3543040
I0612 20:32:32.819190 32030 layer_factory.hpp:77] Creating layer silence
I0612 20:32:32.819211 32030 net.cpp:91] Creating Layer silence
I0612 20:32:32.819221 32030 net.cpp:425] silence <- data_p
I0612 20:32:32.819231 32030 net.cpp:141] Setting up silence
I0612 20:32:32.819237 32030 net.cpp:156] Memory required for data: 3543040
I0612 20:32:32.819244 32030 layer_factory.hpp:77] Creating layer conv11
I0612 20:32:32.819281 32030 net.cpp:91] Creating Layer conv11
I0612 20:32:32.819290 32030 net.cpp:425] conv11 <- data_slice_pair_0_split_0
I0612 20:32:32.819313 32030 net.cpp:399] conv11 -> conv11
I0612 20:32:33.175735 32030 net.cpp:141] Setting up conv11
I0612 20:32:33.175819 32030 net.cpp:148] Top shape: 64 64 24 24 (2359296)
I0612 20:32:33.175830 32030 net.cpp:156] Memory required for data: 12980224
I0612 20:32:33.175868 32030 layer_factory.hpp:77] Creating layer relu11
I0612 20:32:33.175889 32030 net.cpp:91] Creating Layer relu11
I0612 20:32:33.175900 32030 net.cpp:425] relu11 <- conv11
I0612 20:32:33.175914 32030 net.cpp:386] relu11 -> conv11 (in-place)
I0612 20:32:33.176961 32030 net.cpp:141] Setting up relu11
I0612 20:32:33.176985 32030 net.cpp:148] Top shape: 64 64 24 24 (2359296)
I0612 20:32:33.176992 32030 net.cpp:156] Memory required for data: 22417408
I0612 20:32:33.177011 32030 layer_factory.hpp:77] Creating layer bn11
I0612 20:32:33.177040 32030 net.cpp:91] Creating Layer bn11
I0612 20:32:33.177050 32030 net.cpp:425] bn11 <- conv11
I0612 20:32:33.177062 32030 net.cpp:399] bn11 -> bn11
I0612 20:32:33.177356 32030 net.cpp:141] Setting up bn11
I0612 20:32:33.177376 32030 net.cpp:148] Top shape: 64 64 24 24 (2359296)
I0612 20:32:33.177384 32030 net.cpp:156] Memory required for data: 31854592
I0612 20:32:33.177405 32030 layer_factory.hpp:77] Creating layer pool1
I0612 20:32:33.177422 32030 net.cpp:91] Creating Layer pool1
I0612 20:32:33.177429 32030 net.cpp:425] pool1 <- bn11
I0612 20:32:33.177443 32030 net.cpp:399] pool1 -> pool1
I0612 20:32:33.177526 32030 net.cpp:141] Setting up pool1
I0612 20:32:33.177542 32030 net.cpp:148] Top shape: 64 64 13 13 (692224)
I0612 20:32:33.177551 32030 net.cpp:156] Memory required for data: 34623488
I0612 20:32:33.177558 32030 layer_factory.hpp:77] Creating layer conv21
I0612 20:32:33.177583 32030 net.cpp:91] Creating Layer conv21
I0612 20:32:33.177592 32030 net.cpp:425] conv21 <- pool1
I0612 20:32:33.177606 32030 net.cpp:399] conv21 -> conv21
I0612 20:32:33.180670 32030 net.cpp:141] Setting up conv21
I0612 20:32:33.180698 32030 net.cpp:148] Top shape: 64 128 13 13 (1384448)
I0612 20:32:33.180706 32030 net.cpp:156] Memory required for data: 40161280
I0612 20:32:33.180721 32030 layer_factory.hpp:77] Creating layer relu21
I0612 20:32:33.180735 32030 net.cpp:91] Creating Layer relu21
I0612 20:32:33.180743 32030 net.cpp:425] relu21 <- conv21
I0612 20:32:33.180755 32030 net.cpp:386] relu21 -> conv21 (in-place)
I0612 20:32:33.180910 32030 net.cpp:141] Setting up relu21
I0612 20:32:33.180927 32030 net.cpp:148] Top shape: 64 128 13 13 (1384448)
I0612 20:32:33.180934 32030 net.cpp:156] Memory required for data: 45699072
I0612 20:32:33.180953 32030 layer_factory.hpp:77] Creating layer bn21
I0612 20:32:33.180968 32030 net.cpp:91] Creating Layer bn21
I0612 20:32:33.180975 32030 net.cpp:425] bn21 <- conv21
I0612 20:32:33.180990 32030 net.cpp:399] bn21 -> bn21
I0612 20:32:33.181279 32030 net.cpp:141] Setting up bn21
I0612 20:32:33.181296 32030 net.cpp:148] Top shape: 64 128 13 13 (1384448)
I0612 20:32:33.181304 32030 net.cpp:156] Memory required for data: 51236864
I0612 20:32:33.181318 32030 layer_factory.hpp:77] Creating layer pool2
I0612 20:32:33.181331 32030 net.cpp:91] Creating Layer pool2
I0612 20:32:33.181339 32030 net.cpp:425] pool2 <- bn21
I0612 20:32:33.181350 32030 net.cpp:399] pool2 -> pool2
I0612 20:32:33.181416 32030 net.cpp:141] Setting up pool2
I0612 20:32:33.181430 32030 net.cpp:148] Top shape: 64 128 7 7 (401408)
I0612 20:32:33.181437 32030 net.cpp:156] Memory required for data: 52842496
I0612 20:32:33.181444 32030 layer_factory.hpp:77] Creating layer conv31
I0612 20:32:33.181464 32030 net.cpp:91] Creating Layer conv31
I0612 20:32:33.181474 32030 net.cpp:425] conv31 <- pool2
I0612 20:32:33.181490 32030 net.cpp:399] conv31 -> conv31
I0612 20:32:33.184362 32030 net.cpp:141] Setting up conv31
I0612 20:32:33.184387 32030 net.cpp:148] Top shape: 64 128 7 7 (401408)
I0612 20:32:33.184396 32030 net.cpp:156] Memory required for data: 54448128
I0612 20:32:33.184411 32030 layer_factory.hpp:77] Creating layer relu31
I0612 20:32:33.184427 32030 net.cpp:91] Creating Layer relu31
I0612 20:32:33.184437 32030 net.cpp:425] relu31 <- conv31
I0612 20:32:33.184458 32030 net.cpp:386] relu31 -> conv31 (in-place)
I0612 20:32:33.185382 32030 net.cpp:141] Setting up relu31
I0612 20:32:33.185405 32030 net.cpp:148] Top shape: 64 128 7 7 (401408)
I0612 20:32:33.185412 32030 net.cpp:156] Memory required for data: 56053760
I0612 20:32:33.185423 32030 layer_factory.hpp:77] Creating layer bn31
I0612 20:32:33.185439 32030 net.cpp:91] Creating Layer bn31
I0612 20:32:33.185448 32030 net.cpp:425] bn31 <- conv31
I0612 20:32:33.185464 32030 net.cpp:399] bn31 -> bn31
I0612 20:32:33.185775 32030 net.cpp:141] Setting up bn31
I0612 20:32:33.185793 32030 net.cpp:148] Top shape: 64 128 7 7 (401408)
I0612 20:32:33.185801 32030 net.cpp:156] Memory required for data: 57659392
I0612 20:32:33.185820 32030 layer_factory.hpp:77] Creating layer fc4
I0612 20:32:33.185838 32030 net.cpp:91] Creating Layer fc4
I0612 20:32:33.185847 32030 net.cpp:425] fc4 <- bn31
I0612 20:32:33.185865 32030 net.cpp:399] fc4 -> fc4
I0612 20:32:33.267693 32030 net.cpp:141] Setting up fc4
I0612 20:32:33.267763 32030 net.cpp:148] Top shape: 64 1024 (65536)
I0612 20:32:33.267773 32030 net.cpp:156] Memory required for data: 57921536
I0612 20:32:33.267797 32030 layer_factory.hpp:77] Creating layer relu4
I0612 20:32:33.267817 32030 net.cpp:91] Creating Layer relu4
I0612 20:32:33.267828 32030 net.cpp:425] relu4 <- fc4
I0612 20:32:33.267843 32030 net.cpp:386] relu4 -> fc4 (in-place)
I0612 20:32:33.267987 32030 net.cpp:141] Setting up relu4
I0612 20:32:33.268002 32030 net.cpp:148] Top shape: 64 1024 (65536)
I0612 20:32:33.268009 32030 net.cpp:156] Memory required for data: 58183680
I0612 20:32:33.268020 32030 layer_factory.hpp:77] Creating layer drop4
I0612 20:32:33.268054 32030 net.cpp:91] Creating Layer drop4
I0612 20:32:33.268064 32030 net.cpp:425] drop4 <- fc4
I0612 20:32:33.268075 32030 net.cpp:386] drop4 -> fc4 (in-place)
I0612 20:32:33.268127 32030 net.cpp:141] Setting up drop4
I0612 20:32:33.268142 32030 net.cpp:148] Top shape: 64 1024 (65536)
I0612 20:32:33.268149 32030 net.cpp:156] Memory required for data: 58445824
I0612 20:32:33.268157 32030 layer_factory.hpp:77] Creating layer fc4_drop4_0_split
I0612 20:32:33.268173 32030 net.cpp:91] Creating Layer fc4_drop4_0_split
I0612 20:32:33.268182 32030 net.cpp:425] fc4_drop4_0_split <- fc4
I0612 20:32:33.268194 32030 net.cpp:399] fc4_drop4_0_split -> fc4_drop4_0_split_0
I0612 20:32:33.268209 32030 net.cpp:399] fc4_drop4_0_split -> fc4_drop4_0_split_1
I0612 20:32:33.268267 32030 net.cpp:141] Setting up fc4_drop4_0_split
I0612 20:32:33.268280 32030 net.cpp:148] Top shape: 64 1024 (65536)
I0612 20:32:33.268290 32030 net.cpp:148] Top shape: 64 1024 (65536)
I0612 20:32:33.268297 32030 net.cpp:156] Memory required for data: 58970112
I0612 20:32:33.268306 32030 layer_factory.hpp:77] Creating layer fc5
I0612 20:32:33.268331 32030 net.cpp:91] Creating Layer fc5
I0612 20:32:33.268339 32030 net.cpp:425] fc5 <- fc4_drop4_0_split_0
I0612 20:32:33.268354 32030 net.cpp:399] fc5 -> fc5
I0612 20:32:33.320672 32030 net.cpp:141] Setting up fc5
I0612 20:32:33.320719 32030 net.cpp:148] Top shape: 64 1024 (65536)
I0612 20:32:33.320727 32030 net.cpp:156] Memory required for data: 59232256
I0612 20:32:33.320745 32030 layer_factory.hpp:77] Creating layer relu5
I0612 20:32:33.320763 32030 net.cpp:91] Creating Layer relu5
I0612 20:32:33.320775 32030 net.cpp:425] relu5 <- fc5
I0612 20:32:33.320787 32030 net.cpp:386] relu5 -> fc5 (in-place)
I0612 20:32:33.320929 32030 net.cpp:141] Setting up relu5
I0612 20:32:33.320945 32030 net.cpp:148] Top shape: 64 1024 (65536)
I0612 20:32:33.320951 32030 net.cpp:156] Memory required for data: 59494400
I0612 20:32:33.320962 32030 layer_factory.hpp:77] Creating layer drop5
I0612 20:32:33.320976 32030 net.cpp:91] Creating Layer drop5
I0612 20:32:33.320986 32030 net.cpp:425] drop5 <- fc5
I0612 20:32:33.320996 32030 net.cpp:386] drop5 -> fc5 (in-place)
I0612 20:32:33.321038 32030 net.cpp:141] Setting up drop5
I0612 20:32:33.321051 32030 net.cpp:148] Top shape: 64 1024 (65536)
I0612 20:32:33.321059 32030 net.cpp:156] Memory required for data: 59756544
I0612 20:32:33.321094 32030 layer_factory.hpp:77] Creating layer fc5_drop5_0_split
I0612 20:32:33.321110 32030 net.cpp:91] Creating Layer fc5_drop5_0_split
I0612 20:32:33.321117 32030 net.cpp:425] fc5_drop5_0_split <- fc5
I0612 20:32:33.321130 32030 net.cpp:399] fc5_drop5_0_split -> fc5_drop5_0_split_0
I0612 20:32:33.321143 32030 net.cpp:399] fc5_drop5_0_split -> fc5_drop5_0_split_1
I0612 20:32:33.321162 32030 net.cpp:399] fc5_drop5_0_split -> fc5_drop5_0_split_2
I0612 20:32:33.321245 32030 net.cpp:141] Setting up fc5_drop5_0_split
I0612 20:32:33.321279 32030 net.cpp:148] Top shape: 64 1024 (65536)
I0612 20:32:33.321288 32030 net.cpp:148] Top shape: 64 1024 (65536)
I0612 20:32:33.321297 32030 net.cpp:148] Top shape: 64 1024 (65536)
I0612 20:32:33.321305 32030 net.cpp:156] Memory required for data: 60542976
I0612 20:32:33.321312 32030 layer_factory.hpp:77] Creating layer fc5_sub
I0612 20:32:33.321329 32030 net.cpp:91] Creating Layer fc5_sub
I0612 20:32:33.321338 32030 net.cpp:425] fc5_sub <- fc4_drop4_0_split_1
I0612 20:32:33.321352 32030 net.cpp:399] fc5_sub -> fc5_sub
I0612 20:32:33.373620 32030 net.cpp:141] Setting up fc5_sub
I0612 20:32:33.373675 32030 net.cpp:148] Top shape: 64 1024 (65536)
I0612 20:32:33.373685 32030 net.cpp:156] Memory required for data: 60805120
I0612 20:32:33.373705 32030 layer_factory.hpp:77] Creating layer relu5_sub
I0612 20:32:33.373723 32030 net.cpp:91] Creating Layer relu5_sub
I0612 20:32:33.373733 32030 net.cpp:425] relu5_sub <- fc5_sub
I0612 20:32:33.373747 32030 net.cpp:386] relu5_sub -> fc5_sub (in-place)
I0612 20:32:33.373886 32030 net.cpp:141] Setting up relu5_sub
I0612 20:32:33.373901 32030 net.cpp:148] Top shape: 64 1024 (65536)
I0612 20:32:33.373909 32030 net.cpp:156] Memory required for data: 61067264
I0612 20:32:33.373919 32030 layer_factory.hpp:77] Creating layer drop5_sub
I0612 20:32:33.373939 32030 net.cpp:91] Creating Layer drop5_sub
I0612 20:32:33.373947 32030 net.cpp:425] drop5_sub <- fc5_sub
I0612 20:32:33.373958 32030 net.cpp:386] drop5_sub -> fc5_sub (in-place)
I0612 20:32:33.374001 32030 net.cpp:141] Setting up drop5_sub
I0612 20:32:33.374013 32030 net.cpp:148] Top shape: 64 1024 (65536)
I0612 20:32:33.374020 32030 net.cpp:156] Memory required for data: 61329408
I0612 20:32:33.374028 32030 layer_factory.hpp:77] Creating layer fc5_sub_drop5_sub_0_split
I0612 20:32:33.374039 32030 net.cpp:91] Creating Layer fc5_sub_drop5_sub_0_split
I0612 20:32:33.374047 32030 net.cpp:425] fc5_sub_drop5_sub_0_split <- fc5_sub
I0612 20:32:33.374059 32030 net.cpp:399] fc5_sub_drop5_sub_0_split -> fc5_sub_drop5_sub_0_split_0
I0612 20:32:33.374073 32030 net.cpp:399] fc5_sub_drop5_sub_0_split -> fc5_sub_drop5_sub_0_split_1
I0612 20:32:33.374132 32030 net.cpp:141] Setting up fc5_sub_drop5_sub_0_split
I0612 20:32:33.374146 32030 net.cpp:148] Top shape: 64 1024 (65536)
I0612 20:32:33.374156 32030 net.cpp:148] Top shape: 64 1024 (65536)
I0612 20:32:33.374163 32030 net.cpp:156] Memory required for data: 61853696
I0612 20:32:33.374171 32030 layer_factory.hpp:77] Creating layer concat
I0612 20:32:33.374186 32030 net.cpp:91] Creating Layer concat
I0612 20:32:33.374194 32030 net.cpp:425] concat <- fc5_drop5_0_split_0
I0612 20:32:33.374204 32030 net.cpp:425] concat <- fc5_sub_drop5_sub_0_split_0
I0612 20:32:33.374217 32030 net.cpp:399] concat -> features
I0612 20:32:33.374261 32030 net.cpp:141] Setting up concat
I0612 20:32:33.374275 32030 net.cpp:148] Top shape: 64 2048 (131072)
I0612 20:32:33.374282 32030 net.cpp:156] Memory required for data: 62377984
I0612 20:32:33.374290 32030 layer_factory.hpp:77] Creating layer pred_new
I0612 20:32:33.374305 32030 net.cpp:91] Creating Layer pred_new
I0612 20:32:33.374315 32030 net.cpp:425] pred_new <- features
I0612 20:32:33.374331 32030 net.cpp:399] pred_new -> pred_new
I0612 20:32:33.375190 32030 net.cpp:141] Setting up pred_new
I0612 20:32:33.375206 32030 net.cpp:148] Top shape: 64 7 (448)
I0612 20:32:33.375214 32030 net.cpp:156] Memory required for data: 62379776
I0612 20:32:33.375226 32030 layer_factory.hpp:77] Creating layer pred_new_pred_new_0_split
I0612 20:32:33.375264 32030 net.cpp:91] Creating Layer pred_new_pred_new_0_split
I0612 20:32:33.375274 32030 net.cpp:425] pred_new_pred_new_0_split <- pred_new
I0612 20:32:33.375285 32030 net.cpp:399] pred_new_pred_new_0_split -> pred_new_pred_new_0_split_0
I0612 20:32:33.375299 32030 net.cpp:399] pred_new_pred_new_0_split -> pred_new_pred_new_0_split_1
I0612 20:32:33.375365 32030 net.cpp:141] Setting up pred_new_pred_new_0_split
I0612 20:32:33.375378 32030 net.cpp:148] Top shape: 64 7 (448)
I0612 20:32:33.375404 32030 net.cpp:148] Top shape: 64 7 (448)
I0612 20:32:33.375411 32030 net.cpp:156] Memory required for data: 62383360
I0612 20:32:33.375419 32030 layer_factory.hpp:77] Creating layer conv11_p
I0612 20:32:33.375442 32030 net.cpp:91] Creating Layer conv11_p
I0612 20:32:33.375450 32030 net.cpp:425] conv11_p <- data_slice_pair_0_split_1
I0612 20:32:33.375465 32030 net.cpp:399] conv11_p -> conv11_p
I0612 20:32:33.377167 32030 net.cpp:141] Setting up conv11_p
I0612 20:32:33.377192 32030 net.cpp:148] Top shape: 64 64 24 24 (2359296)
I0612 20:32:33.377200 32030 net.cpp:156] Memory required for data: 71820544
I0612 20:32:33.377209 32030 net.cpp:485] Sharing parameters 'conv11_w' owned by layer 'conv11', param index 0
I0612 20:32:33.377220 32030 net.cpp:485] Sharing parameters 'conv11_b' owned by layer 'conv11', param index 1
I0612 20:32:33.377230 32030 layer_factory.hpp:77] Creating layer relu11_p
I0612 20:32:33.377243 32030 net.cpp:91] Creating Layer relu11_p
I0612 20:32:33.377252 32030 net.cpp:425] relu11_p <- conv11_p
I0612 20:32:33.377266 32030 net.cpp:386] relu11_p -> conv11_p (in-place)
I0612 20:32:33.377454 32030 net.cpp:141] Setting up relu11_p
I0612 20:32:33.377471 32030 net.cpp:148] Top shape: 64 64 24 24 (2359296)
I0612 20:32:33.377480 32030 net.cpp:156] Memory required for data: 81257728
I0612 20:32:33.377490 32030 layer_factory.hpp:77] Creating layer bn11_p
I0612 20:32:33.377507 32030 net.cpp:91] Creating Layer bn11_p
I0612 20:32:33.377516 32030 net.cpp:425] bn11_p <- conv11_p
I0612 20:32:33.377528 32030 net.cpp:399] bn11_p -> bn11_p
I0612 20:32:33.377842 32030 net.cpp:141] Setting up bn11_p
I0612 20:32:33.377858 32030 net.cpp:148] Top shape: 64 64 24 24 (2359296)
I0612 20:32:33.377866 32030 net.cpp:156] Memory required for data: 90694912
I0612 20:32:33.377894 32030 layer_factory.hpp:77] Creating layer pool1_p
I0612 20:32:33.377912 32030 net.cpp:91] Creating Layer pool1_p
I0612 20:32:33.377919 32030 net.cpp:425] pool1_p <- bn11_p
I0612 20:32:33.377930 32030 net.cpp:399] pool1_p -> pool1_p
I0612 20:32:33.378000 32030 net.cpp:141] Setting up pool1_p
I0612 20:32:33.378015 32030 net.cpp:148] Top shape: 64 64 13 13 (692224)
I0612 20:32:33.378021 32030 net.cpp:156] Memory required for data: 93463808
I0612 20:32:33.378029 32030 layer_factory.hpp:77] Creating layer conv21_p
I0612 20:32:33.378051 32030 net.cpp:91] Creating Layer conv21_p
I0612 20:32:33.378059 32030 net.cpp:425] conv21_p <- pool1_p
I0612 20:32:33.378073 32030 net.cpp:399] conv21_p -> conv21_p
I0612 20:32:33.381223 32030 net.cpp:141] Setting up conv21_p
I0612 20:32:33.381249 32030 net.cpp:148] Top shape: 64 128 13 13 (1384448)
I0612 20:32:33.381258 32030 net.cpp:156] Memory required for data: 99001600
I0612 20:32:33.381268 32030 net.cpp:485] Sharing parameters 'conv21_w' owned by layer 'conv21', param index 0
I0612 20:32:33.381278 32030 net.cpp:485] Sharing parameters 'conv21_b' owned by layer 'conv21', param index 1
I0612 20:32:33.381289 32030 layer_factory.hpp:77] Creating layer relu21_p
I0612 20:32:33.381299 32030 net.cpp:91] Creating Layer relu21_p
I0612 20:32:33.381309 32030 net.cpp:425] relu21_p <- conv21_p
I0612 20:32:33.381322 32030 net.cpp:386] relu21_p -> conv21_p (in-place)
I0612 20:32:33.381484 32030 net.cpp:141] Setting up relu21_p
I0612 20:32:33.381501 32030 net.cpp:148] Top shape: 64 128 13 13 (1384448)
I0612 20:32:33.381510 32030 net.cpp:156] Memory required for data: 104539392
I0612 20:32:33.381520 32030 layer_factory.hpp:77] Creating layer bn21_p
I0612 20:32:33.381536 32030 net.cpp:91] Creating Layer bn21_p
I0612 20:32:33.381544 32030 net.cpp:425] bn21_p <- conv21_p
I0612 20:32:33.381566 32030 net.cpp:399] bn21_p -> bn21_p
I0612 20:32:33.381866 32030 net.cpp:141] Setting up bn21_p
I0612 20:32:33.381882 32030 net.cpp:148] Top shape: 64 128 13 13 (1384448)
I0612 20:32:33.381891 32030 net.cpp:156] Memory required for data: 110077184
I0612 20:32:33.381904 32030 layer_factory.hpp:77] Creating layer pool2_p
I0612 20:32:33.381920 32030 net.cpp:91] Creating Layer pool2_p
I0612 20:32:33.381929 32030 net.cpp:425] pool2_p <- bn21_p
I0612 20:32:33.381954 32030 net.cpp:399] pool2_p -> pool2_p
I0612 20:32:33.382019 32030 net.cpp:141] Setting up pool2_p
I0612 20:32:33.382033 32030 net.cpp:148] Top shape: 64 128 7 7 (401408)
I0612 20:32:33.382040 32030 net.cpp:156] Memory required for data: 111682816
I0612 20:32:33.382048 32030 layer_factory.hpp:77] Creating layer conv31_p
I0612 20:32:33.382074 32030 net.cpp:91] Creating Layer conv31_p
I0612 20:32:33.382084 32030 net.cpp:425] conv31_p <- pool2_p
I0612 20:32:33.382100 32030 net.cpp:399] conv31_p -> conv31_p
I0612 20:32:33.385136 32030 net.cpp:141] Setting up conv31_p
I0612 20:32:33.385165 32030 net.cpp:148] Top shape: 64 128 7 7 (401408)
I0612 20:32:33.385174 32030 net.cpp:156] Memory required for data: 113288448
I0612 20:32:33.385185 32030 net.cpp:485] Sharing parameters 'conv31_w' owned by layer 'conv31', param index 0
I0612 20:32:33.385195 32030 net.cpp:485] Sharing parameters 'conv31_b' owned by layer 'conv31', param index 1
I0612 20:32:33.385202 32030 layer_factory.hpp:77] Creating layer relu31_p
I0612 20:32:33.385215 32030 net.cpp:91] Creating Layer relu31_p
I0612 20:32:33.385223 32030 net.cpp:425] relu31_p <- conv31_p
I0612 20:32:33.385237 32030 net.cpp:386] relu31_p -> conv31_p (in-place)
I0612 20:32:33.385386 32030 net.cpp:141] Setting up relu31_p
I0612 20:32:33.385403 32030 net.cpp:148] Top shape: 64 128 7 7 (401408)
I0612 20:32:33.385411 32030 net.cpp:156] Memory required for data: 114894080
I0612 20:32:33.385421 32030 layer_factory.hpp:77] Creating layer bn31_p
I0612 20:32:33.385435 32030 net.cpp:91] Creating Layer bn31_p
I0612 20:32:33.385444 32030 net.cpp:425] bn31_p <- conv31_p
I0612 20:32:33.385457 32030 net.cpp:399] bn31_p -> bn31_p
I0612 20:32:33.385763 32030 net.cpp:141] Setting up bn31_p
I0612 20:32:33.385781 32030 net.cpp:148] Top shape: 64 128 7 7 (401408)
I0612 20:32:33.385787 32030 net.cpp:156] Memory required for data: 116499712
I0612 20:32:33.385802 32030 layer_factory.hpp:77] Creating layer fc4_p
I0612 20:32:33.385820 32030 net.cpp:91] Creating Layer fc4_p
I0612 20:32:33.385829 32030 net.cpp:425] fc4_p <- bn31_p
I0612 20:32:33.385843 32030 net.cpp:399] fc4_p -> fc4_p
I0612 20:32:33.482862 32030 net.cpp:141] Setting up fc4_p
I0612 20:32:33.482962 32030 net.cpp:148] Top shape: 64 1024 (65536)
I0612 20:32:33.482974 32030 net.cpp:156] Memory required for data: 116761856
I0612 20:32:33.482990 32030 net.cpp:485] Sharing parameters 'fc4_w' owned by layer 'fc4', param index 0
I0612 20:32:33.483003 32030 net.cpp:485] Sharing parameters 'fc4_b' owned by layer 'fc4', param index 1
I0612 20:32:33.483013 32030 layer_factory.hpp:77] Creating layer relu4_p
I0612 20:32:33.483058 32030 net.cpp:91] Creating Layer relu4_p
I0612 20:32:33.483072 32030 net.cpp:425] relu4_p <- fc4_p
I0612 20:32:33.483088 32030 net.cpp:386] relu4_p -> fc4_p (in-place)
I0612 20:32:33.483247 32030 net.cpp:141] Setting up relu4_p
I0612 20:32:33.483263 32030 net.cpp:148] Top shape: 64 1024 (65536)
I0612 20:32:33.483271 32030 net.cpp:156] Memory required for data: 117024000
I0612 20:32:33.483283 32030 layer_factory.hpp:77] Creating layer drop4_p
I0612 20:32:33.483311 32030 net.cpp:91] Creating Layer drop4_p
I0612 20:32:33.483321 32030 net.cpp:425] drop4_p <- fc4_p
I0612 20:32:33.483332 32030 net.cpp:386] drop4_p -> fc4_p (in-place)
I0612 20:32:33.483389 32030 net.cpp:141] Setting up drop4_p
I0612 20:32:33.483404 32030 net.cpp:148] Top shape: 64 1024 (65536)
I0612 20:32:33.483412 32030 net.cpp:156] Memory required for data: 117286144
I0612 20:32:33.483419 32030 layer_factory.hpp:77] Creating layer fc4_p_drop4_p_0_split
I0612 20:32:33.483431 32030 net.cpp:91] Creating Layer fc4_p_drop4_p_0_split
I0612 20:32:33.483455 32030 net.cpp:425] fc4_p_drop4_p_0_split <- fc4_p
I0612 20:32:33.483467 32030 net.cpp:399] fc4_p_drop4_p_0_split -> fc4_p_drop4_p_0_split_0
I0612 20:32:33.483484 32030 net.cpp:399] fc4_p_drop4_p_0_split -> fc4_p_drop4_p_0_split_1
I0612 20:32:33.483551 32030 net.cpp:141] Setting up fc4_p_drop4_p_0_split
I0612 20:32:33.483564 32030 net.cpp:148] Top shape: 64 1024 (65536)
I0612 20:32:33.483573 32030 net.cpp:148] Top shape: 64 1024 (65536)
I0612 20:32:33.483604 32030 net.cpp:156] Memory required for data: 117810432
I0612 20:32:33.483624 32030 layer_factory.hpp:77] Creating layer fc5_p
I0612 20:32:33.483641 32030 net.cpp:91] Creating Layer fc5_p
I0612 20:32:33.483650 32030 net.cpp:425] fc5_p <- fc4_p_drop4_p_0_split_0
I0612 20:32:33.483664 32030 net.cpp:399] fc5_p -> fc5_p
I0612 20:32:33.501540 32030 net.cpp:141] Setting up fc5_p
I0612 20:32:33.501646 32030 net.cpp:148] Top shape: 64 1024 (65536)
I0612 20:32:33.501662 32030 net.cpp:156] Memory required for data: 118072576
I0612 20:32:33.501684 32030 net.cpp:485] Sharing parameters 'fc5_w' owned by layer 'fc5', param index 0
I0612 20:32:33.501705 32030 net.cpp:485] Sharing parameters 'fc5_b' owned by layer 'fc5', param index 1
I0612 20:32:33.501723 32030 layer_factory.hpp:77] Creating layer relu5_p
I0612 20:32:33.501747 32030 net.cpp:91] Creating Layer relu5_p
I0612 20:32:33.501765 32030 net.cpp:425] relu5_p <- fc5_p
I0612 20:32:33.501785 32030 net.cpp:386] relu5_p -> fc5_p (in-place)
I0612 20:32:33.502017 32030 net.cpp:141] Setting up relu5_p
I0612 20:32:33.502041 32030 net.cpp:148] Top shape: 64 1024 (65536)
I0612 20:32:33.502053 32030 net.cpp:156] Memory required for data: 118334720
I0612 20:32:33.502069 32030 layer_factory.hpp:77] Creating layer drop5_p
I0612 20:32:33.502096 32030 net.cpp:91] Creating Layer drop5_p
I0612 20:32:33.502110 32030 net.cpp:425] drop5_p <- fc5_p
I0612 20:32:33.502127 32030 net.cpp:386] drop5_p -> fc5_p (in-place)
I0612 20:32:33.502202 32030 net.cpp:141] Setting up drop5_p
I0612 20:32:33.502223 32030 net.cpp:148] Top shape: 64 1024 (65536)
I0612 20:32:33.502233 32030 net.cpp:156] Memory required for data: 118596864
I0612 20:32:33.502245 32030 layer_factory.hpp:77] Creating layer fc5_p_drop5_p_0_split
I0612 20:32:33.502264 32030 net.cpp:91] Creating Layer fc5_p_drop5_p_0_split
I0612 20:32:33.502274 32030 net.cpp:425] fc5_p_drop5_p_0_split <- fc5_p
I0612 20:32:33.502291 32030 net.cpp:399] fc5_p_drop5_p_0_split -> fc5_p_drop5_p_0_split_0
I0612 20:32:33.502315 32030 net.cpp:399] fc5_p_drop5_p_0_split -> fc5_p_drop5_p_0_split_1
I0612 20:32:33.502334 32030 net.cpp:399] fc5_p_drop5_p_0_split -> fc5_p_drop5_p_0_split_2
I0612 20:32:33.502456 32030 net.cpp:141] Setting up fc5_p_drop5_p_0_split
I0612 20:32:33.502478 32030 net.cpp:148] Top shape: 64 1024 (65536)
I0612 20:32:33.502492 32030 net.cpp:148] Top shape: 64 1024 (65536)
I0612 20:32:33.502506 32030 net.cpp:148] Top shape: 64 1024 (65536)
I0612 20:32:33.502516 32030 net.cpp:156] Memory required for data: 119383296
I0612 20:32:33.502531 32030 layer_factory.hpp:77] Creating layer fc5_p_sub
I0612 20:32:33.502554 32030 net.cpp:91] Creating Layer fc5_p_sub
I0612 20:32:33.502568 32030 net.cpp:425] fc5_p_sub <- fc4_p_drop4_p_0_split_1
I0612 20:32:33.502593 32030 net.cpp:399] fc5_p_sub -> fc5_p_sub
I0612 20:32:33.564200 32030 net.cpp:141] Setting up fc5_p_sub
I0612 20:32:33.564247 32030 net.cpp:148] Top shape: 64 1024 (65536)
I0612 20:32:33.564257 32030 net.cpp:156] Memory required for data: 119645440
I0612 20:32:33.564270 32030 net.cpp:485] Sharing parameters 'fc5_sub_w' owned by layer 'fc5_sub', param index 0
I0612 20:32:33.564281 32030 net.cpp:485] Sharing parameters 'fc5_sub_b' owned by layer 'fc5_sub', param index 1
I0612 20:32:33.564290 32030 layer_factory.hpp:77] Creating layer relu5_p_sub
I0612 20:32:33.564304 32030 net.cpp:91] Creating Layer relu5_p_sub
I0612 20:32:33.564314 32030 net.cpp:425] relu5_p_sub <- fc5_p_sub
I0612 20:32:33.564330 32030 net.cpp:386] relu5_p_sub -> fc5_p_sub (in-place)
I0612 20:32:33.564472 32030 net.cpp:141] Setting up relu5_p_sub
I0612 20:32:33.564504 32030 net.cpp:148] Top shape: 64 1024 (65536)
I0612 20:32:33.564512 32030 net.cpp:156] Memory required for data: 119907584
I0612 20:32:33.564524 32030 layer_factory.hpp:77] Creating layer drop5_p_sub
I0612 20:32:33.564543 32030 net.cpp:91] Creating Layer drop5_p_sub
I0612 20:32:33.564553 32030 net.cpp:425] drop5_p_sub <- fc5_p_sub
I0612 20:32:33.564564 32030 net.cpp:386] drop5_p_sub -> fc5_p_sub (in-place)
I0612 20:32:33.564609 32030 net.cpp:141] Setting up drop5_p_sub
I0612 20:32:33.564640 32030 net.cpp:148] Top shape: 64 1024 (65536)
I0612 20:32:33.564648 32030 net.cpp:156] Memory required for data: 120169728
I0612 20:32:33.564656 32030 layer_factory.hpp:77] Creating layer fc5_p_sub_drop5_p_sub_0_split
I0612 20:32:33.564667 32030 net.cpp:91] Creating Layer fc5_p_sub_drop5_p_sub_0_split
I0612 20:32:33.564676 32030 net.cpp:425] fc5_p_sub_drop5_p_sub_0_split <- fc5_p_sub
I0612 20:32:33.564687 32030 net.cpp:399] fc5_p_sub_drop5_p_sub_0_split -> fc5_p_sub_drop5_p_sub_0_split_0
I0612 20:32:33.564700 32030 net.cpp:399] fc5_p_sub_drop5_p_sub_0_split -> fc5_p_sub_drop5_p_sub_0_split_1
I0612 20:32:33.564764 32030 net.cpp:141] Setting up fc5_p_sub_drop5_p_sub_0_split
I0612 20:32:33.564779 32030 net.cpp:148] Top shape: 64 1024 (65536)
I0612 20:32:33.564787 32030 net.cpp:148] Top shape: 64 1024 (65536)
I0612 20:32:33.564795 32030 net.cpp:156] Memory required for data: 120694016
I0612 20:32:33.564801 32030 layer_factory.hpp:77] Creating layer concat_p
I0612 20:32:33.564813 32030 net.cpp:91] Creating Layer concat_p
I0612 20:32:33.564822 32030 net.cpp:425] concat_p <- fc5_p_drop5_p_0_split_0
I0612 20:32:33.564831 32030 net.cpp:425] concat_p <- fc5_p_sub_drop5_p_sub_0_split_0
I0612 20:32:33.564843 32030 net.cpp:399] concat_p -> features_p
I0612 20:32:33.564890 32030 net.cpp:141] Setting up concat_p
I0612 20:32:33.564903 32030 net.cpp:148] Top shape: 64 2048 (131072)
I0612 20:32:33.564911 32030 net.cpp:156] Memory required for data: 121218304
I0612 20:32:33.564918 32030 layer_factory.hpp:77] Creating layer pred_new_p
I0612 20:32:33.564934 32030 net.cpp:91] Creating Layer pred_new_p
I0612 20:32:33.564942 32030 net.cpp:425] pred_new_p <- features_p
I0612 20:32:33.564957 32030 net.cpp:399] pred_new_p -> pred_new_p
I0612 20:32:33.565816 32030 net.cpp:141] Setting up pred_new_p
I0612 20:32:33.565832 32030 net.cpp:148] Top shape: 64 7 (448)
I0612 20:32:33.565840 32030 net.cpp:156] Memory required for data: 121220096
I0612 20:32:33.565850 32030 net.cpp:485] Sharing parameters 'pred_w' owned by layer 'pred_new', param index 0
I0612 20:32:33.565860 32030 net.cpp:485] Sharing parameters 'pred_b' owned by layer 'pred_new', param index 1
I0612 20:32:33.565867 32030 layer_factory.hpp:77] Creating layer pred_new_p_pred_new_p_0_split
I0612 20:32:33.565877 32030 net.cpp:91] Creating Layer pred_new_p_pred_new_p_0_split
I0612 20:32:33.565886 32030 net.cpp:425] pred_new_p_pred_new_p_0_split <- pred_new_p
I0612 20:32:33.565896 32030 net.cpp:399] pred_new_p_pred_new_p_0_split -> pred_new_p_pred_new_p_0_split_0
I0612 20:32:33.565909 32030 net.cpp:399] pred_new_p_pred_new_p_0_split -> pred_new_p_pred_new_p_0_split_1
I0612 20:32:33.565974 32030 net.cpp:141] Setting up pred_new_p_pred_new_p_0_split
I0612 20:32:33.565987 32030 net.cpp:148] Top shape: 64 7 (448)
I0612 20:32:33.565996 32030 net.cpp:148] Top shape: 64 7 (448)
I0612 20:32:33.566004 32030 net.cpp:156] Memory required for data: 121223680
I0612 20:32:33.566011 32030 layer_factory.hpp:77] Creating layer pred
I0612 20:32:33.566026 32030 net.cpp:91] Creating Layer pred
I0612 20:32:33.566035 32030 net.cpp:425] pred <- fc5_drop5_0_split_1
I0612 20:32:33.566050 32030 net.cpp:399] pred -> pred
I0612 20:32:33.566550 32030 net.cpp:141] Setting up pred
I0612 20:32:33.566565 32030 net.cpp:148] Top shape: 64 7 (448)
I0612 20:32:33.566572 32030 net.cpp:156] Memory required for data: 121225472
I0612 20:32:33.566584 32030 layer_factory.hpp:77] Creating layer pred_pred_0_split
I0612 20:32:33.566596 32030 net.cpp:91] Creating Layer pred_pred_0_split
I0612 20:32:33.566611 32030 net.cpp:425] pred_pred_0_split <- pred
I0612 20:32:33.566622 32030 net.cpp:399] pred_pred_0_split -> pred_pred_0_split_0
I0612 20:32:33.566635 32030 net.cpp:399] pred_pred_0_split -> pred_pred_0_split_1
I0612 20:32:33.566715 32030 net.cpp:141] Setting up pred_pred_0_split
I0612 20:32:33.566730 32030 net.cpp:148] Top shape: 64 7 (448)
I0612 20:32:33.566740 32030 net.cpp:148] Top shape: 64 7 (448)
I0612 20:32:33.566746 32030 net.cpp:156] Memory required for data: 121229056
I0612 20:32:33.566764 32030 layer_factory.hpp:77] Creating layer pred_p
I0612 20:32:33.566779 32030 net.cpp:91] Creating Layer pred_p
I0612 20:32:33.566787 32030 net.cpp:425] pred_p <- fc5_p_drop5_p_0_split_1
I0612 20:32:33.566802 32030 net.cpp:399] pred_p -> pred_p
I0612 20:32:33.567313 32030 net.cpp:141] Setting up pred_p
I0612 20:32:33.567329 32030 net.cpp:148] Top shape: 64 7 (448)
I0612 20:32:33.567337 32030 net.cpp:156] Memory required for data: 121230848
I0612 20:32:33.567347 32030 net.cpp:485] Sharing parameters 'pred_exp_w' owned by layer 'pred', param index 0
I0612 20:32:33.567355 32030 net.cpp:485] Sharing parameters 'pred_exp_b' owned by layer 'pred', param index 1
I0612 20:32:33.567363 32030 layer_factory.hpp:77] Creating layer pred_p_pred_p_0_split
I0612 20:32:33.567374 32030 net.cpp:91] Creating Layer pred_p_pred_p_0_split
I0612 20:32:33.567383 32030 net.cpp:425] pred_p_pred_p_0_split <- pred_p
I0612 20:32:33.567394 32030 net.cpp:399] pred_p_pred_p_0_split -> pred_p_pred_p_0_split_0
I0612 20:32:33.567407 32030 net.cpp:399] pred_p_pred_p_0_split -> pred_p_pred_p_0_split_1
I0612 20:32:33.567472 32030 net.cpp:141] Setting up pred_p_pred_p_0_split
I0612 20:32:33.567487 32030 net.cpp:148] Top shape: 64 7 (448)
I0612 20:32:33.567495 32030 net.cpp:148] Top shape: 64 7 (448)
I0612 20:32:33.567502 32030 net.cpp:156] Memory required for data: 121234432
I0612 20:32:33.567509 32030 layer_factory.hpp:77] Creating layer loss_contrastive
I0612 20:32:33.567528 32030 net.cpp:91] Creating Layer loss_contrastive
I0612 20:32:33.567535 32030 net.cpp:425] loss_contrastive <- fc5_drop5_0_split_2
I0612 20:32:33.567545 32030 net.cpp:425] loss_contrastive <- fc5_p_drop5_p_0_split_2
…
I0525 20:17:52.127243  7375 net.cpp:313] The NetState phase (0) differed from the phase (1) specified by a rule in layer accuracy7
I0525 20:17:52.128875  7375 net.cpp:49] Initializing net from parameters: 
name: "fg_ckplus_48_48_trainval"
state {
  phase: TRAIN
}
layer {
  name: "data"
  type: "ImageData"
  top: "data"
  top: "labels"
  include {
    phase: TRAIN
  }
  image_data_param {
    source: "/home/zibo/Documents/Data/CKPLUS/partition/set1/train_separateclass_con.txt"
    batch_size: 100
    root_folder: "/home/zibo/Documents/Data/CKPLUS/cropImg_60x60/"
    label_dim: 8
  }
}
layer {
  name: "label1"
  type: "Slice"
  bottom: "labels"
  top: "label1"
  top: "label2"
  top: "label3"
  top: "label4"
  top: "label5"
  top: "label6"
  top: "label7"
  top: "label"
  slice_param {
    slice_dim: 1
    slice_point: 1
    slice_point: 2
    slice_point: 3
    slice_point: 4
    slice_point: 5
    slice_point: 6
    slice_point: 7
  }
}
layer {
  name: "conv11"
  type: "Convolution"
  bottom: "data"
  top: "conv11"
  param {
    lr_mult: 1
  }
  param {
    lr_mult: 2
  }
  convolution_param {
    num_output: 64
    pad: 1
    kernel_size: 3
    stride: 2
    weight_filler {
      type: "xavier"
    }
    bias_filler {
      type: "constant"
      value: 0
    }
  }
}
layer {
  name: "bn11"
  type: "BatchNorm"
  bottom: "conv11"
  top: "bn11"
  param {
    lr_mult: 0
  }
}
layer {
  name: "relu11"
  type: "ReLU"
  bottom: "bn11"
  top: "relu11"
}
layer {
  name: "pool1"
  type: "Pooling"
  bottom: "relu11"
  top: "pool1"
  pooling_param {
    pool: MAX
    kernel_size: 3
    stride: 2
    pad: 1
  }
}
layer {
  name: "conv21"
  type: "Convolution"
  bottom: "pool1"
  top: "conv21"
  param {
    lr_mult: 1
  }
  param {
    lr_mult: 2
  }
  convolution_param {
    num_output: 128
    pad: 1
    kernel_size: 3
    weight_filler {
      type: "xavier"
    }
    bias_filler {
      type: "constant"
      value: 0
    }
  }
}
layer {
  name: "bn21"
  type: "BatchNorm"
  bottom: "conv21"
  top: "bn21"
  param {
    lr_mult: 0
  }
}
layer {
  name: "relu21"
  type: "ReLU"
  bottom: "bn21"
  top: "relu21"
}
layer {
  name: "pool2"
  type: "Pooling"
  bottom: "relu21"
  top: "pool2"
  pooling_param {
    pool: MAX
    kernel_size: 3
    stride: 2
    pad: 1
  }
}
layer {
  name: "exp1"
  type: "Slice"
  bottom: "pool2"
  top: "exp1"
  top: "exp2"
  top: "exp3"
  top: "exp4"
  top: "exp5"
  top: "exp6"
  top: "exp7"
  top: "general"
  slice_param {
    slice_dim: 1
    slice_point: 16
    slice_point: 32
    slice_point: 48
    slice_point: 64
    slice_point: 80
    slice_point: 96
    slice_point: 112
  }
}
layer {
  name: "conv31_1_s"
  type: "Convolution"
  bottom: "exp1"
  top: "conv31_1_s"
  param {
    lr_mult: 1
  }
  param {
    lr_mult: 2
  }
  convolution_param {
    num_output: 16
    pad: 1
    kernel_size: 3
    weight_filler {
      type: "xavier"
    }
    bias_filler {
      type: "constant"
      value: 0
    }
  }
}
layer {
  name: "conv31_1_g"
  type: "Convolution"
  bottom: "general"
  top: "conv31_1_g"
  param {
    lr_mult: 1
  }
  param {
    lr_mult: 2
  }
  convolution_param {
    num_output: 16
    pad: 1
    kernel_size: 3
    weight_filler {
      type: "xavier"
    }
    bias_filler {
      type: "constant"
      value: 0
    }
  }
}
layer {
  name: "conv31_1"
  type: "Eltwise"
  bottom: "conv31_1_s"
  bottom: "conv31_1_g"
  top: "conv31_1"
}
layer {
  name: "bn31_1"
  type: "BatchNorm"
  bottom: "conv31_1"
  top: "bn31_1"
  param {
    lr_mult: 0
  }
}
layer {
  name: "relu31_1"
  type: "ReLU"
  bottom: "bn31_1"
  top: "relu31_1"
}
layer {
  name: "pool3_1"
  type: "Pooling"
  bottom: "relu31_1"
  top: "pool3_1"
  pooling_param {
    pool: MAX
    kernel_size: 3
    stride: 2
    pad: 1
  }
}
layer {
  name: "conv31_2_s"
  type: "Convolution"
  bottom: "exp2"
  top: "conv31_2_s"
  param {
    lr_mult: 1
  }
  param {
    lr_mult: 2
  }
  convolution_param {
    num_output: 16
    pad: 1
    kernel_size: 3
    weight_filler {
      type: "xavier"
    }
    bias_filler {
      type: "constant"
      value: 0
    }
  }
}
layer {
  name: "conv31_2_g"
  type: "Convolution"
  bottom: "general"
  top: "conv31_2_g"
  param {
    lr_mult: 1
  }
  param {
    lr_mult: 2
  }
  convolution_param {
    num_output: 16
    pad: 1
    kernel_size: 3
    weight_filler {
      type: "xavier"
    }
    bias_filler {
      type: "constant"
      value: 0
    }
  }
}
layer {
  name: "conv31_2"
  type: "Eltwise"
  bottom: "conv31_2_s"
  bottom: "conv31_2_g"
  top: "conv31_2"
}
layer {
  name: "bn31_2"
  type: "BatchNorm"
  bottom: "conv31_2"
  top: "bn31_2"
  param {
    lr_mult: 0
  }
}
layer {
  name: "relu31_2"
  type: "ReLU"
  bottom: "bn31_2"
  top: "relu31_2"
}
layer {
  name: "pool3_2"
  type: "Pooling"
  bottom: "relu31_2"
  top: "pool3_2"
  pooling_param {
    pool: MAX
    kernel_size: 3
    stride: 2
    pad: 1
  }
}
layer {
  name: "conv31_3_s"
  type: "Convolution"
  bottom: "exp3"
  top: "conv31_3_s"
  param {
    lr_mult: 1
  }
  param {
    lr_mult: 2
  }
  convolution_param {
    num_output: 16
    pad: 1
    kernel_size: 3
    weight_filler {
      type: "xavier"
    }
    bias_filler {
      type: "constant"
      value: 0
    }
  }
}
layer {
  name: "conv31_3_g"
  type: "Convolution"
  bottom: "general"
  top: "conv31_3_g"
  param {
    lr_mult: 1
  }
  param {
    lr_mult: 2
  }
  convolution_param {
    num_output: 16
    pad: 1
    kernel_size: 3
    weight_filler {
      type: "xavier"
    }
    bias_filler {
      type: "constant"
      value: 0
    }
  }
}
layer {
  name: "conv31_3"
  type: "Eltwise"
  bottom: "conv31_3_s"
  bottom: "conv31_3_g"
  top: "conv31_3"
}
layer {
  name: "bn31_3"
  type: "BatchNorm"
  bottom: "conv31_3"
  top: "bn31_3"
  param {
    lr_mult: 0
  }
}
layer {
  name: "relu31_3"
  type: "ReLU"
  bottom: "bn31_3"
  top: "relu31_3"
}
layer {
  name: "pool3_3"
  type: "Pooling"
  bottom: "relu31_3"
  top: "pool3_3"
  pooling_param {
    pool: MAX
    kernel_size: 3
    stride: 2
    pad: 1
  }
}
layer {
  name: "conv31_4_s"
  type: "Convolution"
  bottom: "exp4"
  top: "conv31_4_s"
  param {
    lr_mult: 1
  }
  param {
    lr_mult: 2
  }
  convolution_param {
    num_output: 16
    pad: 1
    kernel_size: 3
    weight_filler {
      type: "xavier"
    }
    bias_filler {
      type: "constant"
      value: 0
    }
  }
}
layer {
  name: "conv31_4_g"
  type: "Convolution"
  bottom: "general"
  top: "conv31_4_g"
  param {
    lr_mult: 1
  }
  param {
    lr_mult: 2
  }
  convolution_param {
    num_output: 16
    pad: 1
    kernel_size: 3
    weight_filler {
      type: "xavier"
    }
    bias_filler {
      type: "constant"
      value: 0
    }
  }
}
layer {
  name: "conv31_4"
  type: "Eltwise"
  bottom: "conv31_4_s"
  bottom: "conv31_4_g"
  top: "conv31_4"
}
layer {
  name: "bn31_4"
  type: "BatchNorm"
  bottom: "conv31_4"
  top: "bn31_4"
  param {
    lr_mult: 0
  }
}
layer {
  name: "relu31_4"
  type: "ReLU"
  bottom: "bn31_4"
  top: "relu31_4"
}
layer {
  name: "pool3_4"
  type: "Pooling"
  bottom: "relu31_4"
  top: "pool3_4"
  pooling_param {
    pool: MAX
    kernel_size: 3
    stride: 2
    pad: 1
  }
}
layer {
  name: "conv31_5_s"
  type: "Convolution"
  bottom: "exp5"
  top: "conv31_5_s"
  param {
    lr_mult: 1
  }
  param {
    lr_mult: 2
  }
  convolution_param {
    num_output: 16
    pad: 1
    kernel_size: 3
    weight_filler {
      type: "xavier"
    }
    bias_filler {
      type: "constant"
      value: 0
    }
  }
}
layer {
  name: "conv31_5_g"
  type: "Convolution"
  bottom: "general"
  top: "conv31_5_g"
  param {
    lr_mult: 1
  }
  param {
    lr_mult: 2
  }
  convolution_param {
    num_output: 16
    pad: 1
    kernel_size: 3
    weight_filler {
      type: "xavier"
    }
    bias_filler {
      type: "constant"
      value: 0
    }
  }
}
layer {
  name: "conv31_5"
  type: "Eltwise"
  bottom: "conv31_5_s"
  bottom: "conv31_5_g"
  top: "conv31_5"
}
layer {
  name: "bn31_5"
  type: "BatchNorm"
  bottom: "conv31_5"
  top: "bn31_5"
  param {
    lr_mult: 0
  }
}
layer {
  name: "relu31_5"
  type: "ReLU"
  bottom: "bn31_5"
  top: "relu31_5"
}
layer {
  name: "pool3_5"
  type: "Pooling"
  bottom: "relu31_5"
  top: "pool3_5"
  pooling_param {
    pool: MAX
    kernel_size: 3
    stride: 2
    pad: 1
  }
}
layer {
  name: "conv31_6_s"
  type: "Convolution"
  bottom: "exp6"
  top: "conv31_6_s"
  param {
    lr_mult: 1
  }
  param {
    lr_mult: 2
  }
  convolution_param {
    num_output: 16
    pad: 1
    kernel_size: 3
    weight_filler {
      type: "xavier"
    }
    bias_filler {
      type: "constant"
      value: 0
    }
  }
}
layer {
  name: "conv31_6_g"
  type: "Convolution"
  bottom: "general"
  top: "conv31_6_g"
  param {
    lr_mult: 1
  }
  param {
    lr_mult: 2
  }
  convolution_param {
    num_output: 16
    pad: 1
    kernel_size: 3
    weight_filler {
      type: "xavier"
    }
    bias_filler {
      type: "constant"
      value: 0
    }
  }
}
layer {
  name: "conv31_6"
  type: "Eltwise"
  bottom: "conv31_6_s"
  bottom: "conv31_6_g"
  top: "conv31_6"
}
layer {
  name: "bn31_6"
  type: "BatchNorm"
  bottom: "conv31_6"
  top: "bn31_6"
  param {
    lr_mult: 0
  }
}
layer {
  name: "relu31_6"
  type: "ReLU"
  bottom: "bn31_6"
  top: "relu31_6"
}
layer {
  name: "pool3_6"
  type: "Pooling"
  bottom: "relu31_6"
  top: "pool3_6"
  pooling_param {
    pool: MAX
    kernel_size: 3
    stride: 2
    pad: 1
  }
}
layer {
  name: "conv31_7_s"
  type: "Convolution"
  bottom: "exp7"
  top: "conv31_7_s"
  param {
    lr_mult: 1
  }
  param {
    lr_mult: 2
  }
  convolution_param {
    num_output: 16
    pad: 1
    kernel_size: 3
    weight_filler {
      type: "xavier"
    }
    bias_filler {
      type: "constant"
      value: 0
    }
  }
}
layer {
  name: "conv31_7_g"
  type: "Convolution"
  bottom: "general"
  top: "conv31_7_g"
  param {
    lr_mult: 1
  }
  param {
    lr_mult: 2
  }
  convolution_param {
    num_output: 16
    pad: 1
    kernel_size: 3
    weight_filler {
      type: "xavier"
    }
    bias_filler {
      type: "constant"
      value: 0
    }
  }
}
layer {
  name: "conv31_7"
  type: "Eltwise"
  bottom: "conv31_7_s"
  bottom: "conv31_7_g"
  top: "conv31_7"
}
layer {
  name: "bn31_7"
  type: "BatchNorm"
  bottom: "conv31_7"
  top: "bn31_7"
  param {
    lr_mult: 0
  }
}
layer {
  name: "relu31_7"
  type: "ReLU"
  bottom: "bn31_7"
  top: "relu31_7"
}
layer {
  name: "pool3_7"
  type: "Pooling"
  bottom: "relu31_7"
  top: "pool3_7"
  pooling_param {
    pool: MAX
    kernel_size: 3
    stride: 2
    pad: 1
  }
}
layer {
  name: "conv31_g"
  type: "Convolution"
  bottom: "general"
  top: "conv31_g"
  param {
    lr_mult: 1
  }
  param {
    lr_mult: 2
  }
  convolution_param {
    num_output: 16
    pad: 1
    kernel_size: 3
    weight_filler {
      type: "xavier"
    }
    bias_filler {
      type: "constant"
      value: 0
    }
  }
}
layer {
  name: "bn31_g"
  type: "BatchNorm"
  bottom: "conv31_g"
  top: "bn31_g"
  param {
    lr_mult: 0
  }
}
layer {
  name: "relu31_g"
  type: "ReLU"
  bottom: "bn31_g"
  top: "relu31_g"
}
layer {
  name: "pool3_g"
  type: "Pooling"
  bottom: "relu31_g"
  top: "pool3_g"
  pooling_param {
    pool: MAX
    kernel_size: 3
    stride: 2
    pad: 1
  }
}
layer {
  name: "ip4_1_s"
  type: "InnerProduct"
  bottom: "pool3_1"
  top: "ip4_1_s"
  param {
    lr_mult: 1
    decay_mult: 1
  }
  param {
    lr_mult: 2
    decay_mult: 0
  }
  inner_product_param {
    num_output: 256
    weight_filler {
      type: "gaussian"
      std: 0.0001
    }
    bias_filler {
      type: "constant"
      value: 0
    }
  }
}
layer {
  name: "ip4_1_g"
…
I0525 20:17:52.776567  7375 net.cpp:148] Top shape: 100 256 (25600)
I0525 20:17:52.776574  7375 net.cpp:156] Memory required for data: 154432000
I0525 20:17:52.776582  7375 layer_factory.hpp:77] Creating layer ip4_2_s
I0525 20:17:52.776598  7375 net.cpp:91] Creating Layer ip4_2_s
I0525 20:17:52.776607  7375 net.cpp:425] ip4_2_s <- pool3_2
I0525 20:17:52.776618  7375 net.cpp:399] ip4_2_s -> ip4_2_s
I0525 20:17:52.782662  7375 net.cpp:141] Setting up ip4_2_s
I0525 20:17:52.782687  7375 net.cpp:148] Top shape: 100 256 (25600)
I0525 20:17:52.782694  7375 net.cpp:156] Memory required for data: 154534400
I0525 20:17:52.782707  7375 layer_factory.hpp:77] Creating layer ip4_2_g
I0525 20:17:52.782735  7375 net.cpp:91] Creating Layer ip4_2_g
I0525 20:17:52.782744  7375 net.cpp:425] ip4_2_g <- pool3_g_pool3_g_0_split_1
I0525 20:17:52.782757  7375 net.cpp:399] ip4_2_g -> ip4_2_g
I0525 20:17:52.787855  7375 net.cpp:141] Setting up ip4_2_g
I0525 20:17:52.787874  7375 net.cpp:148] Top shape: 100 256 (25600)
I0525 20:17:52.787881  7375 net.cpp:156] Memory required for data: 154636800
I0525 20:17:52.787894  7375 layer_factory.hpp:77] Creating layer ip4_2
I0525 20:17:52.787905  7375 net.cpp:91] Creating Layer ip4_2
I0525 20:17:52.787914  7375 net.cpp:425] ip4_2 <- ip4_2_s
I0525 20:17:52.787922  7375 net.cpp:425] ip4_2 <- ip4_2_g
I0525 20:17:52.787937  7375 net.cpp:399] ip4_2 -> ip4_2
I0525 20:17:52.787991  7375 net.cpp:141] Setting up ip4_2
I0525 20:17:52.788008  7375 net.cpp:148] Top shape: 100 256 (25600)
I0525 20:17:52.788015  7375 net.cpp:156] Memory required for data: 154739200
I0525 20:17:52.788023  7375 layer_factory.hpp:77] Creating layer relu4_2
I0525 20:17:52.788033  7375 net.cpp:91] Creating Layer relu4_2
I0525 20:17:52.788040  7375 net.cpp:425] relu4_2 <- ip4_2
I0525 20:17:52.788051  7375 net.cpp:399] relu4_2 -> relu4_2
I0525 20:17:52.788580  7375 net.cpp:141] Setting up relu4_2
I0525 20:17:52.788605  7375 net.cpp:148] Top shape: 100 256 (25600)
I0525 20:17:52.788615  7375 net.cpp:156] Memory required for data: 154841600
I0525 20:17:52.788624  7375 layer_factory.hpp:77] Creating layer ip4_3_s
I0525 20:17:52.788636  7375 net.cpp:91] Creating Layer ip4_3_s
I0525 20:17:52.788645  7375 net.cpp:425] ip4_3_s <- pool3_3
I0525 20:17:52.788661  7375 net.cpp:399] ip4_3_s -> ip4_3_s
I0525 20:17:52.794646  7375 net.cpp:141] Setting up ip4_3_s
I0525 20:17:52.794677  7375 net.cpp:148] Top shape: 100 256 (25600)
I0525 20:17:52.794692  7375 net.cpp:156] Memory required for data: 154944000
I0525 20:17:52.794713  7375 layer_factory.hpp:77] Creating layer ip4_3_g
I0525 20:17:52.794740  7375 net.cpp:91] Creating Layer ip4_3_g
I0525 20:17:52.794757  7375 net.cpp:425] ip4_3_g <- pool3_g_pool3_g_0_split_2
I0525 20:17:52.794780  7375 net.cpp:399] ip4_3_g -> ip4_3_g
I0525 20:17:52.802060  7375 net.cpp:141] Setting up ip4_3_g
I0525 20:17:52.802094  7375 net.cpp:148] Top shape: 100 256 (25600)
I0525 20:17:52.802109  7375 net.cpp:156] Memory required for data: 155046400
I0525 20:17:52.802129  7375 layer_factory.hpp:77] Creating layer ip4_3
I0525 20:17:52.802148  7375 net.cpp:91] Creating Layer ip4_3
I0525 20:17:52.802161  7375 net.cpp:425] ip4_3 <- ip4_3_s
I0525 20:17:52.802177  7375 net.cpp:425] ip4_3 <- ip4_3_g
I0525 20:17:52.802196  7375 net.cpp:399] ip4_3 -> ip4_3
I0525 20:17:52.802280  7375 net.cpp:141] Setting up ip4_3
I0525 20:17:52.802306  7375 net.cpp:148] Top shape: 100 256 (25600)
I0525 20:17:52.802319  7375 net.cpp:156] Memory required for data: 155148800
I0525 20:17:52.802330  7375 layer_factory.hpp:77] Creating layer relu4_3
I0525 20:17:52.802361  7375 net.cpp:91] Creating Layer relu4_3
I0525 20:17:52.802371  7375 net.cpp:425] relu4_3 <- ip4_3
I0525 20:17:52.802381  7375 net.cpp:399] relu4_3 -> relu4_3
I0525 20:17:52.802733  7375 net.cpp:141] Setting up relu4_3
I0525 20:17:52.802752  7375 net.cpp:148] Top shape: 100 256 (25600)
I0525 20:17:52.802759  7375 net.cpp:156] Memory required for data: 155251200
I0525 20:17:52.802767  7375 layer_factory.hpp:77] Creating layer ip4_4_s
I0525 20:17:52.802783  7375 net.cpp:91] Creating Layer ip4_4_s
I0525 20:17:52.802793  7375 net.cpp:425] ip4_4_s <- pool3_4
I0525 20:17:52.802804  7375 net.cpp:399] ip4_4_s -> ip4_4_s
I0525 20:17:52.809031  7375 net.cpp:141] Setting up ip4_4_s
I0525 20:17:52.809059  7375 net.cpp:148] Top shape: 100 256 (25600)
I0525 20:17:52.809067  7375 net.cpp:156] Memory required for data: 155353600
I0525 20:17:52.809082  7375 layer_factory.hpp:77] Creating layer ip4_4_g
I0525 20:17:52.809101  7375 net.cpp:91] Creating Layer ip4_4_g
I0525 20:17:52.809111  7375 net.cpp:425] ip4_4_g <- pool3_g_pool3_g_0_split_3
I0525 20:17:52.809131  7375 net.cpp:399] ip4_4_g -> ip4_4_g
I0525 20:17:52.814350  7375 net.cpp:141] Setting up ip4_4_g
I0525 20:17:52.814373  7375 net.cpp:148] Top shape: 100 256 (25600)
I0525 20:17:52.814380  7375 net.cpp:156] Memory required for data: 155456000
I0525 20:17:52.814393  7375 layer_factory.hpp:77] Creating layer ip4_4
I0525 20:17:52.814404  7375 net.cpp:91] Creating Layer ip4_4
I0525 20:17:52.814412  7375 net.cpp:425] ip4_4 <- ip4_4_s
I0525 20:17:52.814421  7375 net.cpp:425] ip4_4 <- ip4_4_g
I0525 20:17:52.814431  7375 net.cpp:399] ip4_4 -> ip4_4
I0525 20:17:52.814486  7375 net.cpp:141] Setting up ip4_4
I0525 20:17:52.814507  7375 net.cpp:148] Top shape: 100 256 (25600)
I0525 20:17:52.814514  7375 net.cpp:156] Memory required for data: 155558400
I0525 20:17:52.814522  7375 layer_factory.hpp:77] Creating layer relu4_4
I0525 20:17:52.814532  7375 net.cpp:91] Creating Layer relu4_4
I0525 20:17:52.814539  7375 net.cpp:425] relu4_4 <- ip4_4
I0525 20:17:52.814553  7375 net.cpp:399] relu4_4 -> relu4_4
I0525 20:17:52.815109  7375 net.cpp:141] Setting up relu4_4
I0525 20:17:52.815130  7375 net.cpp:148] Top shape: 100 256 (25600)
I0525 20:17:52.815137  7375 net.cpp:156] Memory required for data: 155660800
I0525 20:17:52.815145  7375 layer_factory.hpp:77] Creating layer ip4_5_s
I0525 20:17:52.815158  7375 net.cpp:91] Creating Layer ip4_5_s
I0525 20:17:52.815166  7375 net.cpp:425] ip4_5_s <- pool3_5
I0525 20:17:52.815183  7375 net.cpp:399] ip4_5_s -> ip4_5_s
I0525 20:17:52.821362  7375 net.cpp:141] Setting up ip4_5_s
I0525 20:17:52.821404  7375 net.cpp:148] Top shape: 100 256 (25600)
I0525 20:17:52.821427  7375 net.cpp:156] Memory required for data: 155763200
I0525 20:17:52.821447  7375 layer_factory.hpp:77] Creating layer ip4_5_g
I0525 20:17:52.821467  7375 net.cpp:91] Creating Layer ip4_5_g
I0525 20:17:52.821480  7375 net.cpp:425] ip4_5_g <- pool3_g_pool3_g_0_split_4
I0525 20:17:52.821503  7375 net.cpp:399] ip4_5_g -> ip4_5_g
I0525 20:17:52.830631  7375 net.cpp:141] Setting up ip4_5_g
I0525 20:17:52.830713  7375 net.cpp:148] Top shape: 100 256 (25600)
I0525 20:17:52.830721  7375 net.cpp:156] Memory required for data: 155865600
I0525 20:17:52.830742  7375 layer_factory.hpp:77] Creating layer ip4_5
I0525 20:17:52.830767  7375 net.cpp:91] Creating Layer ip4_5
I0525 20:17:52.830778  7375 net.cpp:425] ip4_5 <- ip4_5_s
I0525 20:17:52.830791  7375 net.cpp:425] ip4_5 <- ip4_5_g
I0525 20:17:52.830814  7375 net.cpp:399] ip4_5 -> ip4_5
I0525 20:17:52.830894  7375 net.cpp:141] Setting up ip4_5
I0525 20:17:52.830909  7375 net.cpp:148] Top shape: 100 256 (25600)
I0525 20:17:52.830916  7375 net.cpp:156] Memory required for data: 155968000
I0525 20:17:52.830924  7375 layer_factory.hpp:77] Creating layer relu4_5
I0525 20:17:52.830937  7375 net.cpp:91] Creating Layer relu4_5
I0525 20:17:52.830945  7375 net.cpp:425] relu4_5 <- ip4_5
I0525 20:17:52.830955  7375 net.cpp:399] relu4_5 -> relu4_5
I0525 20:17:52.831462  7375 net.cpp:141] Setting up relu4_5
I0525 20:17:52.831481  7375 net.cpp:148] Top shape: 100 256 (25600)
I0525 20:17:52.831511  7375 net.cpp:156] Memory required for data: 156070400
I0525 20:17:52.831519  7375 layer_factory.hpp:77] Creating layer ip4_6_s
I0525 20:17:52.831544  7375 net.cpp:91] Creating Layer ip4_6_s
I0525 20:17:52.831554  7375 net.cpp:425] ip4_6_s <- pool3_6
I0525 20:17:52.831568  7375 net.cpp:399] ip4_6_s -> ip4_6_s
I0525 20:17:52.838134  7375 net.cpp:141] Setting up ip4_6_s
I0525 20:17:52.838201  7375 net.cpp:148] Top shape: 100 256 (25600)
I0525 20:17:52.838209  7375 net.cpp:156] Memory required for data: 156172800
I0525 20:17:52.838228  7375 layer_factory.hpp:77] Creating layer ip4_6_g
I0525 20:17:52.838251  7375 net.cpp:91] Creating Layer ip4_6_g
I0525 20:17:52.838261  7375 net.cpp:425] ip4_6_g <- pool3_g_pool3_g_0_split_5
I0525 20:17:52.838284  7375 net.cpp:399] ip4_6_g -> ip4_6_g
I0525 20:17:52.843436  7375 net.cpp:141] Setting up ip4_6_g
I0525 20:17:52.843456  7375 net.cpp:148] Top shape: 100 256 (25600)
I0525 20:17:52.843462  7375 net.cpp:156] Memory required for data: 156275200
I0525 20:17:52.843474  7375 layer_factory.hpp:77] Creating layer ip4_6
I0525 20:17:52.843494  7375 net.cpp:91] Creating Layer ip4_6
I0525 20:17:52.843503  7375 net.cpp:425] ip4_6 <- ip4_6_s
I0525 20:17:52.843513  7375 net.cpp:425] ip4_6 <- ip4_6_g
I0525 20:17:52.843523  7375 net.cpp:399] ip4_6 -> ip4_6
I0525 20:17:52.843578  7375 net.cpp:141] Setting up ip4_6
I0525 20:17:52.843593  7375 net.cpp:148] Top shape: 100 256 (25600)
I0525 20:17:52.843600  7375 net.cpp:156] Memory required for data: 156377600
I0525 20:17:52.843607  7375 layer_factory.hpp:77] Creating layer relu4_6
I0525 20:17:52.843619  7375 net.cpp:91] Creating Layer relu4_6
I0525 20:17:52.843626  7375 net.cpp:425] relu4_6 <- ip4_6
I0525 20:17:52.843643  7375 net.cpp:399] relu4_6 -> relu4_6
I0525 20:17:52.844383  7375 net.cpp:141] Setting up relu4_6
I0525 20:17:52.844403  7375 net.cpp:148] Top shape: 100 256 (25600)
I0525 20:17:52.844410  7375 net.cpp:156] Memory required for data: 156480000
I0525 20:17:52.844419  7375 layer_factory.hpp:77] Creating layer ip4_7_s
I0525 20:17:52.844434  7375 net.cpp:91] Creating Layer ip4_7_s
I0525 20:17:52.844444  7375 net.cpp:425] ip4_7_s <- pool3_7
I0525 20:17:52.844456  7375 net.cpp:399] ip4_7_s -> ip4_7_s
I0525 20:17:52.850509  7375 net.cpp:141] Setting up ip4_7_s
I0525 20:17:52.850533  7375 net.cpp:148] Top shape: 100 256 (25600)
I0525 20:17:52.850540  7375 net.cpp:156] Memory required for data: 156582400
I0525 20:17:52.850553  7375 layer_factory.hpp:77] Creating layer ip4_7_g
I0525 20:17:52.850566  7375 net.cpp:91] Creating Layer ip4_7_g
I0525 20:17:52.850575  7375 net.cpp:425] ip4_7_g <- pool3_g_pool3_g_0_split_6
I0525 20:17:52.850590  7375 net.cpp:399] ip4_7_g -> ip4_7_g
I0525 20:17:52.855698  7375 net.cpp:141] Setting up ip4_7_g
I0525 20:17:52.855718  7375 net.cpp:148] Top shape: 100 256 (25600)
I0525 20:17:52.855726  7375 net.cpp:156] Memory required for data: 156684800
I0525 20:17:52.855737  7375 layer_factory.hpp:77] Creating layer ip4_7
I0525 20:17:52.855749  7375 net.cpp:91] Creating Layer ip4_7
I0525 20:17:52.855757  7375 net.cpp:425] ip4_7 <- ip4_7_s
I0525 20:17:52.855767  7375 net.cpp:425] ip4_7 <- ip4_7_g
I0525 20:17:52.855775  7375 net.cpp:399] ip4_7 -> ip4_7
I0525 20:17:52.855841  7375 net.cpp:141] Setting up ip4_7
I0525 20:17:52.855857  7375 net.cpp:148] Top shape: 100 256 (25600)
I0525 20:17:52.855865  7375 net.cpp:156] Memory required for data: 156787200
I0525 20:17:52.855871  7375 layer_factory.hpp:77] Creating layer relu4_7
I0525 20:17:52.855881  7375 net.cpp:91] Creating Layer relu4_7
I0525 20:17:52.855888  7375 net.cpp:425] relu4_7 <- ip4_7
I0525 20:17:52.855902  7375 net.cpp:399] relu4_7 -> relu4_7
I0525 20:17:52.856237  7375 net.cpp:141] Setting up relu4_7
I0525 20:17:52.856257  7375 net.cpp:148] Top shape: 100 256 (25600)
I0525 20:17:52.856268  7375 net.cpp:156] Memory required for data: 156889600
I0525 20:17:52.856276  7375 layer_factory.hpp:77] Creating layer ip4_g
I0525 20:17:52.856288  7375 net.cpp:91] Creating Layer ip4_g
I0525 20:17:52.856297  7375 net.cpp:425] ip4_g <- pool3_g_pool3_g_0_split_7
I0525 20:17:52.856331  7375 net.cpp:399] ip4_g -> ip4_g
I0525 20:17:52.862555  7375 net.cpp:141] Setting up ip4_g
I0525 20:17:52.862581  7375 net.cpp:148] Top shape: 100 256 (25600)
I0525 20:17:52.862587  7375 net.cpp:156] Memory required for data: 156992000
I0525 20:17:52.862601  7375 layer_factory.hpp:77] Creating layer relu4_g
I0525 20:17:52.862612  7375 net.cpp:91] Creating Layer relu4_g
I0525 20:17:52.862623  7375 net.cpp:425] relu4_g <- ip4_g
I0525 20:17:52.862645  7375 net.cpp:399] relu4_g -> relu4_g
I0525 20:17:52.863170  7375 net.cpp:141] Setting up relu4_g
I0525 20:17:52.863190  7375 net.cpp:148] Top shape: 100 256 (25600)
I0525 20:17:52.863198  7375 net.cpp:156] Memory required for data: 157094400
I0525 20:17:52.863205  7375 layer_factory.hpp:77] Creating layer relu4_g_relu4_g_0_split
I0525 20:17:52.863219  7375 net.cpp:91] Creating Layer relu4_g_relu4_g_0_split
I0525 20:17:52.863226  7375 net.cpp:425] relu4_g_relu4_g_0_split <- relu4_g
I0525 20:17:52.863242  7375 net.cpp:399] relu4_g_relu4_g_0_split -> relu4_g_relu4_g_0_split_0
I0525 20:17:52.863256  7375 net.cpp:399] relu4_g_relu4_g_0_split -> relu4_g_relu4_g_0_split_1
I0525 20:17:52.863268  7375 net.cpp:399] relu4_g_relu4_g_0_split -> relu4_g_relu4_g_0_split_2
I0525 20:17:52.863281  7375 net.cpp:399] relu4_g_relu4_g_0_split -> relu4_g_relu4_g_0_split_3
I0525 20:17:52.863294  7375 net.cpp:399] relu4_g_relu4_g_0_split -> relu4_g_relu4_g_0_split_4
I0525 20:17:52.863306  7375 net.cpp:399] relu4_g_relu4_g_0_split -> relu4_g_relu4_g_0_split_5
I0525 20:17:52.863320  7375 net.cpp:399] relu4_g_relu4_g_0_split -> relu4_g_relu4_g_0_split_6
I0525 20:17:52.863332  7375 net.cpp:399] relu4_g_relu4_g_0_split -> relu4_g_relu4_g_0_split_7
I0525 20:17:52.863571  7375 net.cpp:141] Setting up relu4_g_relu4_g_0_split
I0525 20:17:52.863587  7375 net.cpp:148] Top shape: 100 256 (25600)
I0525 20:17:52.863595  7375 net.cpp:148] Top shape: 100 256 (25600)
I0525 20:17:52.863603  7375 net.cpp:148] Top shape: 100 256 (25600)
I0525 20:17:52.863611  7375 net.cpp:148] Top shape: 100 256 (25600)
I0525 20:17:52.863620  7375 net.cpp:148] Top shape: 100 256 (25600)
I0525 20:17:52.863627  7375 net.cpp:148] Top shape: 100 256 (25600)
I0525 20:17:52.863636  7375 net.cpp:148] Top shape: 100 256 (25600)
I0525 20:17:52.863643  7375 net.cpp:148] Top shape: 100 256 (25600)
I0525 20:17:52.863649  7375 net.cpp:156] Memory required for data: 157913600
I0525 20:17:52.863656  7375 layer_factory.hpp:77] Creating layer ip5_1_s
I0525 20:17:52.863672  7375 net.cpp:91] Creating Layer ip5_1_s
I0525 20:17:52.863682  7375 net.cpp:425] ip5_1_s <- relu4_1
I0525 20:17:52.863693  7375 net.cpp:399] ip5_1_s -> ip5_1_s
I0525 20:17:52.867058  7375 net.cpp:141] Setting up ip5_1_s
I0525 20:17:52.867077  7375 net.cpp:148] Top shape: 100 256 (25600)
I0525 20:17:52.867085  7375 net.cpp:156] Memory required for data: 158016000
I0525 20:17:52.867097  7375 layer_factory.hpp:77] Creating layer ip5_1_g
I0525 20:17:52.867110  7375 net.cpp:91] Creating Layer ip5_1_g
I0525 20:17:52.867118  7375 net.cpp:425] ip5_1_g <- relu4_g_relu4_g_0_split_0
I0525 20:17:52.867130  7375 net.cpp:399] ip5_1_g -> ip5_1_g
I0525 20:17:52.871322  7375 net.cpp:141] Setting up ip5_1_g
I0525 20:17:52.871345  7375 net.cpp:148] Top shape: 100 256 (25600)
I0525 20:17:52.871352  7375 net.cpp:156] Memory required for data: 158118400
I0525 20:17:52.871364  7375 layer_factory.hpp:77] Creating layer ip5_1
I0525 20:17:52.871377  7375 net.cpp:91] Creating Layer ip5_1
I0525 20:17:52.871387  7375 net.cpp:425] ip5_1 <- ip5_1_s
I0525 20:17:52.871395  7375 net.cpp:425] ip5_1 <- ip5_1_g
I0525 20:17:52.871405  7375 net.cpp:399] ip5_1 -> ip5_1
I0525 20:17:52.871491  7375 net.cpp:141] Setting up ip5_1
I0525 20:17:52.871508  7375 net.cpp:148] Top shape: 100 256 (25600)
I0525 20:17:52.871515  7375 net.cpp:156] Memory required for data: 158220800
I0525 20:17:52.871522  7375 layer_factory.hpp:77] Creating layer relu5_1
I0525 20:17:52.871536  7375 net.cpp:91] Creating Layer relu5_1
I0525 20:17:52.871544  7375 net.cpp:425] relu5_1 <- ip5_1
I0525 20:17:52.871563  7375 net.cpp:399] relu5_1 -> relu5_1
I0525 20:17:52.872088  7375 net.cpp:141] Setting up relu5_1
I0525 20:17:52.872109  7375 net.cpp:148] Top shape: 100 256 (25600)
I0525 20:17:52.872117  7375 net.cpp:156] Memory required for data: 158323200
I0525 20:17:52.872124  7375 layer_factory.hpp:77] Creating layer ip5_2_s
I0525 20:17:52.872140  7375 net.cpp:91] Creating Layer ip5_2_s
I0525 20:17:52.872149  7375 net.cpp:425] ip5_2_s <- relu4_2
I0525 20:17:52.872165  7375 net.cpp:399] ip5_2_s -> ip5_2_s
I0525 20:17:52.875530  7375 net.cpp:141] Setting up ip5_2_s
I0525 20:17:52.875550  7375 net.cpp:148] Top shape: 100 256 (25600)
I0525 20:17:52.875557  7375 net.cpp:156] Memory required for data: 158425600
I0525 20:17:52.875569  7375 layer_factory.hpp:77] Creating layer ip5_2_g
I0525 20:17:52.875582  7375 net.cpp:91] Creating Layer ip5_2_g
I0525 20:17:52.875591  7375 net.cpp:425] ip5_2_g <- relu4_g_relu4_g_0_split_1
I0525 20:17:52.875607  7375 net.cpp:399] ip5_2_g -> ip5_2_g
I0525 20:17:52.878957  7375 net.cpp:141] Setting up ip5_2_g
I0525 20:17:52.878976  7375 net.cpp:148] Top shape: 100 256 (25600)
I0525 20:17:52.878983  7375 net.cpp:156] Memory required for data: 158528000
I0525 20:17:52.878994  7375 layer_factory.hpp:77] Creating layer ip5_2
I0525 20:17:52.879010  7375 net.cpp:91] Creating Layer ip5_2
I0525 20:17:52.879019  7375 net.cpp:425] ip5_2 <- ip5_2_s
I0525 20:17:52.879027  7375 net.cpp:425] ip5_2 <- ip5_2_g
I0525 20:17:52.879037  7375 net.cpp:399] ip5_2 -> ip5_2
I0525 20:17:52.879091  7375 net.cpp:141] Setting up ip5_2
I0525 20:17:52.879106  7375 net.cpp:148] Top shape: 100 256 (25600)
I0525 20:17:52.879112  7375 net.cpp:156] Memory required for data: 158630400
I0525 20:17:52.879119  7375 layer_factory.hpp:77] Creating layer relu5_2
I0525 20:17:52.879129  7375 net.cpp:91] Creating Layer relu5_2
I0525 20:17:52.879137  7375 net.cpp:425] relu5_2 <- ip5_2
I0525 20:17:52.879158  7375 net.cpp:399] relu5_2 -> relu5_2
I0525 20:17:52.879487  7375 net.cpp:141] Setting up relu5_2
I0525 20:17:52.879508  7375 net.cpp:148] Top shape: 100 256 (25600)
I0525 20:17:52.879516  7375 net.cpp:156] Memory required for data: 158732800
I0525 20:17:52.879523  7375 layer_factory.hpp:77] Creating layer ip5_3_s
I0525 20:17:52.879536  7375 net.cpp:91] Creating Layer ip5_3_s
I0525 20:17:52.879545  7375 net.cpp:425] ip5_3_s <- relu4_3
I0525 20:17:52.879560  7375 net.cpp:399] ip5_3_s -> ip5_3_s
I0525 20:17:52.882942  7375 net.cpp:141] Setting up ip5_3_s
I0525 20:17:52.882963  7375 net.cpp:148] Top shape: 100 256 (25600)
I0525 20:17:52.882971  7375 net.cpp:156] Memory required for data: 158835200
I0525 20:17:52.882983  7375 layer_factory.hpp:77] Creating layer ip5_3_g
I0525 20:17:52.883000  7375 net.cpp:91] Creating Layer ip5_3_g
I0525 20:17:52.883008  7375 net.cpp:425] ip5_3_g <- relu4_g_relu4_g_0_split_2
I0525 20:17:52.883020  7375 net.cpp:399] ip5_3_g -> ip5_3_g
I0525 20:17:52.887166  7375 net.cpp:141] Setting up ip5_3_g
I0525 20:17:52.887188  7375 net.cpp:148] Top shape: 100 256 (25600)
I0525 20:17:52.887197  7375 net.cpp:156] Memory required for data: 158937600
I0525 20:17:52.887208  7375 layer_factory.hpp:77] Creating layer ip5_3
I0525 20:17:52.887224  7375 net.cpp:91] Creating Layer ip5_3
I0525 20:17:52.887233  7375 net.cpp:425] ip5_3 <- ip5_3_s
I0525 20:17:52.887243  7375 net.cpp:425] ip5_3 <- ip5_3_g
I0525 20:17:52.887253  7375 net.cpp:399] ip5_3 -> ip5_3
I0525 20:17:52.887306  7375 net.cpp:141] Setting up ip5_3
I0525 20:17:52.887321  7375 net.cpp:148] Top shape: 100 256 (25600)
I0525 20:17:52.887327  7375 net.cpp:156] Memory required for data: 159040000
I0525 20:17:52.887336  7375 layer_factory.hpp:77] Creating layer relu5_3
I0525 20:17:52.887346  7375 net.cpp:91] Creating Layer relu5_3
I0525 20:17:52.887352  7375 net.cpp:425] relu5_3 <- ip5_3
I0525 20:17:52.887367  7375 net.cpp:399] relu5_3 -> relu5_3
I0525 20:17:52.887887  7375 net.cpp:141] Setting up relu5_3
I0525 20:17:52.887907  7375 net.cpp:148] Top shape: 100 256 (25600)
I0525 20:17:52.887914  7375 net.cpp:156] Memory required for data: 159142400
I0525 20:17:52.887930  7375 layer_factory.hpp:77] Creating layer ip5_4_s
I0525 20:17:52.887948  7375 net.cpp:91] Creating Layer ip5_4_s
I0525 20:17:52.887955  7375 net.cpp:425] ip5_4_s <- relu4_4
I0525 20:17:52.887969  7375 net.cpp:399] ip5_4_s -> ip5_4_s
I0525 20:17:52.891320  7375 net.cpp:141] Setting up ip5_4_s
I0525 20:17:52.891340  7375 net.cpp:148] Top shape: 100 256 (25600)
I0525 20:17:52.891345  7375 net.cpp:156] Memory required for data: 159244800
I0525 20:17:52.891358  7375 layer_factory.hpp:77] Creating layer ip5_4_g
I0525 20:17:52.891371  7375 net.cpp:91] Creating Layer ip5_4_g
I0525 20:17:52.891378  7375 net.cpp:425] ip5_4_g <- relu4_g_relu4_g_0_split_3
I0525 20:17:52.891396  7375 net.cpp:399] ip5_4_g -> ip5_4_g
I0525 20:17:52.894721  7375 net.cpp:141] Setting up ip5_4_g
I0525 20:17:52.894740  7375 net.cpp:148] Top shape: 100 256 (25600)
I0525 20:17:52.894747  7375 net.cpp:156] Memory required for data: 159347200
I0525 20:17:52.894758  7375 layer_factory.hpp:77] Creating layer ip5_4
I0525 20:17:52.894769  7375 net.cpp:91] Creating Layer ip5_4
I0525 20:17:52.894776  7375 net.cpp:425] ip5_4 <- ip5_4_s
I0525 20:17:52.894786  7375 net.cpp:425] ip5_4 <- ip5_4_g
I0525 20:17:52.894800  7375 net.cpp:399] ip5_4 -> ip5_4
I0525 20:17:52.894855  7375 net.cpp:141] Setting up ip5_4
I0525 20:17:52.894868  7375 net.cpp:148] Top shape: 100 256 (25600)
I0525 20:17:52.894876  7375 net.cpp:156] Memory required for data: 159449600
I0525 20:17:52.894882  7375 layer_factory.hpp:77] Creating layer relu5_4
I0525 20:17:52.894893  7375 net.cpp:91] Creating Layer relu5_4
I0525 20:17:52.894901  7375 net.cpp:425] relu5_4 <- ip5_4
I0525 20:17:52.894911  7375 net.cpp:399] relu5_4 -> relu5_4
I0525 20:17:52.895419  7375 net.cpp:141] Setting up relu5_4
I0525 20:17:52.895439  7375 net.cpp:148] Top shape: 100 256 (25600)
I0525 20:17:52.895447  7375 net.cpp:156] Memory required for data: 159552000
I0525 20:17:52.895453  7375 layer_factory.hpp:77] Creating layer ip5_5_s
I0525 20:17:52.895470  7375 net.cpp:91] Creating Layer ip5_5_s
I0525 20:17:52.895479  7375 net.cpp:425] ip5_5_s <- relu4_5
I0525 20:17:52.895491  7375 net.cpp:399] ip5_5_s -> ip5_5_s
I0525 20:17:52.898916  7375 net.cpp:141] Setting up ip5_5_s
I0525 20:17:52.898936  7375 net.cpp:148] Top shape: 100 256 (25600)
I0525 20:17:52.898944  7375 net.cpp:156] Memory required for data: 159654400
I0525 20:17:52.898957  7375 layer_factory.hpp:77] Creating layer ip5_5_g
I0525 20:17:52.898969  7375 net.cpp:91] Creating Layer ip5_5_g
I0525 20:17:52.898977  7375 net.cpp:425] ip5_5_g <- relu4_g_relu4_g_0_split_4
I0525 20:17:52.898994  7375 net.cpp:399] ip5_5_g -> ip5_5_g
I0525 20:17:52.903297  7375 net.cpp:141] Setting up ip5_5_g
I0525 20:17:52.903322  7375 net.cpp:148] Top shape: 100 256 (25600)
I0525 20:17:52.903329  7375 net.cpp:156] Memory required for data: 159756800
I0525 20:17:52.903342  7375 layer_factory.hpp:77] Creating layer ip5_5
I0525 20:17:52.903354  7375 net.cpp:91] Creating Layer ip5_5
I0525 20:17:52.903362  7375 net.cpp:425] ip5_5 <- ip5_5_s
I0525 20:17:52.903373  7375 net.cpp:425] ip5_5 <- ip5_5_g
I0525 20:17:52.903383  7375 net.cpp:399] ip5_5 -> ip5_5
I0525 20:17:52.903437  7375 net.cpp:141] Setting up ip5_5
I0525 20:17:52.903458  7375 net.cpp:148] Top shape: 100 256 (25600)
I0525 20:17:52.903465  7375 net.cpp:156] Memory required for data: 159859200
I0525 20:17:52.903473  7375 layer_factory.hpp:77] Creating layer relu5_5
I0525 20:17:52.903483  7375 net.cpp:91] Creating Layer relu5_5
I0525 20:17:52.903491  7375 net.cpp:425] relu5_5 <- ip5_5
I0525 20:17:52.903501  7375 net.cpp:399] relu5_5 -> relu5_5
I0525 20:17:52.904043  7375 net.cpp:141] Setting up relu5_5
I0525 20:17:52.904063  7375 net.cpp:148] Top shape: 100 256 (25600)
I0525 20:17:52.904070  7375 net.cpp:156] Memory required for data: 159961600
I0525 20:17:52.904078  7375 layer_factory.hpp:77] Creating layer ip5_6_s
I0525 20:17:52.904093  7375 net.cpp:91] Creating Layer ip5_6_s
I0525 20:17:52.904100  7375 net.cpp:425] ip5_6_s <- relu4_6
I0525 20:17:52.904117  7375 net.cpp:399] ip5_6_s -> ip5_6_s
I0525 20:17:52.907464  7375 net.cpp:141] Setting up ip5_6_s
I0525 20:17:52.907493  7375 net.cpp:148] Top shape: 100 256 (25600)
I0525 20:17:52.907501  7375 net.cpp:156] Memory required for data: 160064000
I0525 20:17:52.907513  7375 layer_factory.hpp:77] Creating layer ip5_6_g
I0525 20:17:52.907531  7375 net.cpp:91] Creating Layer ip5_6_g
I0525 20:17:52.907539  7375 net.cpp:425] ip5_6_g <- relu4_g_relu4_g_0_split_5
I0525 20:17:52.907555  7375 net.cpp:399] ip5_6_g -> ip5_6_g
I0525 20:17:52.910910  7375 net.cpp:141] Setting up ip5_6_g
I0525 20:17:52.910929  7375 net.cpp:148] Top shape: 100 256 (25600)
I0525 20:17:52.910936  7375 net.cpp:156] Memory required for data: 160166400
I0525 20:17:52.910948  7375 layer_factory.hpp:77] Creating layer ip5_6
I0525 20:17:52.910959  7375 net.cpp:91] Creating Layer ip5_6
I0525 20:17:52.910966  7375 net.cpp:425] ip5_6 <- ip5_6_s
I0525 20:17:52.910975  7375 net.cpp:425] ip5_6 <- ip5_6_g
I0525 20:17:52.910984  7375 net.cpp:399] ip5_6 -> ip5_6
I0525 20:17:52.911038  7375 net.cpp:141] Setting up ip5_6
I0525 20:17:52.911058  7375 net.cpp:148] Top shape: 100 256 (25600)
I0525 20:17:52.911067  7375 net.cpp:156] Memory required for data: 160268800
I0525 20:17:52.911073  7375 layer_factory.hpp:77] Creating layer relu5_6
I0525 20:17:52.911083  7375 net.cpp:91] Creating Layer relu5_6
I0525 20:17:52.911092  7375 net.cpp:425] relu5_6 <- ip5_6
I0525 20:17:52.911101  7375 net.cpp:399] relu5_6 -> relu5_6
I0525 20:17:52.911428  7375 net.cpp:141] Setting up relu5_6
I0525 20:17:52.911447  7375 net.cpp:148] Top shape: 100 256 (25600)
I0525 20:17:52.911453  7375 net.cpp:156] Memory required for data: 160371200
I0525 20:17:52.911460  7375 layer_factory.hpp:77] Creating layer ip5_7_s
I0525 20:17:52.911476  7375 net.cpp:91] Creating Layer ip5_7_s
I0525 20:17:52.911485  7375 net.cpp:425] ip5_7_s <- relu4_7
I0525 20:17:52.911497  7375 net.cpp:399] ip5_7_s -> ip5_7_s
I0525 20:17:52.914840  7375 net.cpp:141] Setting up ip5_7_s
I0525 20:17:52.914860  7375 net.cpp:148] Top shape: 100 256 (25600)
I0525 20:17:52.914866  7375 net.cpp:156] Memory required for data: 160473600
I0525 20:17:52.914878  7375 layer_factory.hpp:77] Creating layer ip5_7_g
I0525 20:17:52.914891  7375 net.cpp:91] Creating Layer ip5_7_g
I0525 20:17:52.914899  7375 net.cpp:425] ip5_7_g <- relu4_g_relu4_g_0_split_6
I0525 20:17:52.914916  7375 net.cpp:399] ip5_7_g -> ip5_7_g
I0525 20:17:52.919064  7375 net.cpp:141] Setting up ip5_7_g
I0525 20:17:52.919085  7375 net.cpp:148] Top shape: 100 256 (25600)
I0525 20:17:52.919093  7375 net.cpp:156] Memory required for data: 160576000
I0525 20:17:52.919106  7375 layer_factory.hpp:77] Creating layer ip5_7
I0525 20:17:52.919116  7375 net.cpp:91] Creating Layer ip5_7
I0525 20:17:52.919124  7375 net.cpp:425] ip5_7 <- ip5_7_s
I0525 20:17:52.919133  7375 net.cpp:425] ip5_7 <- ip5_7_g
I0525 20:17:52.919143  7375 net.cpp:399] ip5_7 -> ip5_7
I0525 20:17:52.919198  7375 net.cpp:141] Setting up ip5_7
I0525 20:17:52.919219  7375 net.cpp:148] Top shape: 100 256 (25600)
I0525 20:17:52.919226  7375 net.cpp:156] Memory required for data: 160678400
I0525 20:17:52.919234  7375 layer_factory.hpp:77] Creating layer relu5_7
I0525 20:17:52.919245  7375 net.cpp:91] Creating Layer relu5_7
I0525 20:17:52.919251  7375 net.cpp:425] relu5_7 <- ip5_7
I0525 20:17:52.919261  7375 net.cpp:399] relu5_7 -> relu5_7
I0525 20:17:52.919875  7375 net.cpp:141] Setting up relu5_7
I0525 20:17:52.919896  7375 net.cpp:148] Top shape: 100 256 (25600)
I0525 20:17:52.919903  7375 net.cpp:156] Memory required for data: 160780800
I0525 20:17:52.919911  7375 layer_factory.hpp:77] Creating layer ip5_g
I0525 20:17:52.919924  7375 net.cpp:91] Creating Layer ip5_g
I0525 20:17:52.919932  7375 net.cpp:425] ip5_g <- relu4_g_relu4_g_0_split_7
I0525 20:17:52.919950  7375 net.cpp:399] ip5_g -> ip5_g
I0525 20:17:52.923283  7375 net.cpp:141] Setting up ip5_g
I0525 20:17:52.923302  7375 net.cpp:148] Top shape: 100 256 (25600)
I0525 20:17:52.923310  7375 net.cpp:156] Memory required for data: 160883200
I0525 20:17:52.923321  7375 layer_factory.hpp:77] Creating layer relu5_g
I0525 20:17:52.923337  7375 net.cpp:91] Creating Layer relu5_g
I0525 20:17:52.923359  7375 net.cpp:425] relu5_g <- ip5_g
I0525 20:17:52.923372  7375 net.cpp:399] relu5_g -> relu5_g
I0525 20:17:52.923701  7375 net.cpp:141] Setting up relu5_g
I0525 20:17:52.923723  7375 net.cpp:148] Top shape: 100 256 (25600)
I0525 20:17:52.923732  7375 net.cpp:156] Memory required for data: 160985600
I0525 20:17:52.923738  7375 layer_factory.hpp:77] Creating layer relu5_g_relu5_g_0_split
I0525 20:17:52.923750  7375 net.cpp:91] Creating Layer relu5_g_relu5_g_0_split
I0525 20:17:52.923758  7375 net.cpp:425] relu5_g_relu5_g_0_split <- relu5_g
I0525 20:17:52.923771  7375 net.cpp:399] relu5_g_relu5_g_0_split -> relu5_g_relu5_g_0_split_0
I0525 20:17:52.923785  7375 net.cpp:399] relu5_g_relu5_g_0_split -> relu5_g_relu5_g_0_split_1
I0525 20:17:52.923797  7375 net.cpp:399] relu5_g_relu5_g_0_split -> relu5_g_relu5_g_0_split_2
I0525 20:17:52.923809  7375 net.cpp:399] relu5_g_relu5_g_0_split -> relu5_g_relu5_g_0_split_3
I0525 20:17:52.923820  7375 net.cpp:399] relu5_g_relu5_g_0_split -> relu5_g_relu5_g_0_split_4
I0525 20:17:52.923830  7375 net.cpp:399] relu5_g_relu5_g_0_split -> relu5_g_relu5_g_0_split_5
I0525 20:17:52.923841  7375 net.cpp:399] relu5_g_relu5_g_0_split -> relu5_g_relu5_g_0_split_6
I0525 20:17:52.924052  7375 net.cpp:141] Setting up relu5_g_relu5_g_0_split
I0525 20:17:52.924067  7375 net.cpp:148] Top shape: 100 256 (25600)
I0525 20:17:52.924077  7375 net.cpp:148] Top shape: 100 256 (25600)
I0525 20:17:52.924083  7375 net.cpp:148] Top shape: 100 256 (25600)
I0525 20:17:52.924091  7375 net.cpp:148] Top shape: 100 256 (25600)
I0525 20:17:52.924099  7375 net.cpp:148] Top shape: 100 256 (25600)
I0525 20:17:52.924106  7375 net.cpp:148] Top shape: 100 256 (25600)
I0525 20:17:52.924114  7375 net.cpp:148] Top shape: 100 256 (25600)
I0525 20:17:52.924121  7375 net.cpp:156] Memory required for data: 161702400
I0525 20:17:52.924129  7375 layer_factory.hpp:77] Creating layer ip6_1_s
I0525 20:17:52.924145  7375 net.cpp:91] Creating Layer ip6_1_s
I0525 20:17:52.924154  7375 net.cpp:425] ip6_1_s <- relu5_1
I0525 20:17:52.924170  7375 net.cpp:399] ip6_1_s -> ip6_1_s
I0525 20:17:52.924432  7375 net.cpp:141] Setting up ip6_1_s
I0525 20:17:52.924448  7375 net.cpp:148] Top shape: 100 2 (200)
I0525 20:17:52.924454  7375 net.cpp:156] Memory required for data: 161703200
I0525 20:17:52.924466  7375 layer_factory.hpp:77] Creating layer ip6_1_g
I0525 20:17:52.924479  7375 net.cpp:91] Creating Layer ip6_1_g
I0525 20:17:52.924487  7375 net.cpp:425] ip6_1_g <- relu5_g_relu5_g_0_split_0
I0525 20:17:52.924504  7375 net.cpp:399] ip6_1_g -> ip6_1_g
I0525 20:17:52.924753  7375 net.cpp:141] Setting up ip6_1_g
I0525 20:17:52.924769  7375 net.cpp:148] Top shape: 100 2 (200)
I0525 20:17:52.924777  7375 net.cpp:156] Memory required for data: 161704000
I0525 20:17:52.924787  7375 layer_factory.hpp:77] Creating layer ip6_1
I0525 20:17:52.924798  7375 net.cpp:91] Creating Layer ip6_1
I0525 20:17:52.924806  7375 net.cpp:425] ip6_1 <- ip6_1_s
I0525 20:17:52.924815  7375 net.cpp:425] ip6_1 <- ip6_1_g
I0525 20:17:52.924824  7375 net.cpp:399] ip6_1 -> ip6_1
I0525 20:17:52.924877  7375 net.cpp:141] Setting up ip6_1
I0525 20:17:52.924901  7375 net.cpp:148] Top shape: 100 2 (200)
I0525 20:17:52.924908  7375 net.cpp:156] Memory required for data: 161704800
I0525 20:17:52.924916  7375 layer_factory.hpp:77] Creating layer ip6_1_ip6_1_0_split
I0525 20:17:52.924931  7375 net.cpp:91] Creating Layer ip6_1_ip6_1_0_split
I0525 20:17:52.924939  7375 net.cpp:425] ip6_1_ip6_1_0_split <- ip6_1
I0525 20:17:52.924949  7375 net.cpp:399] ip6_1_ip6_1_0_split -> ip6_1_ip6_1_0_split_0
I0525 20:17:52.924962  7375 net.cpp:399] ip6_1_ip6_1_0_split -> ip6_1_ip6_1_0_split_1
I0525 20:17:52.925046  7375 net.cpp:141] Setting up ip6_1_ip6_1_0_split
I0525 20:17:52.925061  7375 net.cpp:148] Top shape: 100 2 (200)
I0525 20:17:52.925071  7375 net.cpp:148] Top shape: 100 2 (200)
I0525 20:17:52.925076  7375 net.cpp:156] Memory required for data: 161706400
I0525 20:17:52.925083  7375 layer_factory.hpp:77] Creating layer ip6_2_s
I0525 20:17:52.925099  7375 net.cpp:91] Creating Layer ip6_2_s
I0525 20:17:52.925115  7375 net.cpp:425] ip6_2_s <- relu5_2
I0525 20:17:52.925127  7375 net.cpp:399] ip6_2_s -> ip6_2_s
I0525 20:17:52.925366  7375 net.cpp:141] Setting up ip6_2_s
I0525 20:17:52.925382  7375 net.cpp:148] Top shape: 100 2 (200)
I0525 20:17:52.925390  7375 net.cpp:156] Memory required for data: 161707200
I0525 20:17:52.925431  7375 layer_factory.hpp:77] Creating layer ip6_2_g
I0525 20:17:52.925444  7375 net.cpp:91] Creating Layer ip6_2_g
I0525 20:17:52.925452  7375 net.cpp:425] ip6_2_g <- relu5_g_relu5_g_0_split_1
I0525 20:17:52.925464  7375 net.cpp:399] ip6_2_g -> ip6_2_g
I0525 20:17:52.925709  7375 net.cpp:141] Setting up ip6_2_g
I0525 20:17:52.925725  7375 net.cpp:148] Top shape: 100 2 (200)
I0525 20:17:52.925732  7375 net.cpp:156] Memory required for data: 161708000
I0525 20:17:52.925743  7375 layer_factory.hpp:77] Creating layer ip6_2
I0525 20:17:52.925758  7375 net.cpp:91] Creating Layer ip6_2
I0525 20:17:52.925766  7375 net.cpp:425] ip6_2 <- ip6_2_s
I0525 20:17:52.925776  7375 net.cpp:425] ip6_2 <- ip6_2_g
I0525 20:17:52.925786  7375 net.cpp:399] ip6_2 -> ip6_2
I0525 20:17:52.925843  7375 net.cpp:141] Setting up ip6_2
I0525 20:17:52.925856  7375 net.cpp:148] Top shape: 100 2 (200)
I0525 20:17:52.925863  7375 net.cpp:156] Memory required for data: 161708800
I0525 20:17:52.925870  7375 layer_factory.hpp:77] Creating layer ip6_2_ip6_2_0_split
I0525 20:17:52.925905  7375 net.cpp:91] Creating Layer ip6_2_ip6_2_0_split
I0525 20:17:52.925914  7375 net.cpp:425] ip6_2_ip6_2_0_split <- ip6_2
I0525 20:17:52.925925  7375 net.cpp:399] ip6_2_ip6_2_0_split -> ip6_2_ip6_2_0_split_0
I0525 20:17:52.925937  7375 net.cpp:399] ip6_2_ip6_2_0_split -> ip6_2_ip6_2_0_split_1
I0525 20:17:52.926020  7375 net.cpp:141] Setting up ip6_2_ip6_2_0_split
I0525 20:17:52.926035  7375 net.cpp:148] Top shape: 100 2 (200)
I0525 20:17:52.926043  7375 net.cpp:148] Top shape: 100 2 (200)
I0525 20:17:52.926050  7375 net.cpp:156] Memory required for data: 161710400
I0525 20:17:52.926059  7375 layer_factory.hpp:77] Creating layer ip6_3_s
I0525 20:17:52.926074  7375 net.cpp:91] Creating Layer ip6_3_s
I0525 20:17:52.926084  7375 net.cpp:425] ip6_3_s <- relu5_3
I0525 20:17:52.926095  7375 net.cpp:399] ip6_3_s -> ip6_3_s
I0525 20:17:52.926331  7375 net.cpp:141] Setting up ip6_3_s
I0525 20:17:52.926347  7375 net.cpp:148] Top shape: 100 2 (200)
I0525 20:17:52.926354  7375 net.cpp:156] Memory required for data: 161711200
I0525 20:17:52.926365  7375 layer_factory.hpp:77] Creating layer ip6_3_g
I0525 20:17:52.926378  7375 net.cpp:91] Creating Layer ip6_3_g
I0525 20:17:52.926385  7375 net.cpp:425] ip6_3_g <- relu5_g_relu5_g_0_split_2
I0525 20:17:52.926398  7375 net.cpp:399] ip6_3_g -> ip6_3_g
I0525 20:17:52.926631  7375 net.cpp:141] Setting up ip6_3_g
I0525 20:17:52.926647  7375 net.cpp:148] Top shape: 100 2 (200)
I0525 20:17:52.926654  7375 net.cpp:156] Memory required for data: 161712000
I0525 20:17:52.926666  7375 layer_factory.hpp:77] Creating layer ip6_3
I0525 20:17:52.926676  7375 net.cpp:91] Creating Layer ip6_3
I0525 20:17:52.926683  7375 net.cpp:425] ip6_3 <- ip6_3_s
I0525 20:17:52.926692  7375 net.cpp:425] ip6_3 <- ip6_3_g
I0525 20:17:52.926707  7375 net.cpp:399] ip6_3 -> ip6_3
I0525 20:17:52.926759  7375 net.cpp:141] Setting up ip6_3
I0525 20:17:52.926774  7375 net.cpp:148] Top shape: 100 2 (200)
I0525 20:17:52.926780  7375 net.cpp:156] Memory required for data: 161712800
I0525 20:17:52.926787  7375 layer_factory.hpp:77] Creating layer ip6_3_ip6_3_0_split
I0525 20:17:52.926797  7375 net.cpp:91] Creating Layer ip6_3_ip6_3_0_split
I0525 20:17:52.926805  7375 net.cpp:425] ip6_3_ip6_3_0_split <- ip6_3
I0525 20:17:52.926815  7375 net.cpp:399] ip6_3_ip6_3_0_split -> ip6_3_ip6_3_0_split_0
I0525 20:17:52.926826  7375 net.cpp:399] ip6_3_ip6_3_0_split -> ip6_3_ip6_3_0_split_1
I0525 20:17:52.926908  7375 net.cpp:141] Setting up ip6_3_ip6_3_0_split
I0525 20:17:52.926923  7375 net.cpp:148] Top shape: 100 2 (200)
I0525 20:17:52.926931  7375 net.cpp:148] Top shape: 100 2 (200)
I0525 20:17:52.926939  7375 net.cpp:156] Memory required for data: 161714400
I0525 20:17:52.926952  7375 layer_factory.hpp:77] Creating layer ip6_4_s
I0525 20:17:52.926970  7375 net.cpp:91] Creating Layer ip6_4_s
I0525 20:17:52.926978  7375 net.cpp:425] ip6_4_s <- relu5_4
I0525 20:17:52.926990  7375 net.cpp:399] ip6_4_s -> ip6_4_s
I0525 20:17:52.927235  7375 net.cpp:141] Setting up ip6_4_s
I0525 20:17:52.927251  7375 net.cpp:148] Top shape: 100 2 (200)
I0525 20:17:52.927258  7375 net.cpp:156] Memory required for data: 161715200
I0525 20:17:52.927269  7375 layer_factory.hpp:77] Creating layer ip6_4_g
I0525 20:17:52.927284  7375 net.cpp:91] Creating Layer ip6_4_g
I0525 20:17:52.927294  7375 net.cpp:425] ip6_4_g <- relu5_g_relu5_g_0_split_3
I0525 20:17:52.927304  7375 net.cpp:399] ip6_4_g -> ip6_4_g
I0525 20:17:52.927574  7375 net.cpp:141] Setting up ip6_4_g
I0525 20:17:52.927593  7375 net.cpp:148] Top shape: 100 2 (200)
I0525 20:17:52.927600  7375 net.cpp:156] Memory required for data: 161716000
I0525 20:17:52.927611  7375 layer_factory.hpp:77] Creating layer ip6_4
I0525 20:17:52.927629  7375 net.cpp:91] Creating Layer ip6_4
I0525 20:17:52.927637  7375 net.cpp:425] ip6_4 <- ip6_4_s
I0525 20:17:52.927646  7375 net.cpp:425] ip6_4 <- ip6_4_g
I0525 20:17:52.927660  7375 net.cpp:399] ip6_4 -> ip6_4
I0525 20:17:52.927716  7375 net.cpp:141] Setting up ip6_4
I0525 20:17:52.927731  7375 net.cpp:148] Top shape: 100 2 (200)
I0525 20:17:52.927738  7375 net.cpp:156] Memory required for data: 161716800
I0525 20:17:52.927745  7375 layer_factory.hpp:77] Creating layer ip6_4_ip6_4_0_split
I0525 20:17:52.927754  7375 net.cpp:91] Creating Layer ip6_4_ip6_4_0_split
I0525 20:17:52.927762  7375 net.cpp:425] ip6_4_ip6_4_0_split <- ip6_4
I0525 20:17:52.927772  7375 net.cpp:399] ip6_4_ip6_4_0_split -> ip6_4_ip6_4_0_split_0
I0525 20:17:52.927783  7375 net.cpp:399] ip6_4_ip6_4_0_split -> ip6_4_ip6_4_0_split_1
I0525 20:17:52.927866  7375 net.cpp:141] Setting up ip6_4_ip6_4_0_split
I0525 20:17:52.927881  7375 net.cpp:148] Top shape: 100 2 (200)
I0525 20:17:52.927889  7375 net.cpp:148] Top shape: 100 2 (200)
I0525 20:17:52.927896  7375 net.cpp:156] Memory required for data: 161718400
I0525 20:17:52.927902  7375 layer_factory.hpp:77] Creating layer ip6_5_s
I0525 20:17:52.927919  7375 net.cpp:91] Creating Layer ip6_5_s
I0525 20:17:52.927928  7375 net.cpp:425] ip6_5_s <- relu5_5
I0525 20:17:52.927939  7375 net.cpp:399] ip6_5_s -> ip6_5_s
I0525 20:17:52.928180  7375 net.cpp:141] Setting up ip6_5_s
I0525 20:17:52.928195  7375 net.cpp:148] Top shape: 100 2 (200)
I0525 20:17:52.928202  7375 net.cpp:156] Memory required for data: 161719200
I0525 20:17:52.928215  7375 layer_factory.hpp:77] Creating layer ip6_5_g
I0525 20:17:52.928230  7375 net.cpp:91] Creating Layer ip6_5_g
I0525 20:17:52.928238  7375 net.cpp:425] ip6_5_g <- relu5_g_relu5_g_0_split_4
I0525 20:17:52.928249  7375 net.cpp:399] ip6_5_g -> ip6_5_g
I0525 20:17:52.928485  7375 net.cpp:141] Setting up ip6_5_g
I0525 20:17:52.928501  7375 net.cpp:148] Top shape: 100 2 (200)
I0525 20:17:52.928508  7375 net.cpp:156] Memory required for data: 161720000
I0525 20:17:52.928519  7375 layer_factory.hpp:77] Creating layer ip6_5
I0525 20:17:52.928529  7375 net.cpp:91] Creating Layer ip6_5
I0525 20:17:52.928537  7375 net.cpp:425] ip6_5 <- ip6_5_s
I0525 20:17:52.928546  7375 net.cpp:425] ip6_5 <- ip6_5_g
I0525 20:17:52.928560  7375 net.cpp:399] ip6_5 -> ip6_5
I0525 20:17:52.928613  7375 net.cpp:141] Setting up ip6_5
I0525 20:17:52.928627  7375 net.cpp:148] Top shape: 100 2 (200)
I0525 20:17:52.928634  7375 net.cpp:156] Memory required for data: 161720800
I0525 20:17:52.928642  7375 layer_factory.hpp:77] Creating layer ip6_5_ip6_5_0_split
I0525 20:17:52.928652  7375 net.cpp:91] Creating Layer ip6_5_ip6_5_0_split
I0525 20:17:52.928658  7375 net.cpp:425] ip6_5_ip6_5_0_split <- ip6_5
I0525 20:17:52.928668  7375 net.cpp:399] ip6_5_ip6_5_0_split -> ip6_5_ip6_5_0_split_0
I0525 20:17:52.928680  7375 net.cpp:399] ip6_5_ip6_5_0_split -> ip6_5_ip6_5_0_split_1
I0525 20:17:52.928769  7375 net.cpp:141] Setting up ip6_5_ip6_5_0_split
I0525 20:17:52.928784  7375 net.cpp:148] Top shape: 100 2 (200)
I0525 20:17:52.928800  7375 net.cpp:148] Top shape: 100 2 (200)
I0525 20:17:52.928807  7375 net.cpp:156] Memory required for data: 161722400
I0525 20:17:52.928814  7375 layer_factory.hpp:77] Creating layer ip6_6_s
I0525 20:17:52.928831  7375 net.cpp:91] Creating Layer ip6_6_s
I0525 20:17:52.928839  7375 net.cpp:425] ip6_6_s <- relu5_6
I0525 20:17:52.928851  7375 net.cpp:399] ip6_6_s -> ip6_6_s
I0525 20:17:52.929103  7375 net.cpp:141] Setting up ip6_6_s
I0525 20:17:52.929121  7375 net.cpp:148] Top shape: 100 2 (200)
I0525 20:17:52.929127  7375 net.cpp:156] Memory required for data: 161723200
I0525 20:17:52.929138  7375 layer_factory.hpp:77] Creating layer ip6_6_g
I0525 20:17:52.929154  7375 net.cpp:91] Creating Layer ip6_6_g
I0525 20:17:52.929162  7375 net.cpp:425] ip6_6_g <- relu5_g_relu5_g_0_split_5
I0525 20:17:52.929174  7375 net.cpp:399] ip6_6_g -> ip6_6_g
I0525 20:17:52.929406  7375 net.cpp:141] Setting up ip6_6_g
I0525 20:17:52.929422  7375 net.cpp:148] Top shape: 100 2 (200)
I0525 20:17:52.929430  7375 net.cpp:156] Memory required for data: 161724000
I0525 20:17:52.929440  7375 layer_factory.hpp:77] Creating layer ip6_6
I0525 20:17:52.929451  7375 net.cpp:91] Creating Layer ip6_6
I0525 20:17:52.929458  7375 net.cpp:425] ip6_6 <- ip6_6_s
I0525 20:17:52.929467  7375 net.cpp:425] ip6_6 <- ip6_6_g
I0525 20:17:52.929481  7375 net.cpp:399] ip6_6 -> ip6_6
I0525 20:17:52.929533  7375 net.cpp:141] Setting up ip6_6
I0525 20:17:52.929548  7375 net.cpp:148] Top shape: 100 2 (200)
I0525 20:17:52.929554  7375 net.cpp:156] Memory required for data: 161724800
I0525 20:17:52.929563  7375 layer_factory.hpp:77] Creating layer ip6_6_ip6_6_0_split
I0525 20:17:52.929571  7375 net.cpp:91] Creating Layer ip6_6_ip6_6_0_split
I0525 20:17:52.929579  7375 net.cpp:425] ip6_6_ip6_6_0_split <- ip6_6
I0525 20:17:52.929589  7375 net.cpp:399] ip6_6_ip6_6_0_split -> ip6_6_ip6_6_0_split_0
I0525 20:17:52.929600  7375 net.cpp:399] ip6_6_ip6_6_0_split -> ip6_6_ip6_6_0_split_1
I0525 20:17:52.929682  7375 net.cpp:141] Setting up ip6_6_ip6_6_0_split
I0525 20:17:52.929697  7375 net.cpp:148] Top shape: 100 2 (200)
I0525 20:17:52.929705  7375 net.cpp:148] Top shape: 100 2 (200)
I0525 20:17:52.929711  7375 net.cpp:156] Memory required for data: 161726400
I0525 20:17:52.929718  7375 layer_factory.hpp:77] Creating layer ip6_7_s
I0525 20:17:52.929734  7375 net.cpp:91] Creating Layer ip6_7_s
I0525 20:17:52.929744  7375 net.cpp:425] ip6_7_s <- relu5_7
I0525 20:17:52.929755  7375 net.cpp:399] ip6_7_s -> ip6_7_s
I0525 20:17:52.929993  7375 net.cpp:141] Setting up ip6_7_s
I0525 20:17:52.930009  7375 net.cpp:148] Top shape: 100 2 (200)
I0525 20:17:52.930016  7375 net.cpp:156] Memory required for data: 161727200
I0525 20:17:52.930027  7375 layer_factory.hpp:77] Creating layer ip6_7_g
I0525 20:17:52.930043  7375 net.cpp:91] Creating Layer ip6_7_g
I0525 20:17:52.930052  7375 net.cpp:425] ip6_7_g <- relu5_g_relu5_g_0_split_6
I0525 20:17:52.930063  7375 net.cpp:399] ip6_7_g -> ip6_7_g
I0525 20:17:52.930296  7375 net.cpp:141] Setting up ip6_7_g
I0525 20:17:52.930312  7375 net.cpp:148] Top shape: 100 2 (200)
I0525 20:17:52.930320  7375 net.cpp:156] Memory required for data: 161728000
I0525 20:17:52.930330  7375 layer_factory.hpp:77] Creating layer ip6_7
I0525 20:17:52.930341  7375 net.cpp:91] Creating Layer ip6_7
I0525 20:17:52.930348  7375 net.cpp:425] ip6_7 <- ip6_7_s
I0525 20:17:52.930357  7375 net.cpp:425] ip6_7 <- ip6_7_g
I0525 20:17:52.930371  7375 net.cpp:399] ip6_7 -> ip6_7
I0525 20:17:52.930423  7375 net.cpp:141] Setting up ip6_7
I0525 20:17:52.930438  7375 net.cpp:148] Top shape: 100 2 (200)
I0525 20:17:52.930444  7375 net.cpp:156] Memory required for data: 161728800
I0525 20:17:52.930451  7375 layer_factory.hpp:77] Creating layer ip6_7_ip6_7_0_split
I0525 20:17:52.930461  7375 net.cpp:91] Creating Layer ip6_7_ip6_7_0_split
I0525 20:17:52.930469  7375 net.cpp:425] ip6_7_ip6_7_0_split <- ip6_7
I0525 20:17:52.930479  7375 net.cpp:399] ip6_7_ip6_7_0_split -> ip6_7_ip6_7_0_split_0
I0525 20:17:52.930490  7375 net.cpp:399] ip6_7_ip6_7_0_split -> ip6_7_ip6_7_0_split_1
I0525 20:17:52.930583  7375 net.cpp:141] Setting up ip6_7_ip6_7_0_split
I0525 20:17:52.930598  7375 net.cpp:148] Top shape: 100 2 (200)
I0525 20:17:52.930605  7375 net.cpp:148] Top shape: 100 2 (200)
I0525 20:17:52.930613  7375 net.cpp:156] Memory required for data: 161730400
I0525 20:17:52.930619  7375 layer_factory.hpp:77] Creating layer drop6_1
I0525 20:17:52.930639  7375 net.cpp:91] Creating Layer drop6_1
I0525 20:17:52.930647  7375 net.cpp:425] drop6_1 <- ip6_1_ip6_1_0_split_0
I0525 20:17:52.930660  7375 net.cpp:399] drop6_1 -> drop6_1
I0525 20:17:52.930673  7375 net.cpp:399] drop6_1 -> pred6_1
I0525 20:17:52.930761  7375 net.cpp:141] Setting up drop6_1
I0525 20:17:52.930775  7375 net.cpp:148] Top shape: 100 1 (100)
I0525 20:17:52.930784  7375 net.cpp:148] Top shape: 100 1 (100)
I0525 20:17:52.930790  7375 net.cpp:156] Memory required for data: 161731200
I0525 20:17:52.930799  7375 layer_factory.hpp:77] Creating layer drop6_2
I0525 20:17:52.930809  7375 net.cpp:91] Creating Layer drop6_2
I0525 20:17:52.930817  7375 net.cpp:425] drop6_2 <- ip6_2_ip6_2_0_split_0
I0525 20:17:52.930829  7375 net.cpp:399] drop6_2 -> drop6_2
I0525 20:17:52.930840  7375 net.cpp:399] drop6_2 -> pred6_2
I0525 20:17:52.930924  7375 net.cpp:141] Setting up drop6_2
I0525 20:17:52.930938  7375 net.cpp:148] Top shape: 100 1 (100)
I0525 20:17:52.930948  7375 net.cpp:148] Top shape: 100 1 (100)
I0525 20:17:52.930953  7375 net.cpp:156] Memory required for data: 161732000
I0525 20:17:52.930960  7375 layer_factory.hpp:77] Creating layer drop6_3
I0525 20:17:52.930971  7375 net.cpp:91] Creating Layer drop6_3
I0525 20:17:52.930979  7375 net.cpp:425] drop6_3 <- ip6_3_ip6_3_0_split_0
I0525 20:17:52.930989  7375 net.cpp:399] drop6_3 -> drop6_3
I0525 20:17:52.931006  7375 net.cpp:399] drop6_3 -> pred6_3
I0525 20:17:52.931087  7375 net.cpp:141] Setting up drop6_3
I0525 20:17:52.931102  7375 net.cpp:148] Top shape: 100 1 (100)
I0525 20:17:52.931110  7375 net.cpp:148] Top shape: 100 1 (100)
I0525 20:17:52.931116  7375 net.cpp:156] Memory required for data: 161732800
I0525 20:17:52.931123  7375 layer_factory.hpp:77] Creating layer drop6_4
I0525 20:17:52.931140  7375 net.cpp:91] Creating Layer drop6_4
I0525 20:17:52.931149  7375 net.cpp:425] drop6_4 <- ip6_4_ip6_4_0_split_0
I0525 20:17:52.931160  7375 net.cpp:399] drop6_4 -> drop6_4
I0525 20:17:52.931174  7375 net.cpp:399] drop6_4 -> pred6_4
I0525 20:17:52.931253  7375 net.cpp:141] Setting up drop6_4
I0525 20:17:52.931268  7375 net.cpp:148] Top shape: 100 1 (100)
I0525 20:17:52.931277  7375 net.cpp:148] Top shape: 100 1 (100)
I0525 20:17:52.931282  7375 net.cpp:156] Memory required for data: 161733600
I0525 20:17:52.931289  7375 layer_factory.hpp:77] Creating layer drop6_5
I0525 20:17:52.931300  7375 net.cpp:91] Creating Layer drop6_5
I0525 20:17:52.931308  7375 net.cpp:425] drop6_5 <- ip6_5_ip6_5_0_split_0
I0525 20:17:52.931319  7375 net.cpp:399] drop6_5 -> drop6_5
I0525 20:17:52.931332  7375 net.cpp:399] drop6_5 -> pred6_5
I0525 20:17:52.931416  7375 net.cpp:141] Setting up drop6_5
I0525 20:17:52.931432  7375 net.cpp:148] Top shape: 100 1 (100)
I0525 20:17:52.931439  7375 net.cpp:148] Top shape: 100 1 (100)
I0525 20:17:52.931445  7375 net.cpp:156] Memory required for data: 161734400
I0525 20:17:52.931452  7375 layer_factory.hpp:77] Creating layer drop6_6
I0525 20:17:52.931463  7375 net.cpp:91] Creating Layer drop6_6
I0525 20:17:52.931471  7375 net.cpp:425] drop6_6 <- ip6_6_ip6_6_0_split_0
I0525 20:17:52.931486  7375 net.cpp:399] drop6_6 -> drop6_6
I0525 20:17:52.931500  7375 net.cpp:399] drop6_6 -> pred6_6
I0525 20:17:52.931576  7375 net.cpp:141] Setting up drop6_6
I0525 20:17:52.931591  7375 net.cpp:148] Top shape: 100 1 (100)
I0525 20:17:52.931598  7375 net.cpp:148] Top shape: 100 1 (100)
I0525 20:17:52.931605  7375 net.cpp:156] Memory required for data: 161735200
I0525 20:17:52.931612  7375 layer_factory.hpp:77] Creating layer drop6_7
I0525 20:17:52.931627  7375 net.cpp:91] Creating Layer drop6_7
I0525 20:17:52.931637  7375 net.cpp:425] drop6_7 <- ip6_7_ip6_7_0_split_0
I0525 20:17:52.931648  7375 net.cpp:399] drop6_7 -> drop6_7
I0525 20:17:52.931668  7375 net.cpp:399] drop6_7 -> pred6_7
I0525 20:17:52.931749  7375 net.cpp:141] Setting up drop6_7
I0525 20:17:52.931764  7375 net.cpp:148] Top shape: 100 1 (100)
I0525 20:17:52.931773  7375 net.cpp:148] Top shape: 100 1 (100)
I0525 20:17:52.931779  7375 net.cpp:156] Memory required for data: 161736000
I0525 20:17:52.931787  7375 layer_factory.hpp:77] Creating layer ip6
I0525 20:17:52.931802  7375 net.cpp:91] Creating Layer ip6
I0525 20:17:52.931808  7375 net.cpp:425] ip6 <- pred6_1
I0525 20:17:52.931818  7375 net.cpp:425] ip6 <- pred6_2
I0525 20:17:52.931825  7375 net.cpp:425] ip6 <- pred6_3
I0525 20:17:52.931833  7375 net.cpp:425] ip6 <- pred6_4
I0525 20:17:52.931840  7375 net.cpp:425] ip6 <- pred6_5
I0525 20:17:52.931848  7375 net.cpp:425] ip6 <- pred6_6
I0525 20:17:52.931855  7375 net.cpp:425] ip6 <- pred6_7
I0525 20:17:52.931864  7375 net.cpp:399] ip6 -> ip6
I0525 20:17:52.931926  7375 net.cpp:141] Setting up ip6
I0525 20:17:52.931941  7375 net.cpp:148] Top shape: 100 7 (700)
I0525 20:17:52.931947  7375 net.cpp:156] Memory required for data: 161738800
I0525 20:17:52.931954  7375 layer_factory.hpp:77] Creating layer silence
I0525 20:17:52.931967  7375 net.cpp:91] Creating Layer silence
I0525 20:17:52.931973  7375 net.cpp:425] silence <- drop6_1
I0525 20:17:52.931982  7375 net.cpp:425] silence <- drop6_2
I0525 20:17:52.931990  7375 net.cpp:425] silence <- drop6_3
…
