…
I0612 10:23:57.666292  2978 net.cpp:49] Initializing net from parameters: 
name: "SiameseNet"
state {
  phase: TRAIN
}
layer {
  name: "pair_data"
  type: "ImageData"
  top: "pair_data"
  top: "labels"
  include {
    phase: TRAIN
  }
  transform_param {
    mirror: true
    crop_size: 48
  }
  image_data_param {
    source: "examples/SFEW/data/siamese_bi_multi/Train/train"
    batch_size: 64
    shuffle: true
    new_height: 60
    new_width: 60
    is_color: false
    root_folder: "/home/zibo/Data/Database/SFEW_60x60/"
    image_num: 2
    label_dim: 4
  }
}
layer {
  name: "slice_pair"
  type: "Slice"
  bottom: "pair_data"
  top: "data"
  top: "data_p"
  include {
    phase: TRAIN
  }
  slice_param {
    slice_dim: 1
    slice_point: 1
  }
}
layer {
  name: "slice_tri"
  type: "Slice"
  bottom: "labels"
  top: "sim"
  top: "label1"
  top: "label2"
  top: "subsim"
  include {
    phase: TRAIN
  }
  slice_param {
    slice_dim: 1
    slice_point: 1
    slice_point: 2
    slice_point: 3
  }
}
layer {
  name: "conv11"
  type: "Convolution"
  bottom: "data"
  top: "conv11"
  param {
    name: "conv11_w"
    lr_mult: 1
    decay_mult: 1
  }
  param {
    name: "conv11_b"
    lr_mult: 2
    decay_mult: 0
  }
  convolution_param {
    num_output: 64
    pad: 1
    kernel_size: 3
    stride: 2
    weight_filler {
      type: "xavier"
    }
    bias_filler {
      type: "constant"
    }
  }
}
layer {
  name: "relu11"
  type: "PReLU"
  bottom: "conv11"
  top: "conv11"
}
layer {
  name: "bn11"
  type: "BatchNorm"
  bottom: "conv11"
  top: "bn11"
  param {
    lr_mult: 0
  }
  param {
    lr_mult: 0
  }
  param {
    lr_mult: 0
  }
}
layer {
  name: "pool1"
  type: "Pooling"
  bottom: "bn11"
  top: "pool1"
  pooling_param {
    pool: MAX
    kernel_size: 3
    stride: 2
    pad: 1
  }
}
layer {
  name: "conv21"
  type: "Convolution"
  bottom: "pool1"
  top: "conv21"
  param {
    name: "conv21_w"
    lr_mult: 1
    decay_mult: 1
  }
  param {
    name: "conv21_b"
    lr_mult: 2
    decay_mult: 0
  }
  convolution_param {
    num_output: 128
    pad: 1
    kernel_size: 3
    weight_filler {
      type: "xavier"
    }
    bias_filler {
      type: "constant"
    }
  }
}
layer {
  name: "relu21"
  type: "PReLU"
  bottom: "conv21"
  top: "conv21"
}
layer {
  name: "bn21"
  type: "BatchNorm"
  bottom: "conv21"
  top: "bn21"
  param {
    lr_mult: 0
  }
  param {
    lr_mult: 0
  }
  param {
    lr_mult: 0
  }
}
layer {
  name: "pool2"
  type: "Pooling"
  bottom: "bn21"
  top: "pool2"
  pooling_param {
    pool: MAX
    kernel_size: 3
    stride: 2
    pad: 1
  }
}
layer {
  name: "conv31"
  type: "Convolution"
  bottom: "pool2"
  top: "conv31"
  param {
    name: "conv31_w"
    lr_mult: 1
    decay_mult: 1
  }
  param {
    name: "conv31_b"
    lr_mult: 2
    decay_mult: 0
  }
  convolution_param {
    num_output: 128
    pad: 1
    kernel_size: 3
    weight_filler {
      type: "xavier"
    }
    bias_filler {
      type: "constant"
    }
  }
}
layer {
  name: "relu31"
  type: "PReLU"
  bottom: "conv31"
  top: "conv31"
}
layer {
  name: "bn31"
  type: "BatchNorm"
  bottom: "conv31"
  top: "bn31"
  param {
    lr_mult: 0
  }
  param {
    lr_mult: 0
  }
  param {
    lr_mult: 0
  }
}
layer {
  name: "fc4"
  type: "InnerProduct"
  bottom: "bn31"
  top: "fc4"
  param {
    name: "fc4_w"
    lr_mult: 1
    decay_mult: 1
  }
  param {
    name: "fc4_b"
    lr_mult: 2
    decay_mult: 0
  }
  inner_product_param {
    num_output: 1024
    weight_filler {
      type: "xavier"
    }
    bias_filler {
      type: "constant"
    }
  }
}
layer {
  name: "relu4"
  type: "PReLU"
  bottom: "fc4"
  top: "fc4"
}
layer {
  name: "drop4"
  type: "Dropout"
  bottom: "fc4"
  top: "fc4"
  include {
    phase: TRAIN
  }
  dropout_param {
    dropout_ratio: 0.6
  }
}
layer {
  name: "fc5"
  type: "InnerProduct"
  bottom: "fc4"
  top: "fc5"
  param {
    name: "fc5_w"
    lr_mult: 1
    decay_mult: 1
  }
  param {
    name: "fc5_b"
    lr_mult: 2
    decay_mult: 0
  }
  inner_product_param {
    num_output: 1024
    weight_filler {
      type: "gaussian"
      std: 0.0001
    }
    bias_filler {
      type: "constant"
    }
  }
}
layer {
  name: "relu5"
  type: "PReLU"
  bottom: "fc5"
  top: "fc5"
}
layer {
  name: "drop5"
  type: "Dropout"
  bottom: "fc5"
  top: "fc5"
  include {
    phase: TRAIN
  }
  dropout_param {
    dropout_ratio: 0.6
  }
}
layer {
  name: "fc5_sub"
  type: "InnerProduct"
  bottom: "fc4"
  top: "fc5_sub"
  param {
    name: "fc5_sub_w"
    lr_mult: 1
    decay_mult: 1
  }
  param {
    name: "fc5_sub_b"
    lr_mult: 2
    decay_mult: 0
  }
  inner_product_param {
    num_output: 1024
    weight_filler {
      type: "gaussian"
      std: 0.0001
    }
    bias_filler {
      type: "constant"
    }
  }
}
layer {
  name: "relu5_sub"
  type: "PReLU"
  bottom: "fc5_sub"
  top: "fc5_sub"
}
layer {
  name: "drop5_sub"
  type: "Dropout"
  bottom: "fc5_sub"
  top: "fc5_sub"
  include {
    phase: TRAIN
  }
  dropout_param {
    dropout_ratio: 0.6
  }
}
layer {
  name: "concat"
  type: "Concat"
  bottom: "fc5"
  bottom: "fc5_sub"
  top: "features"
}
layer {
  name: "pred_new"
  type: "InnerProduct"
  bottom: "features"
  top: "pred_new"
  param {
    name: "pred_w"
    lr_mult: 10
    decay_mult: 1
  }
  param {
    name: "pred_b"
    lr_mult: 20
    decay_mult: 0
  }
  inner_product_param {
    num_output: 7
    weight_filler {
      type: "gaussian"
      std: 0.01
    }
    bias_filler {
      type: "constant"
      value: 0
    }
  }
}
layer {
  name: "conv11_p"
  type: "Convolution"
  bottom: "data_p"
  top: "conv11_p"
  param {
    name: "conv11_w"
    lr_mult: 1
    decay_mult: 1
  }
  param {
    name: "conv11_b"
    lr_mult: 2
    decay_mult: 0
  }
  include {
    phase: TRAIN
  }
  convolution_param {
    num_output: 64
    pad: 1
    kernel_size: 3
    stride: 2
    weight_filler {
      type: "xavier"
    }
    bias_filler {
      type: "constant"
    }
  }
}
layer {
  name: "relu11_p"
  type: "PReLU"
  bottom: "conv11_p"
  top: "conv11_p"
}
layer {
  name: "bn11_p"
  type: "BatchNorm"
  bottom: "conv11_p"
  top: "bn11_p"
  param {
    lr_mult: 0
  }
  param {
    lr_mult: 0
  }
  param {
    lr_mult: 0
  }
}
layer {
  name: "pool1_p"
  type: "Pooling"
  bottom: "bn11_p"
  top: "pool1_p"
  pooling_param {
    pool: MAX
    kernel_size: 3
    stride: 2
    pad: 1
  }
}
layer {
  name: "conv21_p"
  type: "Convolution"
  bottom: "pool1_p"
  top: "conv21_p"
  param {
    name: "conv21_w"
    lr_mult: 1
    decay_mult: 1
  }
  param {
    name: "conv21_b"
    lr_mult: 2
    decay_mult: 0
  }
  convolution_param {
    num_output: 128
    pad: 1
    kernel_size: 3
    weight_filler {
      type: "xavier"
    }
    bias_filler {
      type: "constant"
    }
  }
}
layer {
  name: "relu21_p"
  type: "PReLU"
  bottom: "conv21_p"
  top: "conv21_p"
}
layer {
  name: "bn21_p"
  type: "BatchNorm"
  bottom: "conv21_p"
  top: "bn21_p"
  param {
    lr_mult: 0
  }
  param {
    lr_mult: 0
  }
  param {
    lr_mult: 0
  }
}
layer {
  name: "pool2_p"
  type: "Pooling"
  bottom: "bn21_p"
  top: "pool2_p"
  pooling_param {
    pool: MAX
    kernel_size: 3
    stride: 2
    pad: 1
  }
}
layer {
  name: "conv31_p"
  type: "Convolution"
  bottom: "pool2_p"
  top: "conv31_p"
  param {
    name: "conv31_w"
    lr_mult: 1
    decay_mult: 1
  }
  param {
    name: "conv31_b"
    lr_mult: 2
    decay_mult: 0
  }
  convolution_param {
    num_output: 128
    pad: 1
    kernel_size: 3
    weight_filler {
      type: "xavier"
    }
    bias_filler {
      type: "constant"
    }
  }
}
layer {
  name: "relu31_p"
  type: "PReLU"
  bottom: "conv31_p"
  top: "conv31_p"
}
layer {
  name: "bn31_p"
  type: "BatchNorm"
  bottom: "conv31_p"
  top: "bn31_p"
  param {
    lr_mult: 0
  }
  param {
    lr_mult: 0
  }
  param {
    lr_mult: 0
  }
}
layer {
  name: "fc4_p"
  type: "InnerProduct"
  bottom: "bn31_p"
  top: "fc4_p"
  param {
    name: "fc4_w"
    lr_mult: 1
    decay_mult: 1
  }
  param {
    name: "fc4_b"
    lr_mult: 2
    decay_mult: 0
  }
  inner_product_param {
    num_output: 1024
    weight_filler {
      type: "xavier"
    }
    bias_filler {
      type: "constant"
    }
  }
}
layer {
  name: "relu4_p"
  type: "PReLU"
  bottom: "fc4_p"
  top: "fc4_p"
}
layer {
  name: "drop4_p"
  type: "Dropout"
  bottom: "fc4_p"
  top: "fc4_p"
  include {
    phase: TRAIN
  }
  dropout_param {
    dropout_ratio: 0.6
  }
}
layer {
  name: "fc5_p"
  type: "InnerProduct"
  bottom: "fc4_p"
  top: "fc5_p"
  param {
    name: "fc5_w"
    lr_mult: 1
    decay_mult: 1
  }
  param {
    name: "fc5_b"
    lr_mult: 2
    decay_mult: 0
  }
  inner_product_param {
    num_output: 1024
    weight_filler {
      type: "xavier"
    }
    bias_filler {
      type: "constant"
    }
  }
}
layer {
  name: "relu5_p"
  type: "PReLU"
  bottom: "fc5_p"
  top: "fc5_p"
}
layer {
  name: "drop5_p"
  type: "Dropout"
  bottom: "fc5_p"
  top: "fc5_p"
  include {
    phase: TRAIN
  }
  dropout_param {
    dropout_ratio: 0.6
  }
}
layer {
  name: "fc5_p_sub"
  type: "InnerProduct"
  bottom: "fc4_p"
  top: "fc5_p_sub"
  param {
    name: "fc5_sub_w"
    lr_mult: 1
    decay_mult: 1
  }
  param {
    name: "fc5_sub_b"
    lr_mult: 2
    decay_mult: 0
  }
  inner_product_param {
    num_output: 1024
    weight_filler {
      type: "gaussian"
      std: 0.0001
    }
    bias_filler {
      type: "constant"
    }
  }
}
layer {
  name: "relu5_p_sub"
  type: "PReLU"
  bottom: "fc5_p_sub"
  top: "fc5_p_sub"
}
layer {
  name: "drop5_p_sub"
  type: "Dropout"
  bottom: "fc5_p_sub"
  top: "fc5_p_sub"
  include {
    phase: TRAIN
  }
  dropout_param {
    dropout_ratio: 0.6
  }
}
layer {
  name: "concat_p"
  type: "Concat"
  bottom: "fc5_p"
  bottom: "fc5_p_sub"
  top: "features_p"
}
layer {
  name: "pred_new_p"
  type: "InnerProduct"
  bottom: "features_p"
  top: "pred_new_p"
  param {
    name: "pred_w"
    lr_mult: 10
    decay_mult: 1
  }
  param {
    name: "pred_b"
    lr_mult: 20
    decay_mult: 0
  }
  inner_product_param {
    num_output: 7
    weight_filler {
      type: "gaussian"
      std: 0.01
    }
    bias_filler {
      type: "constant"
      value: 0
    }
  }
}
layer {
  name: "pred"
  type: "InnerProduct"
  bottom: "fc5"
  top: "pred"
  param {
    name: "pred_exp_w"
    lr_mult: 1
    decay_mult: 1
  }
  param {
    name: "pred_exp_b"
    lr_mult: 2
    decay_mult: 0
  }
  inner_product_param {
    num_output: 7
    weight_filler {
      type: "gaussian"
      std: 0.01
    }
    bias_filler {
      type: "constant"
      value: 0
    }
  }
}
layer {
  name: "pred_p"
  type: "InnerProduct"
  bottom: "fc5_p"
  top: "pred_p"
  param {
    name: "pred_exp_w"
    lr_mult: 1
    decay_mult: 1
  }
  param {
    name: "pred_exp_b"
    lr_mult: 2
    decay_mult: 0
  }
  inner_product_param {
    num_output: 7
    weight_filler {
      type: "gaussian"
      std: 0.01
    }
    bias_filler {
      type: "constant"
      value: 0
    }
  }
}
layer {
  name: "loss_contrastive"
  type: "ContrastiveLoss"
  bottom: "fc5"
  bottom: "fc5_p"
  bottom: "sim"
  top: "contrastive_loss_label"
  loss_weight: 1
  include {
    phase: TRAIN
  }
  contrastive_loss_param {
    margin: 1
  }
}
layer {
  name: "loss_contrastive_sub"
  type: "ContrastiveLoss"
  bottom: "fc5_sub"
  bottom: "fc5_p_sub"
  bottom: "subsim"
  top: "contrastive_loss_sub"
  loss_weight: 5
  include {
    phase: TRAIN
  }
  contrastive_loss_param {
    margin: 10
  }
}
layer {
  name: "loss_1"
  type: "SoftmaxWithLoss"
  bottom: "pred_new"
  bottom: "label1"
  top: "loss_1"
}
layer {
  name: "accuracy1"
  type: "Accuracy"
  bottom: "pred_new"
  bottom: "label1"
  top: "accuracy1"
  include {
    phase: TRAIN
  }
}
layer {
  name: "accuracy2"
  type: "Accuracy"
  bottom: "pred_new_p"
  bottom: "label2"
  top: "accuracy2"
  include {
    phase: TRAIN
  }
}
layer {
  name: "accuracy_exp"
  type: "Accuracy"
  bottom: "pred"
  bottom: "label1"
  top: "accuracy_exp"
}
layer {
  name: "accuracy_exp_p"
  type: "Accuracy"
  bottom: "pred_p"
  bottom: "label2"
  top: "accuracy_exp_p"
  include {
    phase: TRAIN
  }
}
layer {
  name: "loss_2"
  type: "SoftmaxWithLoss"
  bottom: "pred_new_p"
  bottom: "label2"
  top: "loss_2"
  loss_weight: 1
  include {
    phase: TRAIN
  }
}
layer {
  name: "loss_exp"
  type: "SoftmaxWithLoss"
  bottom: "pred"
  bottom: "label1"
  top: "loss_exp"
  loss_weight: 1
  include {
    phase: TRAIN
  }
}
layer {
  name: "loss_exp_p"
  type: "SoftmaxWithLoss"
  bottom: "pred_p"
  bottom: "label2"
  top: "loss_exp_p"
  loss_weight: 1
  include {
    phase: TRAIN
  }
}
I0612 10:23:57.666949  2978 layer_factory.hpp:77] Creating layer pair_data
I0612 10:23:57.667018  2978 net.cpp:91] Creating Layer pair_data
I0612 10:23:57.667038  2978 net.cpp:399] pair_data -> pair_data
I0612 10:23:57.667091  2978 net.cpp:399] pair_data -> labels
I0612 10:23:57.667773  2978 image_data_layer.cpp:40] Opening file examples/SFEW/data/siamese_bi_multi/Train/train
I0612 10:23:59.060588  2978 image_data_layer.cpp:70] Shuffling data
I0612 10:23:59.433908  2978 image_data_layer.cpp:75] A total of 376278 images.
I0612 10:23:59.453457  2978 image_data_layer.cpp:106] output data size: 64,2,48,48
I0612 10:23:59.458237  2978 net.cpp:141] Setting up pair_data
I0612 10:23:59.458276  2978 net.cpp:148] Top shape: 64 2 48 48 (294912)
I0612 10:23:59.458289  2978 net.cpp:148] Top shape: 64 4 (256)
I0612 10:23:59.458298  2978 net.cpp:156] Memory required for data: 1180672
I0612 10:23:59.458469  2978 layer_factory.hpp:77] Creating layer slice_pair
I0612 10:23:59.458698  2978 net.cpp:91] Creating Layer slice_pair
I0612 10:23:59.458724  2978 net.cpp:425] slice_pair <- pair_data
I0612 10:23:59.458752  2978 net.cpp:399] slice_pair -> data
I0612 10:23:59.458787  2978 net.cpp:399] slice_pair -> data_p
I0612 10:23:59.459156  2978 net.cpp:141] Setting up slice_pair
I0612 10:23:59.459189  2978 net.cpp:148] Top shape: 64 1 48 48 (147456)
I0612 10:23:59.459202  2978 net.cpp:148] Top shape: 64 1 48 48 (147456)
I0612 10:23:59.459210  2978 net.cpp:156] Memory required for data: 2360320
I0612 10:23:59.459220  2978 layer_factory.hpp:77] Creating layer slice_tri
I0612 10:23:59.459246  2978 net.cpp:91] Creating Layer slice_tri
I0612 10:23:59.459256  2978 net.cpp:425] slice_tri <- labels
I0612 10:23:59.459272  2978 net.cpp:399] slice_tri -> sim
I0612 10:23:59.459290  2978 net.cpp:399] slice_tri -> label1
I0612 10:23:59.459306  2978 net.cpp:399] slice_tri -> label2
I0612 10:23:59.459321  2978 net.cpp:399] slice_tri -> subsim
I0612 10:23:59.459434  2978 net.cpp:141] Setting up slice_tri
I0612 10:23:59.459473  2978 net.cpp:148] Top shape: 64 1 (64)
I0612 10:23:59.459483  2978 net.cpp:148] Top shape: 64 1 (64)
I0612 10:23:59.459492  2978 net.cpp:148] Top shape: 64 1 (64)
I0612 10:23:59.459501  2978 net.cpp:148] Top shape: 64 1 (64)
I0612 10:23:59.459508  2978 net.cpp:156] Memory required for data: 2361344
I0612 10:23:59.459517  2978 layer_factory.hpp:77] Creating layer label1_slice_tri_1_split
I0612 10:23:59.459537  2978 net.cpp:91] Creating Layer label1_slice_tri_1_split
I0612 10:23:59.459547  2978 net.cpp:425] label1_slice_tri_1_split <- label1
I0612 10:23:59.459558  2978 net.cpp:399] label1_slice_tri_1_split -> label1_slice_tri_1_split_0
I0612 10:23:59.459573  2978 net.cpp:399] label1_slice_tri_1_split -> label1_slice_tri_1_split_1
I0612 10:23:59.459586  2978 net.cpp:399] label1_slice_tri_1_split -> label1_slice_tri_1_split_2
I0612 10:23:59.459599  2978 net.cpp:399] label1_slice_tri_1_split -> label1_slice_tri_1_split_3
I0612 10:23:59.459705  2978 net.cpp:141] Setting up label1_slice_tri_1_split
I0612 10:23:59.459723  2978 net.cpp:148] Top shape: 64 1 (64)
I0612 10:23:59.459733  2978 net.cpp:148] Top shape: 64 1 (64)
I0612 10:23:59.459741  2978 net.cpp:148] Top shape: 64 1 (64)
I0612 10:23:59.459750  2978 net.cpp:148] Top shape: 64 1 (64)
I0612 10:23:59.459758  2978 net.cpp:156] Memory required for data: 2362368
I0612 10:23:59.459765  2978 layer_factory.hpp:77] Creating layer label2_slice_tri_2_split
I0612 10:23:59.459782  2978 net.cpp:91] Creating Layer label2_slice_tri_2_split
I0612 10:23:59.459791  2978 net.cpp:425] label2_slice_tri_2_split <- label2
I0612 10:23:59.459802  2978 net.cpp:399] label2_slice_tri_2_split -> label2_slice_tri_2_split_0
I0612 10:23:59.459815  2978 net.cpp:399] label2_slice_tri_2_split -> label2_slice_tri_2_split_1
I0612 10:23:59.459828  2978 net.cpp:399] label2_slice_tri_2_split -> label2_slice_tri_2_split_2
I0612 10:23:59.459841  2978 net.cpp:399] label2_slice_tri_2_split -> label2_slice_tri_2_split_3
I0612 10:23:59.459920  2978 net.cpp:141] Setting up label2_slice_tri_2_split
I0612 10:23:59.459934  2978 net.cpp:148] Top shape: 64 1 (64)
I0612 10:23:59.459944  2978 net.cpp:148] Top shape: 64 1 (64)
I0612 10:23:59.459952  2978 net.cpp:148] Top shape: 64 1 (64)
I0612 10:23:59.459961  2978 net.cpp:148] Top shape: 64 1 (64)
I0612 10:23:59.459969  2978 net.cpp:156] Memory required for data: 2363392
I0612 10:23:59.459977  2978 layer_factory.hpp:77] Creating layer conv11
I0612 10:23:59.460038  2978 net.cpp:91] Creating Layer conv11
I0612 10:23:59.460052  2978 net.cpp:425] conv11 <- data
I0612 10:23:59.460065  2978 net.cpp:399] conv11 -> conv11
I0612 10:23:59.818836  2978 net.cpp:141] Setting up conv11
I0612 10:23:59.818922  2978 net.cpp:148] Top shape: 64 64 24 24 (2359296)
I0612 10:23:59.818933  2978 net.cpp:156] Memory required for data: 11800576
I0612 10:23:59.818965  2978 layer_factory.hpp:77] Creating layer relu11
I0612 10:23:59.818986  2978 net.cpp:91] Creating Layer relu11
I0612 10:23:59.818997  2978 net.cpp:425] relu11 <- conv11
I0612 10:23:59.819010  2978 net.cpp:386] relu11 -> conv11 (in-place)
I0612 10:23:59.820091  2978 net.cpp:141] Setting up relu11
I0612 10:23:59.820116  2978 net.cpp:148] Top shape: 64 64 24 24 (2359296)
I0612 10:23:59.820124  2978 net.cpp:156] Memory required for data: 21237760
I0612 10:23:59.820144  2978 layer_factory.hpp:77] Creating layer bn11
I0612 10:23:59.820171  2978 net.cpp:91] Creating Layer bn11
I0612 10:23:59.820181  2978 net.cpp:425] bn11 <- conv11
I0612 10:23:59.820194  2978 net.cpp:399] bn11 -> bn11
I0612 10:23:59.820482  2978 net.cpp:141] Setting up bn11
I0612 10:23:59.820499  2978 net.cpp:148] Top shape: 64 64 24 24 (2359296)
I0612 10:23:59.820508  2978 net.cpp:156] Memory required for data: 30674944
I0612 10:23:59.820529  2978 layer_factory.hpp:77] Creating layer pool1
I0612 10:23:59.820549  2978 net.cpp:91] Creating Layer pool1
I0612 10:23:59.820559  2978 net.cpp:425] pool1 <- bn11
I0612 10:23:59.820574  2978 net.cpp:399] pool1 -> pool1
I0612 10:23:59.820649  2978 net.cpp:141] Setting up pool1
I0612 10:23:59.820684  2978 net.cpp:148] Top shape: 64 64 13 13 (692224)
I0612 10:23:59.820714  2978 net.cpp:156] Memory required for data: 33443840
I0612 10:23:59.820724  2978 layer_factory.hpp:77] Creating layer conv21
I0612 10:23:59.820749  2978 net.cpp:91] Creating Layer conv21
I0612 10:23:59.820758  2978 net.cpp:425] conv21 <- pool1
I0612 10:23:59.820771  2978 net.cpp:399] conv21 -> conv21
I0612 10:23:59.823915  2978 net.cpp:141] Setting up conv21
I0612 10:23:59.823940  2978 net.cpp:148] Top shape: 64 128 13 13 (1384448)
I0612 10:23:59.823950  2978 net.cpp:156] Memory required for data: 38981632
I0612 10:23:59.823962  2978 layer_factory.hpp:77] Creating layer relu21
I0612 10:23:59.823983  2978 net.cpp:91] Creating Layer relu21
I0612 10:23:59.823992  2978 net.cpp:425] relu21 <- conv21
I0612 10:23:59.824004  2978 net.cpp:386] relu21 -> conv21 (in-place)
I0612 10:23:59.824158  2978 net.cpp:141] Setting up relu21
I0612 10:23:59.824177  2978 net.cpp:148] Top shape: 64 128 13 13 (1384448)
I0612 10:23:59.824184  2978 net.cpp:156] Memory required for data: 44519424
I0612 10:23:59.824203  2978 layer_factory.hpp:77] Creating layer bn21
I0612 10:23:59.824220  2978 net.cpp:91] Creating Layer bn21
I0612 10:23:59.824229  2978 net.cpp:425] bn21 <- conv21
I0612 10:23:59.824244  2978 net.cpp:399] bn21 -> bn21
I0612 10:23:59.824530  2978 net.cpp:141] Setting up bn21
I0612 10:23:59.824548  2978 net.cpp:148] Top shape: 64 128 13 13 (1384448)
I0612 10:23:59.824554  2978 net.cpp:156] Memory required for data: 50057216
I0612 10:23:59.824570  2978 layer_factory.hpp:77] Creating layer pool2
I0612 10:23:59.824584  2978 net.cpp:91] Creating Layer pool2
I0612 10:23:59.824591  2978 net.cpp:425] pool2 <- bn21
I0612 10:23:59.824606  2978 net.cpp:399] pool2 -> pool2
I0612 10:23:59.824666  2978 net.cpp:141] Setting up pool2
I0612 10:23:59.824681  2978 net.cpp:148] Top shape: 64 128 7 7 (401408)
I0612 10:23:59.824688  2978 net.cpp:156] Memory required for data: 51662848
I0612 10:23:59.824697  2978 layer_factory.hpp:77] Creating layer conv31
I0612 10:23:59.824717  2978 net.cpp:91] Creating Layer conv31
I0612 10:23:59.824726  2978 net.cpp:425] conv31 <- pool2
I0612 10:23:59.824740  2978 net.cpp:399] conv31 -> conv31
I0612 10:23:59.827581  2978 net.cpp:141] Setting up conv31
I0612 10:23:59.827628  2978 net.cpp:148] Top shape: 64 128 7 7 (401408)
I0612 10:23:59.827641  2978 net.cpp:156] Memory required for data: 53268480
I0612 10:23:59.827654  2978 layer_factory.hpp:77] Creating layer relu31
I0612 10:23:59.827669  2978 net.cpp:91] Creating Layer relu31
I0612 10:23:59.827678  2978 net.cpp:425] relu31 <- conv31
I0612 10:23:59.827689  2978 net.cpp:386] relu31 -> conv31 (in-place)
I0612 10:23:59.828660  2978 net.cpp:141] Setting up relu31
I0612 10:23:59.828680  2978 net.cpp:148] Top shape: 64 128 7 7 (401408)
I0612 10:23:59.828688  2978 net.cpp:156] Memory required for data: 54874112
I0612 10:23:59.828701  2978 layer_factory.hpp:77] Creating layer bn31
I0612 10:23:59.828718  2978 net.cpp:91] Creating Layer bn31
I0612 10:23:59.828728  2978 net.cpp:425] bn31 <- conv31
I0612 10:23:59.828740  2978 net.cpp:399] bn31 -> bn31
I0612 10:23:59.829033  2978 net.cpp:141] Setting up bn31
I0612 10:23:59.829051  2978 net.cpp:148] Top shape: 64 128 7 7 (401408)
I0612 10:23:59.829058  2978 net.cpp:156] Memory required for data: 56479744
I0612 10:23:59.829077  2978 layer_factory.hpp:77] Creating layer fc4
I0612 10:23:59.829100  2978 net.cpp:91] Creating Layer fc4
I0612 10:23:59.829110  2978 net.cpp:425] fc4 <- bn31
I0612 10:23:59.829125  2978 net.cpp:399] fc4 -> fc4
I0612 10:23:59.923588  2978 net.cpp:141] Setting up fc4
I0612 10:23:59.923679  2978 net.cpp:148] Top shape: 64 1024 (65536)
I0612 10:23:59.923691  2978 net.cpp:156] Memory required for data: 56741888
I0612 10:23:59.923712  2978 layer_factory.hpp:77] Creating layer relu4
I0612 10:23:59.923733  2978 net.cpp:91] Creating Layer relu4
I0612 10:23:59.923744  2978 net.cpp:425] relu4 <- fc4
I0612 10:23:59.923758  2978 net.cpp:386] relu4 -> fc4 (in-place)
I0612 10:23:59.923903  2978 net.cpp:141] Setting up relu4
I0612 10:23:59.923940  2978 net.cpp:148] Top shape: 64 1024 (65536)
I0612 10:23:59.923967  2978 net.cpp:156] Memory required for data: 57004032
I0612 10:23:59.923984  2978 layer_factory.hpp:77] Creating layer drop4
I0612 10:23:59.924001  2978 net.cpp:91] Creating Layer drop4
I0612 10:23:59.924010  2978 net.cpp:425] drop4 <- fc4
I0612 10:23:59.924022  2978 net.cpp:386] drop4 -> fc4 (in-place)
I0612 10:23:59.924078  2978 net.cpp:141] Setting up drop4
I0612 10:23:59.924093  2978 net.cpp:148] Top shape: 64 1024 (65536)
I0612 10:23:59.924100  2978 net.cpp:156] Memory required for data: 57266176
I0612 10:23:59.924108  2978 layer_factory.hpp:77] Creating layer fc4_drop4_0_split
I0612 10:23:59.924120  2978 net.cpp:91] Creating Layer fc4_drop4_0_split
I0612 10:23:59.924129  2978 net.cpp:425] fc4_drop4_0_split <- fc4
I0612 10:23:59.924139  2978 net.cpp:399] fc4_drop4_0_split -> fc4_drop4_0_split_0
I0612 10:23:59.924154  2978 net.cpp:399] fc4_drop4_0_split -> fc4_drop4_0_split_1
I0612 10:23:59.924216  2978 net.cpp:141] Setting up fc4_drop4_0_split
I0612 10:23:59.924229  2978 net.cpp:148] Top shape: 64 1024 (65536)
I0612 10:23:59.924238  2978 net.cpp:148] Top shape: 64 1024 (65536)
I0612 10:23:59.924245  2978 net.cpp:156] Memory required for data: 57790464
I0612 10:23:59.924253  2978 layer_factory.hpp:77] Creating layer fc5
I0612 10:23:59.924269  2978 net.cpp:91] Creating Layer fc5
I0612 10:23:59.924278  2978 net.cpp:425] fc5 <- fc4_drop4_0_split_0
I0612 10:23:59.924293  2978 net.cpp:399] fc5 -> fc5
I0612 10:23:59.982195  2978 net.cpp:141] Setting up fc5
I0612 10:23:59.982271  2978 net.cpp:148] Top shape: 64 1024 (65536)
I0612 10:23:59.982282  2978 net.cpp:156] Memory required for data: 58052608
I0612 10:23:59.982302  2978 layer_factory.hpp:77] Creating layer relu5
I0612 10:23:59.982321  2978 net.cpp:91] Creating Layer relu5
I0612 10:23:59.982331  2978 net.cpp:425] relu5 <- fc5
I0612 10:23:59.982345  2978 net.cpp:386] relu5 -> fc5 (in-place)
I0612 10:23:59.982491  2978 net.cpp:141] Setting up relu5
I0612 10:23:59.982506  2978 net.cpp:148] Top shape: 64 1024 (65536)
I0612 10:23:59.982513  2978 net.cpp:156] Memory required for data: 58314752
I0612 10:23:59.982528  2978 layer_factory.hpp:77] Creating layer drop5
I0612 10:23:59.982547  2978 net.cpp:91] Creating Layer drop5
I0612 10:23:59.982556  2978 net.cpp:425] drop5 <- fc5
I0612 10:23:59.982568  2978 net.cpp:386] drop5 -> fc5 (in-place)
I0612 10:23:59.982615  2978 net.cpp:141] Setting up drop5
I0612 10:23:59.982630  2978 net.cpp:148] Top shape: 64 1024 (65536)
I0612 10:23:59.982637  2978 net.cpp:156] Memory required for data: 58576896
I0612 10:23:59.982645  2978 layer_factory.hpp:77] Creating layer fc5_drop5_0_split
I0612 10:23:59.982658  2978 net.cpp:91] Creating Layer fc5_drop5_0_split
I0612 10:23:59.982666  2978 net.cpp:425] fc5_drop5_0_split <- fc5
I0612 10:23:59.982678  2978 net.cpp:399] fc5_drop5_0_split -> fc5_drop5_0_split_0
I0612 10:23:59.982692  2978 net.cpp:399] fc5_drop5_0_split -> fc5_drop5_0_split_1
I0612 10:23:59.982707  2978 net.cpp:399] fc5_drop5_0_split -> fc5_drop5_0_split_2
I0612 10:23:59.982790  2978 net.cpp:141] Setting up fc5_drop5_0_split
I0612 10:23:59.982805  2978 net.cpp:148] Top shape: 64 1024 (65536)
I0612 10:23:59.982815  2978 net.cpp:148] Top shape: 64 1024 (65536)
I0612 10:23:59.982823  2978 net.cpp:148] Top shape: 64 1024 (65536)
I0612 10:23:59.982831  2978 net.cpp:156] Memory required for data: 59363328
I0612 10:23:59.982838  2978 layer_factory.hpp:77] Creating layer fc5_sub
I0612 10:23:59.982854  2978 net.cpp:91] Creating Layer fc5_sub
I0612 10:23:59.982863  2978 net.cpp:425] fc5_sub <- fc4_drop4_0_split_1
I0612 10:23:59.982877  2978 net.cpp:399] fc5_sub -> fc5_sub
I0612 10:24:00.040140  2978 net.cpp:141] Setting up fc5_sub
I0612 10:24:00.040206  2978 net.cpp:148] Top shape: 64 1024 (65536)
I0612 10:24:00.040216  2978 net.cpp:156] Memory required for data: 59625472
I0612 10:24:00.040237  2978 layer_factory.hpp:77] Creating layer relu5_sub
I0612 10:24:00.040259  2978 net.cpp:91] Creating Layer relu5_sub
I0612 10:24:00.040271  2978 net.cpp:425] relu5_sub <- fc5_sub
I0612 10:24:00.040323  2978 net.cpp:386] relu5_sub -> fc5_sub (in-place)
I0612 10:24:00.040469  2978 net.cpp:141] Setting up relu5_sub
I0612 10:24:00.040485  2978 net.cpp:148] Top shape: 64 1024 (65536)
I0612 10:24:00.040493  2978 net.cpp:156] Memory required for data: 59887616
I0612 10:24:00.040504  2978 layer_factory.hpp:77] Creating layer drop5_sub
I0612 10:24:00.040525  2978 net.cpp:91] Creating Layer drop5_sub
I0612 10:24:00.040535  2978 net.cpp:425] drop5_sub <- fc5_sub
I0612 10:24:00.040547  2978 net.cpp:386] drop5_sub -> fc5_sub (in-place)
I0612 10:24:00.040591  2978 net.cpp:141] Setting up drop5_sub
I0612 10:24:00.040606  2978 net.cpp:148] Top shape: 64 1024 (65536)
I0612 10:24:00.040613  2978 net.cpp:156] Memory required for data: 60149760
I0612 10:24:00.040621  2978 layer_factory.hpp:77] Creating layer fc5_sub_drop5_sub_0_split
I0612 10:24:00.040634  2978 net.cpp:91] Creating Layer fc5_sub_drop5_sub_0_split
I0612 10:24:00.040642  2978 net.cpp:425] fc5_sub_drop5_sub_0_split <- fc5_sub
I0612 10:24:00.040653  2978 net.cpp:399] fc5_sub_drop5_sub_0_split -> fc5_sub_drop5_sub_0_split_0
I0612 10:24:00.040688  2978 net.cpp:399] fc5_sub_drop5_sub_0_split -> fc5_sub_drop5_sub_0_split_1
I0612 10:24:00.040755  2978 net.cpp:141] Setting up fc5_sub_drop5_sub_0_split
I0612 10:24:00.040771  2978 net.cpp:148] Top shape: 64 1024 (65536)
I0612 10:24:00.040779  2978 net.cpp:148] Top shape: 64 1024 (65536)
I0612 10:24:00.040787  2978 net.cpp:156] Memory required for data: 60674048
I0612 10:24:00.040796  2978 layer_factory.hpp:77] Creating layer concat
I0612 10:24:00.040812  2978 net.cpp:91] Creating Layer concat
I0612 10:24:00.040820  2978 net.cpp:425] concat <- fc5_drop5_0_split_0
I0612 10:24:00.040833  2978 net.cpp:425] concat <- fc5_sub_drop5_sub_0_split_0
I0612 10:24:00.040845  2978 net.cpp:399] concat -> features
I0612 10:24:00.040889  2978 net.cpp:141] Setting up concat
I0612 10:24:00.040907  2978 net.cpp:148] Top shape: 64 2048 (131072)
I0612 10:24:00.040915  2978 net.cpp:156] Memory required for data: 61198336
I0612 10:24:00.040922  2978 layer_factory.hpp:77] Creating layer pred_new
I0612 10:24:00.040941  2978 net.cpp:91] Creating Layer pred_new
I0612 10:24:00.040951  2978 net.cpp:425] pred_new <- features
I0612 10:24:00.040963  2978 net.cpp:399] pred_new -> pred_new
I0612 10:24:00.041817  2978 net.cpp:141] Setting up pred_new
I0612 10:24:00.041836  2978 net.cpp:148] Top shape: 64 7 (448)
I0612 10:24:00.041843  2978 net.cpp:156] Memory required for data: 61200128
I0612 10:24:00.041856  2978 layer_factory.hpp:77] Creating layer pred_new_pred_new_0_split
I0612 10:24:00.041867  2978 net.cpp:91] Creating Layer pred_new_pred_new_0_split
I0612 10:24:00.041875  2978 net.cpp:425] pred_new_pred_new_0_split <- pred_new
I0612 10:24:00.041887  2978 net.cpp:399] pred_new_pred_new_0_split -> pred_new_pred_new_0_split_0
I0612 10:24:00.041899  2978 net.cpp:399] pred_new_pred_new_0_split -> pred_new_pred_new_0_split_1
I0612 10:24:00.041971  2978 net.cpp:141] Setting up pred_new_pred_new_0_split
I0612 10:24:00.041986  2978 net.cpp:148] Top shape: 64 7 (448)
I0612 10:24:00.041996  2978 net.cpp:148] Top shape: 64 7 (448)
I0612 10:24:00.042003  2978 net.cpp:156] Memory required for data: 61203712
I0612 10:24:00.042011  2978 layer_factory.hpp:77] Creating layer conv11_p
I0612 10:24:00.042032  2978 net.cpp:91] Creating Layer conv11_p
I0612 10:24:00.042042  2978 net.cpp:425] conv11_p <- data_p
I0612 10:24:00.042058  2978 net.cpp:399] conv11_p -> conv11_p
I0612 10:24:00.059636  2978 net.cpp:141] Setting up conv11_p
I0612 10:24:00.059720  2978 net.cpp:148] Top shape: 64 64 24 24 (2359296)
I0612 10:24:00.059731  2978 net.cpp:156] Memory required for data: 70640896
I0612 10:24:00.059744  2978 net.cpp:484] Sharing parameters 'conv11_w' owned by layer 'conv11', param index 0
I0612 10:24:00.059758  2978 net.cpp:484] Sharing parameters 'conv11_b' owned by layer 'conv11', param index 1
I0612 10:24:00.059769  2978 layer_factory.hpp:77] Creating layer relu11_p
I0612 10:24:00.059803  2978 net.cpp:91] Creating Layer relu11_p
I0612 10:24:00.059834  2978 net.cpp:425] relu11_p <- conv11_p
I0612 10:24:00.059871  2978 net.cpp:386] relu11_p -> conv11_p (in-place)
I0612 10:24:00.060081  2978 net.cpp:141] Setting up relu11_p
I0612 10:24:00.060101  2978 net.cpp:148] Top shape: 64 64 24 24 (2359296)
I0612 10:24:00.060107  2978 net.cpp:156] Memory required for data: 80078080
I0612 10:24:00.060122  2978 layer_factory.hpp:77] Creating layer bn11_p
I0612 10:24:00.060137  2978 net.cpp:91] Creating Layer bn11_p
I0612 10:24:00.060147  2978 net.cpp:425] bn11_p <- conv11_p
I0612 10:24:00.060161  2978 net.cpp:399] bn11_p -> bn11_p
I0612 10:24:00.060474  2978 net.cpp:141] Setting up bn11_p
I0612 10:24:00.060492  2978 net.cpp:148] Top shape: 64 64 24 24 (2359296)
I0612 10:24:00.060499  2978 net.cpp:156] Memory required for data: 89515264
I0612 10:24:00.060523  2978 layer_factory.hpp:77] Creating layer pool1_p
I0612 10:24:00.060540  2978 net.cpp:91] Creating Layer pool1_p
I0612 10:24:00.060549  2978 net.cpp:425] pool1_p <- bn11_p
I0612 10:24:00.060564  2978 net.cpp:399] pool1_p -> pool1_p
I0612 10:24:00.060628  2978 net.cpp:141] Setting up pool1_p
I0612 10:24:00.060643  2978 net.cpp:148] Top shape: 64 64 13 13 (692224)
I0612 10:24:00.060650  2978 net.cpp:156] Memory required for data: 92284160
I0612 10:24:00.060658  2978 layer_factory.hpp:77] Creating layer conv21_p
I0612 10:24:00.060688  2978 net.cpp:91] Creating Layer conv21_p
I0612 10:24:00.060698  2978 net.cpp:425] conv21_p <- pool1_p
I0612 10:24:00.060710  2978 net.cpp:399] conv21_p -> conv21_p
I0612 10:24:00.063860  2978 net.cpp:141] Setting up conv21_p
I0612 10:24:00.063886  2978 net.cpp:148] Top shape: 64 128 13 13 (1384448)
I0612 10:24:00.063895  2978 net.cpp:156] Memory required for data: 97821952
I0612 10:24:00.063905  2978 net.cpp:484] Sharing parameters 'conv21_w' owned by layer 'conv21', param index 0
I0612 10:24:00.063915  2978 net.cpp:484] Sharing parameters 'conv21_b' owned by layer 'conv21', param index 1
I0612 10:24:00.063925  2978 layer_factory.hpp:77] Creating layer relu21_p
I0612 10:24:00.063938  2978 net.cpp:91] Creating Layer relu21_p
I0612 10:24:00.063947  2978 net.cpp:425] relu21_p <- conv21_p
I0612 10:24:00.063958  2978 net.cpp:386] relu21_p -> conv21_p (in-place)
I0612 10:24:00.064126  2978 net.cpp:141] Setting up relu21_p
I0612 10:24:00.064142  2978 net.cpp:148] Top shape: 64 128 13 13 (1384448)
I0612 10:24:00.064151  2978 net.cpp:156] Memory required for data: 103359744
I0612 10:24:00.064162  2978 layer_factory.hpp:77] Creating layer bn21_p
I0612 10:24:00.064179  2978 net.cpp:91] Creating Layer bn21_p
I0612 10:24:00.064189  2978 net.cpp:425] bn21_p <- conv21_p
I0612 10:24:00.064201  2978 net.cpp:399] bn21_p -> bn21_p
I0612 10:24:00.064496  2978 net.cpp:141] Setting up bn21_p
I0612 10:24:00.064512  2978 net.cpp:148] Top shape: 64 128 13 13 (1384448)
I0612 10:24:00.064519  2978 net.cpp:156] Memory required for data: 108897536
I0612 10:24:00.064534  2978 layer_factory.hpp:77] Creating layer pool2_p
I0612 10:24:00.064548  2978 net.cpp:91] Creating Layer pool2_p
I0612 10:24:00.064556  2978 net.cpp:425] pool2_p <- bn21_p
I0612 10:24:00.064568  2978 net.cpp:399] pool2_p -> pool2_p
I0612 10:24:00.064632  2978 net.cpp:141] Setting up pool2_p
I0612 10:24:00.064647  2978 net.cpp:148] Top shape: 64 128 7 7 (401408)
I0612 10:24:00.064654  2978 net.cpp:156] Memory required for data: 110503168
I0612 10:24:00.064662  2978 layer_factory.hpp:77] Creating layer conv31_p
I0612 10:24:00.064679  2978 net.cpp:91] Creating Layer conv31_p
I0612 10:24:00.064689  2978 net.cpp:425] conv31_p <- pool2_p
I0612 10:24:00.064703  2978 net.cpp:399] conv31_p -> conv31_p
I0612 10:24:00.067719  2978 net.cpp:141] Setting up conv31_p
I0612 10:24:00.067744  2978 net.cpp:148] Top shape: 64 128 7 7 (401408)
I0612 10:24:00.067751  2978 net.cpp:156] Memory required for data: 112108800
I0612 10:24:00.067762  2978 net.cpp:484] Sharing parameters 'conv31_w' owned by layer 'conv31', param index 0
I0612 10:24:00.067772  2978 net.cpp:484] Sharing parameters 'conv31_b' owned by layer 'conv31', param index 1
I0612 10:24:00.067783  2978 layer_factory.hpp:77] Creating layer relu31_p
I0612 10:24:00.067814  2978 net.cpp:91] Creating Layer relu31_p
I0612 10:24:00.067824  2978 net.cpp:425] relu31_p <- conv31_p
I0612 10:24:00.067836  2978 net.cpp:386] relu31_p -> conv31_p (in-place)
I0612 10:24:00.067986  2978 net.cpp:141] Setting up relu31_p
I0612 10:24:00.068002  2978 net.cpp:148] Top shape: 64 128 7 7 (401408)
I0612 10:24:00.068009  2978 net.cpp:156] Memory required for data: 113714432
I0612 10:24:00.068022  2978 layer_factory.hpp:77] Creating layer bn31_p
I0612 10:24:00.068042  2978 net.cpp:91] Creating Layer bn31_p
I0612 10:24:00.068051  2978 net.cpp:425] bn31_p <- conv31_p
I0612 10:24:00.068064  2978 net.cpp:399] bn31_p -> bn31_p
I0612 10:24:00.068367  2978 net.cpp:141] Setting up bn31_p
I0612 10:24:00.068383  2978 net.cpp:148] Top shape: 64 128 7 7 (401408)
I0612 10:24:00.068390  2978 net.cpp:156] Memory required for data: 115320064
I0612 10:24:00.068405  2978 layer_factory.hpp:77] Creating layer fc4_p
I0612 10:24:00.068421  2978 net.cpp:91] Creating Layer fc4_p
I0612 10:24:00.068430  2978 net.cpp:425] fc4_p <- bn31_p
I0612 10:24:00.068444  2978 net.cpp:399] fc4_p -> fc4_p
I0612 10:24:00.166851  2978 net.cpp:141] Setting up fc4_p
I0612 10:24:00.166920  2978 net.cpp:148] Top shape: 64 1024 (65536)
I0612 10:24:00.166930  2978 net.cpp:156] Memory required for data: 115582208
I0612 10:24:00.166944  2978 net.cpp:484] Sharing parameters 'fc4_w' owned by layer 'fc4', param index 0
I0612 10:24:00.166957  2978 net.cpp:484] Sharing parameters 'fc4_b' owned by layer 'fc4', param index 1
I0612 10:24:00.166966  2978 layer_factory.hpp:77] Creating layer relu4_p
I0612 10:24:00.166985  2978 net.cpp:91] Creating Layer relu4_p
I0612 10:24:00.166995  2978 net.cpp:425] relu4_p <- fc4_p
I0612 10:24:00.167008  2978 net.cpp:386] relu4_p -> fc4_p (in-place)
I0612 10:24:00.167158  2978 net.cpp:141] Setting up relu4_p
I0612 10:24:00.167174  2978 net.cpp:148] Top shape: 64 1024 (65536)
I0612 10:24:00.167182  2978 net.cpp:156] Memory required for data: 115844352
I0612 10:24:00.167197  2978 layer_factory.hpp:77] Creating layer drop4_p
I0612 10:24:00.167218  2978 net.cpp:91] Creating Layer drop4_p
I0612 10:24:00.167228  2978 net.cpp:425] drop4_p <- fc4_p
I0612 10:24:00.167239  2978 net.cpp:386] drop4_p -> fc4_p (in-place)
I0612 10:24:00.167289  2978 net.cpp:141] Setting up drop4_p
I0612 10:24:00.167304  2978 net.cpp:148] Top shape: 64 1024 (65536)
I0612 10:24:00.167311  2978 net.cpp:156] Memory required for data: 116106496
I0612 10:24:00.167320  2978 layer_factory.hpp:77] Creating layer fc4_p_drop4_p_0_split
I0612 10:24:00.167331  2978 net.cpp:91] Creating Layer fc4_p_drop4_p_0_split
I0612 10:24:00.167340  2978 net.cpp:425] fc4_p_drop4_p_0_split <- fc4_p
I0612 10:24:00.167351  2978 net.cpp:399] fc4_p_drop4_p_0_split -> fc4_p_drop4_p_0_split_0
I0612 10:24:00.167366  2978 net.cpp:399] fc4_p_drop4_p_0_split -> fc4_p_drop4_p_0_split_1
I0612 10:24:00.167428  2978 net.cpp:141] Setting up fc4_p_drop4_p_0_split
I0612 10:24:00.167441  2978 net.cpp:148] Top shape: 64 1024 (65536)
I0612 10:24:00.167451  2978 net.cpp:148] Top shape: 64 1024 (65536)
I0612 10:24:00.167459  2978 net.cpp:156] Memory required for data: 116630784
I0612 10:24:00.167466  2978 layer_factory.hpp:77] Creating layer fc5_p
I0612 10:24:00.167484  2978 net.cpp:91] Creating Layer fc5_p
I0612 10:24:00.167492  2978 net.cpp:425] fc5_p <- fc4_p_drop4_p_0_split_0
I0612 10:24:00.167506  2978 net.cpp:399] fc5_p -> fc5_p
I0612 10:24:00.184394  2978 net.cpp:141] Setting up fc5_p
I0612 10:24:00.184464  2978 net.cpp:148] Top shape: 64 1024 (65536)
I0612 10:24:00.184474  2978 net.cpp:156] Memory required for data: 116892928
I0612 10:24:00.184489  2978 net.cpp:484] Sharing parameters 'fc5_w' owned by layer 'fc5', param index 0
I0612 10:24:00.184501  2978 net.cpp:484] Sharing parameters 'fc5_b' owned by layer 'fc5', param index 1
I0612 10:24:00.184511  2978 layer_factory.hpp:77] Creating layer relu5_p
I0612 10:24:00.184528  2978 net.cpp:91] Creating Layer relu5_p
I0612 10:24:00.184540  2978 net.cpp:425] relu5_p <- fc5_p
I0612 10:24:00.184576  2978 net.cpp:386] relu5_p -> fc5_p (in-place)
I0612 10:24:00.184751  2978 net.cpp:141] Setting up relu5_p
I0612 10:24:00.184768  2978 net.cpp:148] Top shape: 64 1024 (65536)
I0612 10:24:00.184777  2978 net.cpp:156] Memory required for data: 117155072
I0612 10:24:00.184792  2978 layer_factory.hpp:77] Creating layer drop5_p
I0612 10:24:00.184814  2978 net.cpp:91] Creating Layer drop5_p
I0612 10:24:00.184824  2978 net.cpp:425] drop5_p <- fc5_p
I0612 10:24:00.184836  2978 net.cpp:386] drop5_p -> fc5_p (in-place)
I0612 10:24:00.184883  2978 net.cpp:141] Setting up drop5_p
I0612 10:24:00.184897  2978 net.cpp:148] Top shape: 64 1024 (65536)
I0612 10:24:00.184906  2978 net.cpp:156] Memory required for data: 117417216
I0612 10:24:00.184913  2978 layer_factory.hpp:77] Creating layer fc5_p_drop5_p_0_split
I0612 10:24:00.184927  2978 net.cpp:91] Creating Layer fc5_p_drop5_p_0_split
I0612 10:24:00.184936  2978 net.cpp:425] fc5_p_drop5_p_0_split <- fc5_p
I0612 10:24:00.184947  2978 net.cpp:399] fc5_p_drop5_p_0_split -> fc5_p_drop5_p_0_split_0
I0612 10:24:00.184962  2978 net.cpp:399] fc5_p_drop5_p_0_split -> fc5_p_drop5_p_0_split_1
I0612 10:24:00.184976  2978 net.cpp:399] fc5_p_drop5_p_0_split -> fc5_p_drop5_p_0_split_2
I0612 10:24:00.185056  2978 net.cpp:141] Setting up fc5_p_drop5_p_0_split
I0612 10:24:00.185071  2978 net.cpp:148] Top shape: 64 1024 (65536)
I0612 10:24:00.185081  2978 net.cpp:148] Top shape: 64 1024 (65536)
I0612 10:24:00.185089  2978 net.cpp:148] Top shape: 64 1024 (65536)
I0612 10:24:00.185096  2978 net.cpp:156] Memory required for data: 118203648
I0612 10:24:00.185104  2978 layer_factory.hpp:77] Creating layer fc5_p_sub
I0612 10:24:00.185123  2978 net.cpp:91] Creating Layer fc5_p_sub
I0612 10:24:00.185133  2978 net.cpp:425] fc5_p_sub <- fc4_p_drop4_p_0_split_1
I0612 10:24:00.185148  2978 net.cpp:399] fc5_p_sub -> fc5_p_sub
I0612 10:24:00.245863  2978 net.cpp:141] Setting up fc5_p_sub
I0612 10:24:00.245946  2978 net.cpp:148] Top shape: 64 1024 (65536)
I0612 10:24:00.245957  2978 net.cpp:156] Memory required for data: 118465792
I0612 10:24:00.245983  2978 net.cpp:484] Sharing parameters 'fc5_sub_w' owned by layer 'fc5_sub', param index 0
I0612 10:24:00.246001  2978 net.cpp:484] Sharing parameters 'fc5_sub_b' owned by layer 'fc5_sub', param index 1
I0612 10:24:00.246014  2978 layer_factory.hpp:77] Creating layer relu5_p_sub
I0612 10:24:00.246037  2978 net.cpp:91] Creating Layer relu5_p_sub
I0612 10:24:00.246054  2978 net.cpp:425] relu5_p_sub <- fc5_p_sub
I0612 10:24:00.246069  2978 net.cpp:386] relu5_p_sub -> fc5_p_sub (in-place)
I0612 10:24:00.246223  2978 net.cpp:141] Setting up relu5_p_sub
I0612 10:24:00.246240  2978 net.cpp:148] Top shape: 64 1024 (65536)
I0612 10:24:00.246248  2978 net.cpp:156] Memory required for data: 118727936
I0612 10:24:00.246261  2978 layer_factory.hpp:77] Creating layer drop5_p_sub
I0612 10:24:00.246281  2978 net.cpp:91] Creating Layer drop5_p_sub
I0612 10:24:00.246291  2978 net.cpp:425] drop5_p_sub <- fc5_p_sub
I0612 10:24:00.246305  2978 net.cpp:386] drop5_p_sub -> fc5_p_sub (in-place)
I0612 10:24:00.246352  2978 net.cpp:141] Setting up drop5_p_sub
I0612 10:24:00.246366  2978 net.cpp:148] Top shape: 64 1024 (65536)
I0612 10:24:00.246374  2978 net.cpp:156] Memory required for data: 118990080
I0612 10:24:00.246383  2978 layer_factory.hpp:77] Creating layer fc5_p_sub_drop5_p_sub_0_split
I0612 10:24:00.246399  2978 net.cpp:91] Creating Layer fc5_p_sub_drop5_p_sub_0_split
I0612 10:24:00.246408  2978 net.cpp:425] fc5_p_sub_drop5_p_sub_0_split <- fc5_p_sub
I0612 10:24:00.246589  2978 net.cpp:399] fc5_p_sub_drop5_p_sub_0_split -> fc5_p_sub_drop5_p_sub_0_split_0
I0612 10:24:00.246611  2978 net.cpp:399] fc5_p_sub_drop5_p_sub_0_split -> fc5_p_sub_drop5_p_sub_0_split_1
I0612 10:24:00.246681  2978 net.cpp:141] Setting up fc5_p_sub_drop5_p_sub_0_split
I0612 10:24:00.246696  2978 net.cpp:148] Top shape: 64 1024 (65536)
I0612 10:24:00.246706  2978 net.cpp:148] Top shape: 64 1024 (65536)
I0612 10:24:00.246714  2978 net.cpp:156] Memory required for data: 119514368
I0612 10:24:00.246722  2978 layer_factory.hpp:77] Creating layer concat_p
I0612 10:24:00.246778  2978 net.cpp:91] Creating Layer concat_p
I0612 10:24:00.246789  2978 net.cpp:425] concat_p <- fc5_p_drop5_p_0_split_0
I0612 10:24:00.246800  2978 net.cpp:425] concat_p <- fc5_p_sub_drop5_p_sub_0_split_0
I0612 10:24:00.246817  2978 net.cpp:399] concat_p -> features_p
I0612 10:24:00.246865  2978 net.cpp:141] Setting up concat_p
I0612 10:24:00.246879  2978 net.cpp:148] Top shape: 64 2048 (131072)
I0612 10:24:00.246886  2978 net.cpp:156] Memory required for data: 120038656
I0612 10:24:00.246896  2978 layer_factory.hpp:77] Creating layer pred_new_p
I0612 10:24:00.246915  2978 net.cpp:91] Creating Layer pred_new_p
I0612 10:24:00.246924  2978 net.cpp:425] pred_new_p <- features_p
I0612 10:24:00.246942  2978 net.cpp:399] pred_new_p -> pred_new_p
I0612 10:24:00.247913  2978 net.cpp:141] Setting up pred_new_p
I0612 10:24:00.247934  2978 net.cpp:148] Top shape: 64 7 (448)
I0612 10:24:00.247942  2978 net.cpp:156] Memory required for data: 120040448
I0612 10:24:00.247953  2978 net.cpp:484] Sharing parameters 'pred_w' owned by layer 'pred_new', param index 0
I0612 10:24:00.247967  2978 net.cpp:484] Sharing parameters 'pred_b' owned by layer 'pred_new', param index 1
I0612 10:24:00.247975  2978 layer_factory.hpp:77] Creating layer pred_new_p_pred_new_p_0_split
I0612 10:24:00.247987  2978 net.cpp:91] Creating Layer pred_new_p_pred_new_p_0_split
I0612 10:24:00.247995  2978 net.cpp:425] pred_new_p_pred_new_p_0_split <- pred_new_p
I0612 10:24:00.248008  2978 net.cpp:399] pred_new_p_pred_new_p_0_split -> pred_new_p_pred_new_p_0_split_0
I0612 10:24:00.248025  2978 net.cpp:399] pred_new_p_pred_new_p_0_split -> pred_new_p_pred_new_p_0_split_1
I0612 10:24:00.248095  2978 net.cpp:141] Setting up pred_new_p_pred_new_p_0_split
I0612 10:24:00.248109  2978 net.cpp:148] Top shape: 64 7 (448)
I0612 10:24:00.248118  2978 net.cpp:148] Top shape: 64 7 (448)
I0612 10:24:00.248126  2978 net.cpp:156] Memory required for data: 120044032
I0612 10:24:00.248133  2978 layer_factory.hpp:77] Creating layer pred
I0612 10:24:00.248149  2978 net.cpp:91] Creating Layer pred
I0612 10:24:00.248159  2978 net.cpp:425] pred <- fc5_drop5_0_split_1
I0612 10:24:00.248178  2978 net.cpp:399] pred -> pred
I0612 10:24:00.248679  2978 net.cpp:141] Setting up pred
I0612 10:24:00.248697  2978 net.cpp:148] Top shape: 64 7 (448)
I0612 10:24:00.248704  2978 net.cpp:156] Memory required for data: 120045824
I0612 10:24:00.248718  2978 layer_factory.hpp:77] Creating layer pred_pred_0_split
I0612 10:24:00.248731  2978 net.cpp:91] Creating Layer pred_pred_0_split
I0612 10:24:00.248740  2978 net.cpp:425] pred_pred_0_split <- pred
I0612 10:24:00.248751  2978 net.cpp:399] pred_pred_0_split -> pred_pred_0_split_0
I0612 10:24:00.248764  2978 net.cpp:399] pred_pred_0_split -> pred_pred_0_split_1
I0612 10:24:00.248828  2978 net.cpp:141] Setting up pred_pred_0_split
I0612 10:24:00.248847  2978 net.cpp:148] Top shape: 64 7 (448)
I0612 10:24:00.248855  2978 net.cpp:148] Top shape: 64 7 (448)
I0612 10:24:00.248863  2978 net.cpp:156] Memory required for data: 120049408
I0612 10:24:00.248870  2978 layer_factory.hpp:77] Creating layer pred_p
I0612 10:24:00.248888  2978 net.cpp:91] Creating Layer pred_p
I0612 10:24:00.248896  2978 net.cpp:425] pred_p <- fc5_p_drop5_p_0_split_1
I0612 10:24:00.248909  2978 net.cpp:399] pred_p -> pred_p
I0612 10:24:00.249420  2978 net.cpp:141] Setting up pred_p
I0612 10:24:00.249438  2978 net.cpp:148] Top shape: 64 7 (448)
I0612 10:24:00.249444  2978 net.cpp:156] Memory required for data: 120051200
I0612 10:24:00.249454  2978 net.cpp:484] Sharing parameters 'pred_exp_w' owned by layer 'pred', param index 0
I0612 10:24:00.249464  2978 net.cpp:484] Sharing parameters 'pred_exp_b' owned by layer 'pred', param index 1
I0612 10:24:00.249472  2978 layer_factory.hpp:77] Creating layer pred_p_pred_p_0_split
I0612 10:24:00.249483  2978 net.cpp:91] Creating Layer pred_p_pred_p_0_split
I0612 10:24:00.249491  2978 net.cpp:425] pred_p_pred_p_0_split <- pred_p
I0612 10:24:00.249505  2978 net.cpp:399] pred_p_pred_p_0_split -> pred_p_pred_p_0_split_0
I0612 10:24:00.249557  2978 net.cpp:399] pred_p_pred_p_0_split -> pred_p_pred_p_0_split_1
I0612 10:24:00.249639  2978 net.cpp:141] Setting up pred_p_pred_p_0_split
I0612 10:24:00.249655  2978 net.cpp:148] Top shape: 64 7 (448)
I0612 10:24:00.249665  2978 net.cpp:148] Top shape: 64 7 (448)
I0612 10:24:00.249671  2978 net.cpp:156] Memory required for data: 120054784
I0612 10:24:00.249680  2978 layer_factory.hpp:77] Creating layer loss_contrastive
I0612 10:24:00.249699  2978 net.cpp:91] Creating Layer loss_contrastive
I0612 10:24:00.249708  2978 net.cpp:425] loss_contrastive <- fc5_drop5_0_split_2
I0612 10:24:00.249719  2978 net.cpp:425] loss_contrastive <- fc5_p_drop5_p_0_split_2
…
I0612 10:24:00.271092  2978 net.cpp:313] The NetState phase (1) differed from the phase (0) specified by a rule in layer loss_exp_p
I0612 10:24:00.271965  2978 net.cpp:49] Initializing net from parameters: 
name: "SiameseNet"
state {
  phase: TEST
}
layer {
  name: "data_p"
  type: "ImageData"
  top: "data_p"
  top: "label2"
  include {
    phase: TEST
  }
  transform_param {
    crop_size: 48
  }
  image_data_param {
    source: "/home/zibo/Data/Database/SFEW/Exp_multi/Train/train"
    batch_size: 1230
    shuffle: false
    new_height: 60
    new_width: 60
    is_color: false
    root_folder: "/home/zibo/Data/Database/SFEW_60x60/"
    image_num: 1
    label_dim: 1
  }
}
layer {
  name: "silence"
  type: "Silence"
  bottom: "data_p"
  include {
    phase: TEST
  }
}
layer {
  name: "silence"
  type: "Silence"
  bottom: "label2"
  include {
    phase: TEST
  }
}
layer {
  name: "data"
  type: "ImageData"
  top: "data"
  top: "label1"
  include {
    phase: TEST
  }
  transform_param {
    crop_size: 48
  }
  image_data_param {
    source: "/home/zibo/Data/Database/SFEW/Exp_multi/Train/test"
    batch_size: 410
    shuffle: false
    new_height: 60
    new_width: 60
    is_color: false
    root_folder: "/home/zibo/Data/Database/SFEW_60x60/"
    image_num: 1
    label_dim: 1
  }
}
layer {
  name: "conv11"
  type: "Convolution"
  bottom: "data"
  top: "conv11"
  param {
    name: "conv11_w"
    lr_mult: 1
    decay_mult: 1
  }
  param {
    name: "conv11_b"
    lr_mult: 2
    decay_mult: 0
  }
  convolution_param {
    num_output: 64
    pad: 1
    kernel_size: 3
    stride: 2
    weight_filler {
      type: "xavier"
    }
    bias_filler {
      type: "constant"
    }
  }
}
layer {
  name: "relu11"
  type: "PReLU"
  bottom: "conv11"
  top: "conv11"
}
layer {
  name: "bn11"
  type: "BatchNorm"
  bottom: "conv11"
  top: "bn11"
  param {
    lr_mult: 0
  }
  param {
    lr_mult: 0
  }
  param {
    lr_mult: 0
  }
}
layer {
  name: "pool1"
  type: "Pooling"
  bottom: "bn11"
  top: "pool1"
  pooling_param {
    pool: MAX
    kernel_size: 3
    stride: 2
    pad: 1
  }
}
layer {
  name: "conv21"
  type: "Convolution"
  bottom: "pool1"
  top: "conv21"
  param {
    name: "conv21_w"
    lr_mult: 1
    decay_mult: 1
  }
  param {
    name: "conv21_b"
    lr_mult: 2
    decay_mult: 0
  }
  convolution_param {
    num_output: 128
    pad: 1
    kernel_size: 3
    weight_filler {
      type: "xavier"
    }
    bias_filler {
      type: "constant"
    }
  }
}
layer {
  name: "relu21"
  type: "PReLU"
  bottom: "conv21"
  top: "conv21"
}
layer {
  name: "bn21"
  type: "BatchNorm"
  bottom: "conv21"
  top: "bn21"
  param {
    lr_mult: 0
  }
  param {
    lr_mult: 0
  }
  param {
    lr_mult: 0
  }
}
layer {
  name: "pool2"
  type: "Pooling"
  bottom: "bn21"
  top: "pool2"
  pooling_param {
    pool: MAX
    kernel_size: 3
    stride: 2
    pad: 1
  }
}
layer {
  name: "conv31"
  type: "Convolution"
  bottom: "pool2"
  top: "conv31"
  param {
    name: "conv31_w"
    lr_mult: 1
    decay_mult: 1
  }
  param {
    name: "conv31_b"
    lr_mult: 2
    decay_mult: 0
  }
  convolution_param {
    num_output: 128
    pad: 1
    kernel_size: 3
    weight_filler {
      type: "xavier"
    }
    bias_filler {
      type: "constant"
    }
  }
}
layer {
  name: "relu31"
  type: "PReLU"
  bottom: "conv31"
  top: "conv31"
}
layer {
  name: "bn31"
  type: "BatchNorm"
  bottom: "conv31"
  top: "bn31"
  param {
    lr_mult: 0
  }
  param {
    lr_mult: 0
  }
  param {
    lr_mult: 0
  }
}
layer {
  name: "fc4"
  type: "InnerProduct"
  bottom: "bn31"
  top: "fc4"
  param {
    name: "fc4_w"
    lr_mult: 1
    decay_mult: 1
  }
  param {
    name: "fc4_b"
    lr_mult: 2
    decay_mult: 0
  }
  inner_product_param {
    num_output: 1024
    weight_filler {
      type: "xavier"
    }
    bias_filler {
      type: "constant"
    }
  }
}
layer {
  name: "relu4"
  type: "PReLU"
  bottom: "fc4"
  top: "fc4"
}
layer {
  name: "fc5"
  type: "InnerProduct"
  bottom: "fc4"
  top: "fc5"
  param {
    name: "fc5_w"
    lr_mult: 1
    decay_mult: 1
  }
  param {
    name: "fc5_b"
    lr_mult: 2
    decay_mult: 0
  }
  inner_product_param {
    num_output: 1024
    weight_filler {
      type: "gaussian"
      std: 0.0001
    }
    bias_filler {
      type: "constant"
    }
  }
}
layer {
  name: "relu5"
  type: "PReLU"
  bottom: "fc5"
  top: "fc5"
}
layer {
  name: "fc5_sub"
  type: "InnerProduct"
  bottom: "fc4"
  top: "fc5_sub"
  param {
    name: "fc5_sub_w"
    lr_mult: 1
    decay_mult: 1
  }
  param {
    name: "fc5_sub_b"
    lr_mult: 2
    decay_mult: 0
  }
  inner_product_param {
    num_output: 1024
    weight_filler {
      type: "gaussian"
      std: 0.0001
    }
    bias_filler {
      type: "constant"
    }
  }
}
layer {
  name: "relu5_sub"
  type: "PReLU"
  bottom: "fc5_sub"
  top: "fc5_sub"
}
layer {
  name: "concat"
  type: "Concat"
  bottom: "fc5"
  bottom: "fc5_sub"
  top: "features"
}
layer {
  name: "pred_new"
  type: "InnerProduct"
  bottom: "features"
  top: "pred_new"
  param {
    name: "pred_w"
    lr_mult: 10
    decay_mult: 1
  }
  param {
    name: "pred_b"
    lr_mult: 20
    decay_mult: 0
  }
  inner_product_param {
    num_output: 7
    weight_filler {
      type: "gaussian"
      std: 0.01
    }
    bias_filler {
      type: "constant"
      value: 0
    }
  }
}
layer {
  name: "conv11_p"
  type: "Convolution"
  bottom: "data"
  top: "conv11_p"
  param {
    name: "conv11_w"
    lr_mult: 1
    decay_mult: 1
  }
  param {
    name: "conv11_b"
    lr_mult: 2
    decay_mult: 0
  }
  include {
    phase: TEST
  }
  convolution_param {
    num_output: 64
    pad: 1
    kernel_size: 3
    stride: 2
    weight_filler {
      type: "xavier"
    }
    bias_filler {
      type: "constant"
    }
  }
}
layer {
  name: "relu11_p"
  type: "PReLU"
  bottom: "conv11_p"
  top: "conv11_p"
}
layer {
  name: "bn11_p"
  type: "BatchNorm"
  bottom: "conv11_p"
  top: "bn11_p"
  param {
    lr_mult: 0
  }
  param {
    lr_mult: 0
  }
  param {
    lr_mult: 0
  }
}
layer {
  name: "pool1_p"
  type: "Pooling"
  bottom: "bn11_p"
  top: "pool1_p"
  pooling_param {
    pool: MAX
    kernel_size: 3
    stride: 2
    pad: 1
  }
}
layer {
  name: "conv21_p"
  type: "Convolution"
  bottom: "pool1_p"
  top: "conv21_p"
  param {
    name: "conv21_w"
    lr_mult: 1
    decay_mult: 1
  }
  param {
    name: "conv21_b"
    lr_mult: 2
    decay_mult: 0
  }
  convolution_param {
    num_output: 128
    pad: 1
    kernel_size: 3
    weight_filler {
      type: "xavier"
    }
    bias_filler {
      type: "constant"
    }
  }
}
layer {
  name: "relu21_p"
  type: "PReLU"
  bottom: "conv21_p"
  top: "conv21_p"
}
layer {
  name: "bn21_p"
  type: "BatchNorm"
  bottom: "conv21_p"
  top: "bn21_p"
  param {
    lr_mult: 0
  }
  param {
    lr_mult: 0
  }
  param {
    lr_mult: 0
  }
}
layer {
  name: "pool2_p"
  type: "Pooling"
  bottom: "bn21_p"
  top: "pool2_p"
  pooling_param {
    pool: MAX
    kernel_size: 3
    stride: 2
    pad: 1
  }
}
layer {
  name: "conv31_p"
  type: "Convolution"
  bottom: "pool2_p"
  top: "conv31_p"
  param {
    name: "conv31_w"
    lr_mult: 1
    decay_mult: 1
  }
  param {
    name: "conv31_b"
    lr_mult: 2
    decay_mult: 0
  }
  convolution_param {
    num_output: 128
    pad: 1
    kernel_size: 3
    weight_filler {
      type: "xavier"
    }
    bias_filler {
      type: "constant"
    }
  }
}
layer {
  name: "relu31_p"
  type: "PReLU"
  bottom: "conv31_p"
  top: "conv31_p"
}
layer {
  name: "bn31_p"
  type: "BatchNorm"
  bottom: "conv31_p"
  top: "bn31_p"
  param {
    lr_mult: 0
  }
  param {
    lr_mult: 0
  }
  param {
    lr_mult: 0
  }
}
layer {
  name: "fc4_p"
  type: "InnerProduct"
  bottom: "bn31_p"
  top: "fc4_p"
  param {
    name: "fc4_w"
    lr_mult: 1
    decay_mult: 1
  }
  param {
    name: "fc4_b"
    lr_mult: 2
    decay_mult: 0
  }
  inner_product_param {
    num_output: 1024
    weight_filler {
      type: "xavier"
    }
    bias_filler {
      type: "constant"
    }
  }
}
layer {
  name: "relu4_p"
  type: "PReLU"
  bottom: "fc4_p"
  top: "fc4_p"
}
layer {
  name: "fc5_p"
  type: "InnerProduct"
  bottom: "fc4_p"
  top: "fc5_p"
  param {
    name: "fc5_w"
    lr_mult: 1
    decay_mult: 1
  }
  param {
    name: "fc5_b"
    lr_mult: 2
    decay_mult: 0
  }
  inner_product_param {
    num_output: 1024
    weight_filler {
      type: "xavier"
    }
    bias_filler {
      type: "constant"
    }
  }
}
layer {
  name: "relu5_p"
  type: "PReLU"
  bottom: "fc5_p"
  top: "fc5_p"
}
layer {
  name: "fc5_p_sub"
  type: "InnerProduct"
  bottom: "fc4_p"
  top: "fc5_p_sub"
  param {
    name: "fc5_sub_w"
    lr_mult: 1
    decay_mult: 1
  }
  param {
    name: "fc5_sub_b"
    lr_mult: 2
    decay_mult: 0
  }
  inner_product_param {
    num_output: 1024
    weight_filler {
      type: "gaussian"
      std: 0.0001
    }
    bias_filler {
      type: "constant"
    }
  }
}
layer {
  name: "relu5_p_sub"
  type: "PReLU"
  bottom: "fc5_p_sub"
  top: "fc5_p_sub"
}
layer {
  name: "concat_p"
  type: "Concat"
  bottom: "fc5_p"
  bottom: "fc5_p_sub"
  top: "features_p"
}
layer {
  name: "pred_new_p"
  type: "InnerProduct"
  bottom: "features_p"
  top: "pred_new_p"
  param {
    name: "pred_w"
    lr_mult: 10
    decay_mult: 1
  }
  param {
    name: "pred_b"
    lr_mult: 20
    decay_mult: 0
  }
  inner_product_param {
    num_output: 7
    weight_filler {
      type: "gaussian"
      std: 0.01
    }
    bias_filler {
      type: "constant"
      value: 0
    }
  }
}
layer {
  name: "pred"
  type: "InnerProduct"
  bottom: "fc5"
  top: "pred"
  param {
    name: "pred_exp_w"
    lr_mult: 1
    decay_mult: 1
  }
  param {
    name: "pred_exp_b"
    lr_mult: 2
    decay_mult: 0
  }
  inner_product_param {
    num_output: 7
    weight_filler {
      type: "gaussian"
      std: 0.01
    }
    bias_filler {
      type: "constant"
      value: 0
    }
  }
}
layer {
  name: "pred_p"
  type: "InnerProduct"
  bottom: "fc5_p"
  top: "pred_p"
  param {
    name: "pred_exp_w"
    lr_mult: 1
    decay_mult: 1
  }
  param {
    name: "pred_exp_b"
    lr_mult: 2
    decay_mult: 0
  }
  inner_product_param {
    num_output: 7
    weight_filler {
      type: "gaussian"
      std: 0.01
    }
    bias_filler {
      type: "constant"
      value: 0
    }
  }
}
layer {
  name: "loss_1"
  type: "SoftmaxWithLoss"
  bottom: "pred_new"
  bottom: "label1"
  top: "loss_1"
}
layer {
  name: "score"
  type: "Score"
  bottom: "pred_new"
  bottom: "label1"
  top: "score"
  include {
    phase: TEST
  }
  score_param {
    dest_file: "examples/FER2013/results/results_test"
  }
}
layer {
  name: "accuracy_testing"
  type: "Accuracy"
  bottom: "pred_new"
  bottom: "label1"
  top: "accuracy_testing"
  include {
    phase: TEST
  }
}
layer {
  name: "accuracy_training"
  type: "Accuracy"
  bottom: "pred_new_p"
  bottom: "label1"
  top: "accuracy_training"
  include {
    phase: TEST
  }
}
layer {
  name: "accuracy_exp"
  type: "Accuracy"
  bottom: "pred"
  bottom: "label1"
  top: "accuracy_exp"
}
layer {
  name: "accuracy_exp_p"
  type: "Accuracy"
  bottom: "pred_p"
  bottom: "label1"
  top: "accuracy_exp_p"
  include {
    phase: TEST
  }
}
I0612 10:24:00.272502  2978 layer_factory.hpp:77] Creating layer data_p
I0612 10:24:00.272534  2978 net.cpp:91] Creating Layer data_p
I0612 10:24:00.272547  2978 net.cpp:399] data_p -> data_p
I0612 10:24:00.272567  2978 net.cpp:399] data_p -> label2
I0612 10:24:00.272586  2978 image_data_layer.cpp:40] Opening file /home/zibo/Data/Database/SFEW/Exp_multi/Train/train
I0612 10:24:00.274837  2978 image_data_layer.cpp:75] A total of 868 images.
I0612 10:24:00.275337  2978 image_data_layer.cpp:106] output data size: 1230,1,48,48
I0612 10:24:00.312865  2978 net.cpp:141] Setting up data_p
I0612 10:24:00.312928  2978 net.cpp:148] Top shape: 1230 1 48 48 (2833920)
I0612 10:24:00.312991  2978 net.cpp:148] Top shape: 1230 1 (1230)
I0612 10:24:00.313002  2978 net.cpp:156] Memory required for data: 11340600
I0612 10:24:00.313014  2978 layer_factory.hpp:77] Creating layer silence
I0612 10:24:00.313038  2978 net.cpp:91] Creating Layer silence
I0612 10:24:00.313048  2978 net.cpp:425] silence <- data_p
I0612 10:24:00.313068  2978 net.cpp:141] Setting up silence
I0612 10:24:00.313076  2978 net.cpp:156] Memory required for data: 11340600
I0612 10:24:00.313084  2978 layer_factory.hpp:77] Creating layer silence
I0612 10:24:00.313104  2978 net.cpp:91] Creating Layer silence
I0612 10:24:00.313113  2978 net.cpp:425] silence <- label2
I0612 10:24:00.313122  2978 net.cpp:141] Setting up silence
I0612 10:24:00.313130  2978 net.cpp:156] Memory required for data: 11340600
I0612 10:24:00.313138  2978 layer_factory.hpp:77] Creating layer data
I0612 10:24:00.313205  2978 net.cpp:91] Creating Layer data
I0612 10:24:00.313220  2978 net.cpp:399] data -> data
I0612 10:24:00.313246  2978 net.cpp:399] data -> label1
I0612 10:24:00.313261  2978 image_data_layer.cpp:40] Opening file /home/zibo/Data/Database/SFEW/Exp_multi/Train/test
I0612 10:24:00.314386  2978 image_data_layer.cpp:75] A total of 410 images.
I0612 10:24:00.314898  2978 image_data_layer.cpp:106] output data size: 410,1,48,48
I0612 10:24:00.328811  2978 net.cpp:141] Setting up data
I0612 10:24:00.328865  2978 net.cpp:148] Top shape: 410 1 48 48 (944640)
I0612 10:24:00.328876  2978 net.cpp:148] Top shape: 410 1 (410)
I0612 10:24:00.328883  2978 net.cpp:156] Memory required for data: 15120800
I0612 10:24:00.328893  2978 layer_factory.hpp:77] Creating layer data_data_0_split
I0612 10:24:00.328923  2978 net.cpp:91] Creating Layer data_data_0_split
I0612 10:24:00.328933  2978 net.cpp:425] data_data_0_split <- data
I0612 10:24:00.328948  2978 net.cpp:399] data_data_0_split -> data_data_0_split_0
I0612 10:24:00.328969  2978 net.cpp:399] data_data_0_split -> data_data_0_split_1
I0612 10:24:00.329105  2978 net.cpp:141] Setting up data_data_0_split
I0612 10:24:00.329126  2978 net.cpp:148] Top shape: 410 1 48 48 (944640)
I0612 10:24:00.329136  2978 net.cpp:148] Top shape: 410 1 48 48 (944640)
I0612 10:24:00.329144  2978 net.cpp:156] Memory required for data: 22677920
I0612 10:24:00.329152  2978 layer_factory.hpp:77] Creating layer label1_data_1_split
I0612 10:24:00.329172  2978 net.cpp:91] Creating Layer label1_data_1_split
I0612 10:24:00.329181  2978 net.cpp:425] label1_data_1_split <- label1
I0612 10:24:00.329229  2978 net.cpp:399] label1_data_1_split -> label1_data_1_split_0
I0612 10:24:00.329252  2978 net.cpp:399] label1_data_1_split -> label1_data_1_split_1
I0612 10:24:00.329270  2978 net.cpp:399] label1_data_1_split -> label1_data_1_split_2
I0612 10:24:00.329285  2978 net.cpp:399] label1_data_1_split -> label1_data_1_split_3
I0612 10:24:00.329298  2978 net.cpp:399] label1_data_1_split -> label1_data_1_split_4
I0612 10:24:00.329311  2978 net.cpp:399] label1_data_1_split -> label1_data_1_split_5
I0612 10:24:00.329473  2978 net.cpp:141] Setting up label1_data_1_split
I0612 10:24:00.329489  2978 net.cpp:148] Top shape: 410 1 (410)
I0612 10:24:00.329499  2978 net.cpp:148] Top shape: 410 1 (410)
I0612 10:24:00.329509  2978 net.cpp:148] Top shape: 410 1 (410)
I0612 10:24:00.329519  2978 net.cpp:148] Top shape: 410 1 (410)
I0612 10:24:00.329526  2978 net.cpp:148] Top shape: 410 1 (410)
I0612 10:24:00.329538  2978 net.cpp:148] Top shape: 410 1 (410)
I0612 10:24:00.329546  2978 net.cpp:156] Memory required for data: 22687760
I0612 10:24:00.329555  2978 layer_factory.hpp:77] Creating layer conv11
I0612 10:24:00.329586  2978 net.cpp:91] Creating Layer conv11
I0612 10:24:00.329596  2978 net.cpp:425] conv11 <- data_data_0_split_0
I0612 10:24:00.329615  2978 net.cpp:399] conv11 -> conv11
I0612 10:24:00.332597  2978 net.cpp:141] Setting up conv11
I0612 10:24:00.332630  2978 net.cpp:148] Top shape: 410 64 24 24 (15114240)
I0612 10:24:00.332640  2978 net.cpp:156] Memory required for data: 83144720
I0612 10:24:00.332661  2978 layer_factory.hpp:77] Creating layer relu11
I0612 10:24:00.332676  2978 net.cpp:91] Creating Layer relu11
I0612 10:24:00.332685  2978 net.cpp:425] relu11 <- conv11
I0612 10:24:00.332698  2978 net.cpp:386] relu11 -> conv11 (in-place)
I0612 10:24:00.332929  2978 net.cpp:141] Setting up relu11
I0612 10:24:00.332949  2978 net.cpp:148] Top shape: 410 64 24 24 (15114240)
I0612 10:24:00.332957  2978 net.cpp:156] Memory required for data: 143601680
I0612 10:24:00.332975  2978 layer_factory.hpp:77] Creating layer bn11
I0612 10:24:00.332999  2978 net.cpp:91] Creating Layer bn11
I0612 10:24:00.333009  2978 net.cpp:425] bn11 <- conv11
I0612 10:24:00.333040  2978 net.cpp:399] bn11 -> bn11
I0612 10:24:00.333475  2978 net.cpp:141] Setting up bn11
I0612 10:24:00.333494  2978 net.cpp:148] Top shape: 410 64 24 24 (15114240)
I0612 10:24:00.333503  2978 net.cpp:156] Memory required for data: 204058640
I0612 10:24:00.333540  2978 layer_factory.hpp:77] Creating layer pool1
I0612 10:24:00.333573  2978 net.cpp:91] Creating Layer pool1
I0612 10:24:00.333582  2978 net.cpp:425] pool1 <- bn11
I0612 10:24:00.333597  2978 net.cpp:399] pool1 -> pool1
I0612 10:24:00.333678  2978 net.cpp:141] Setting up pool1
I0612 10:24:00.333693  2978 net.cpp:148] Top shape: 410 64 13 13 (4434560)
I0612 10:24:00.333701  2978 net.cpp:156] Memory required for data: 221796880
I0612 10:24:00.333709  2978 layer_factory.hpp:77] Creating layer conv21
I0612 10:24:00.333734  2978 net.cpp:91] Creating Layer conv21
I0612 10:24:00.333742  2978 net.cpp:425] conv21 <- pool1
I0612 10:24:00.333760  2978 net.cpp:399] conv21 -> conv21
I0612 10:24:00.337386  2978 net.cpp:141] Setting up conv21
I0612 10:24:00.337414  2978 net.cpp:148] Top shape: 410 128 13 13 (8869120)
I0612 10:24:00.337422  2978 net.cpp:156] Memory required for data: 257273360
I0612 10:24:00.337436  2978 layer_factory.hpp:77] Creating layer relu21
I0612 10:24:00.337474  2978 net.cpp:91] Creating Layer relu21
I0612 10:24:00.337486  2978 net.cpp:425] relu21 <- conv21
I0612 10:24:00.337502  2978 net.cpp:386] relu21 -> conv21 (in-place)
I0612 10:24:00.337699  2978 net.cpp:141] Setting up relu21
I0612 10:24:00.337718  2978 net.cpp:148] Top shape: 410 128 13 13 (8869120)
I0612 10:24:00.337726  2978 net.cpp:156] Memory required for data: 292749840
I0612 10:24:00.337745  2978 layer_factory.hpp:77] Creating layer bn21
I0612 10:24:00.337764  2978 net.cpp:91] Creating Layer bn21
I0612 10:24:00.337774  2978 net.cpp:425] bn21 <- conv21
I0612 10:24:00.337788  2978 net.cpp:399] bn21 -> bn21
I0612 10:24:00.338209  2978 net.cpp:141] Setting up bn21
I0612 10:24:00.338230  2978 net.cpp:148] Top shape: 410 128 13 13 (8869120)
I0612 10:24:00.338238  2978 net.cpp:156] Memory required for data: 328226320
I0612 10:24:00.338258  2978 layer_factory.hpp:77] Creating layer pool2
I0612 10:24:00.338271  2978 net.cpp:91] Creating Layer pool2
I0612 10:24:00.338280  2978 net.cpp:425] pool2 <- bn21
I0612 10:24:00.338294  2978 net.cpp:399] pool2 -> pool2
I0612 10:24:00.338374  2978 net.cpp:141] Setting up pool2
I0612 10:24:00.338392  2978 net.cpp:148] Top shape: 410 128 7 7 (2571520)
I0612 10:24:00.338400  2978 net.cpp:156] Memory required for data: 338512400
I0612 10:24:00.338409  2978 layer_factory.hpp:77] Creating layer conv31
I0612 10:24:00.338429  2978 net.cpp:91] Creating Layer conv31
I0612 10:24:00.338439  2978 net.cpp:425] conv31 <- pool2
I0612 10:24:00.338470  2978 net.cpp:399] conv31 -> conv31
I0612 10:24:00.341903  2978 net.cpp:141] Setting up conv31
I0612 10:24:00.341933  2978 net.cpp:148] Top shape: 410 128 7 7 (2571520)
I0612 10:24:00.341943  2978 net.cpp:156] Memory required for data: 348798480
I0612 10:24:00.341958  2978 layer_factory.hpp:77] Creating layer relu31
I0612 10:24:00.341980  2978 net.cpp:91] Creating Layer relu31
I0612 10:24:00.341996  2978 net.cpp:425] relu31 <- conv31
I0612 10:24:00.342010  2978 net.cpp:386] relu31 -> conv31 (in-place)
I0612 10:24:00.342226  2978 net.cpp:141] Setting up relu31
I0612 10:24:00.342247  2978 net.cpp:148] Top shape: 410 128 7 7 (2571520)
I0612 10:24:00.342257  2978 net.cpp:156] Memory required for data: 359084560
I0612 10:24:00.342267  2978 layer_factory.hpp:77] Creating layer bn31
I0612 10:24:00.342291  2978 net.cpp:91] Creating Layer bn31
I0612 10:24:00.342301  2978 net.cpp:425] bn31 <- conv31
I0612 10:24:00.342315  2978 net.cpp:399] bn31 -> bn31
I0612 10:24:00.342742  2978 net.cpp:141] Setting up bn31
I0612 10:24:00.342761  2978 net.cpp:148] Top shape: 410 128 7 7 (2571520)
I0612 10:24:00.342769  2978 net.cpp:156] Memory required for data: 369370640
I0612 10:24:00.342789  2978 layer_factory.hpp:77] Creating layer fc4
I0612 10:24:00.342840  2978 net.cpp:91] Creating Layer fc4
I0612 10:24:00.342854  2978 net.cpp:425] fc4 <- bn31
I0612 10:24:00.342870  2978 net.cpp:399] fc4 -> fc4
I0612 10:24:00.431890  2978 net.cpp:141] Setting up fc4
I0612 10:24:00.431938  2978 net.cpp:148] Top shape: 410 1024 (419840)
I0612 10:24:00.431947  2978 net.cpp:156] Memory required for data: 371050000
I0612 10:24:00.431984  2978 layer_factory.hpp:77] Creating layer relu4
I0612 10:24:00.432020  2978 net.cpp:91] Creating Layer relu4
I0612 10:24:00.432031  2978 net.cpp:425] relu4 <- fc4
I0612 10:24:00.432054  2978 net.cpp:386] relu4 -> fc4 (in-place)
I0612 10:24:00.432274  2978 net.cpp:141] Setting up relu4
I0612 10:24:00.432293  2978 net.cpp:148] Top shape: 410 1024 (419840)
I0612 10:24:00.432301  2978 net.cpp:156] Memory required for data: 372729360
I0612 10:24:00.432314  2978 layer_factory.hpp:77] Creating layer fc4_relu4_0_split
I0612 10:24:00.432328  2978 net.cpp:91] Creating Layer fc4_relu4_0_split
I0612 10:24:00.432337  2978 net.cpp:425] fc4_relu4_0_split <- fc4
I0612 10:24:00.432353  2978 net.cpp:399] fc4_relu4_0_split -> fc4_relu4_0_split_0
I0612 10:24:00.432370  2978 net.cpp:399] fc4_relu4_0_split -> fc4_relu4_0_split_1
I0612 10:24:00.432466  2978 net.cpp:141] Setting up fc4_relu4_0_split
I0612 10:24:00.432484  2978 net.cpp:148] Top shape: 410 1024 (419840)
I0612 10:24:00.432494  2978 net.cpp:148] Top shape: 410 1024 (419840)
I0612 10:24:00.432502  2978 net.cpp:156] Memory required for data: 376088080
I0612 10:24:00.432510  2978 layer_factory.hpp:77] Creating layer fc5
I0612 10:24:00.432545  2978 net.cpp:91] Creating Layer fc5
I0612 10:24:00.432559  2978 net.cpp:425] fc5 <- fc4_relu4_0_split_0
I0612 10:24:00.432575  2978 net.cpp:399] fc5 -> fc5
I0612 10:24:00.486228  2978 net.cpp:141] Setting up fc5
I0612 10:24:00.486263  2978 net.cpp:148] Top shape: 410 1024 (419840)
I0612 10:24:00.486273  2978 net.cpp:156] Memory required for data: 377767440
I0612 10:24:00.486286  2978 layer_factory.hpp:77] Creating layer relu5
I0612 10:24:00.486302  2978 net.cpp:91] Creating Layer relu5
I0612 10:24:00.486312  2978 net.cpp:425] relu5 <- fc5
I0612 10:24:00.486341  2978 net.cpp:386] relu5 -> fc5 (in-place)
I0612 10:24:00.486536  2978 net.cpp:141] Setting up relu5
I0612 10:24:00.486553  2978 net.cpp:148] Top shape: 410 1024 (419840)
I0612 10:24:00.486562  2978 net.cpp:156] Memory required for data: 379446800
I0612 10:24:00.486572  2978 layer_factory.hpp:77] Creating layer fc5_relu5_0_split
I0612 10:24:00.486603  2978 net.cpp:91] Creating Layer fc5_relu5_0_split
I0612 10:24:00.486613  2978 net.cpp:425] fc5_relu5_0_split <- fc5
I0612 10:24:00.486627  2978 net.cpp:399] fc5_relu5_0_split -> fc5_relu5_0_split_0
I0612 10:24:00.486645  2978 net.cpp:399] fc5_relu5_0_split -> fc5_relu5_0_split_1
I0612 10:24:00.486721  2978 net.cpp:141] Setting up fc5_relu5_0_split
I0612 10:24:00.486737  2978 net.cpp:148] Top shape: 410 1024 (419840)
I0612 10:24:00.486748  2978 net.cpp:148] Top shape: 410 1024 (419840)
I0612 10:24:00.486755  2978 net.cpp:156] Memory required for data: 382805520
I0612 10:24:00.486764  2978 layer_factory.hpp:77] Creating layer fc5_sub
I0612 10:24:00.486798  2978 net.cpp:91] Creating Layer fc5_sub
I0612 10:24:00.486809  2978 net.cpp:425] fc5_sub <- fc4_relu4_0_split_1
I0612 10:24:00.486826  2978 net.cpp:399] fc5_sub -> fc5_sub
I0612 10:24:00.540334  2978 net.cpp:141] Setting up fc5_sub
I0612 10:24:00.540391  2978 net.cpp:148] Top shape: 410 1024 (419840)
I0612 10:24:00.540402  2978 net.cpp:156] Memory required for data: 384484880
I0612 10:24:00.540423  2978 layer_factory.hpp:77] Creating layer relu5_sub
I0612 10:24:00.540447  2978 net.cpp:91] Creating Layer relu5_sub
I0612 10:24:00.540459  2978 net.cpp:425] relu5_sub <- fc5_sub
I0612 10:24:00.540473  2978 net.cpp:386] relu5_sub -> fc5_sub (in-place)
I0612 10:24:00.540740  2978 net.cpp:141] Setting up relu5_sub
I0612 10:24:00.540758  2978 net.cpp:148] Top shape: 410 1024 (419840)
I0612 10:24:00.540766  2978 net.cpp:156] Memory required for data: 386164240
I0612 10:24:00.540782  2978 layer_factory.hpp:77] Creating layer concat
I0612 10:24:00.540797  2978 net.cpp:91] Creating Layer concat
I0612 10:24:00.540807  2978 net.cpp:425] concat <- fc5_relu5_0_split_0
I0612 10:24:00.540817  2978 net.cpp:425] concat <- fc5_sub
I0612 10:24:00.540830  2978 net.cpp:399] concat -> features
I0612 10:24:00.540885  2978 net.cpp:141] Setting up concat
I0612 10:24:00.540918  2978 net.cpp:148] Top shape: 410 2048 (839680)
I0612 10:24:00.540944  2978 net.cpp:156] Memory required for data: 389522960
I0612 10:24:00.540953  2978 layer_factory.hpp:77] Creating layer pred_new
I0612 10:24:00.540988  2978 net.cpp:91] Creating Layer pred_new
I0612 10:24:00.541000  2978 net.cpp:425] pred_new <- features
I0612 10:24:00.541018  2978 net.cpp:399] pred_new -> pred_new
I0612 10:24:00.541942  2978 net.cpp:141] Setting up pred_new
I0612 10:24:00.541962  2978 net.cpp:148] Top shape: 410 7 (2870)
I0612 10:24:00.541971  2978 net.cpp:156] Memory required for data: 389534440
I0612 10:24:00.541986  2978 layer_factory.hpp:77] Creating layer pred_new_pred_new_0_split
I0612 10:24:00.542003  2978 net.cpp:91] Creating Layer pred_new_pred_new_0_split
I0612 10:24:00.542012  2978 net.cpp:425] pred_new_pred_new_0_split <- pred_new
I0612 10:24:00.542027  2978 net.cpp:399] pred_new_pred_new_0_split -> pred_new_pred_new_0_split_0
I0612 10:24:00.542042  2978 net.cpp:399] pred_new_pred_new_0_split -> pred_new_pred_new_0_split_1
I0612 10:24:00.542057  2978 net.cpp:399] pred_new_pred_new_0_split -> pred_new_pred_new_0_split_2
I0612 10:24:00.542163  2978 net.cpp:141] Setting up pred_new_pred_new_0_split
I0612 10:24:00.542179  2978 net.cpp:148] Top shape: 410 7 (2870)
I0612 10:24:00.542188  2978 net.cpp:148] Top shape: 410 7 (2870)
I0612 10:24:00.542198  2978 net.cpp:148] Top shape: 410 7 (2870)
I0612 10:24:00.542206  2978 net.cpp:156] Memory required for data: 389568880
I0612 10:24:00.542213  2978 layer_factory.hpp:77] Creating layer conv11_p
I0612 10:24:00.542242  2978 net.cpp:91] Creating Layer conv11_p
I0612 10:24:00.542251  2978 net.cpp:425] conv11_p <- data_data_0_split_1
I0612 10:24:00.542268  2978 net.cpp:399] conv11_p -> conv11_p
I0612 10:24:00.544337  2978 net.cpp:141] Setting up conv11_p
I0612 10:24:00.544363  2978 net.cpp:148] Top shape: 410 64 24 24 (15114240)
I0612 10:24:00.544371  2978 net.cpp:156] Memory required for data: 450025840
I0612 10:24:00.544381  2978 net.cpp:484] Sharing parameters 'conv11_w' owned by layer 'conv11', param index 0
I0612 10:24:00.544394  2978 net.cpp:484] Sharing parameters 'conv11_b' owned by layer 'conv11', param index 1
I0612 10:24:00.544401  2978 layer_factory.hpp:77] Creating layer relu11_p
I0612 10:24:00.544414  2978 net.cpp:91] Creating Layer relu11_p
I0612 10:24:00.544441  2978 net.cpp:425] relu11_p <- conv11_p
I0612 10:24:00.544456  2978 net.cpp:386] relu11_p -> conv11_p (in-place)
I0612 10:24:00.544699  2978 net.cpp:141] Setting up relu11_p
I0612 10:24:00.544719  2978 net.cpp:148] Top shape: 410 64 24 24 (15114240)
I0612 10:24:00.544728  2978 net.cpp:156] Memory required for data: 510482800
I0612 10:24:00.544739  2978 layer_factory.hpp:77] Creating layer bn11_p
I0612 10:24:00.544756  2978 net.cpp:91] Creating Layer bn11_p
I0612 10:24:00.544766  2978 net.cpp:425] bn11_p <- conv11_p
I0612 10:24:00.544806  2978 net.cpp:399] bn11_p -> bn11_p
I0612 10:24:00.545202  2978 net.cpp:141] Setting up bn11_p
I0612 10:24:00.545222  2978 net.cpp:148] Top shape: 410 64 24 24 (15114240)
I0612 10:24:00.545229  2978 net.cpp:156] Memory required for data: 570939760
I0612 10:24:00.545259  2978 layer_factory.hpp:77] Creating layer pool1_p
I0612 10:24:00.545281  2978 net.cpp:91] Creating Layer pool1_p
I0612 10:24:00.545291  2978 net.cpp:425] pool1_p <- bn11_p
I0612 10:24:00.545305  2978 net.cpp:399] pool1_p -> pool1_p
I0612 10:24:00.545385  2978 net.cpp:141] Setting up pool1_p
I0612 10:24:00.545402  2978 net.cpp:148] Top shape: 410 64 13 13 (4434560)
I0612 10:24:00.545408  2978 net.cpp:156] Memory required for data: 588678000
I0612 10:24:00.545418  2978 layer_factory.hpp:77] Creating layer conv21_p
I0612 10:24:00.545449  2978 net.cpp:91] Creating Layer conv21_p
I0612 10:24:00.545459  2978 net.cpp:425] conv21_p <- pool1_p
I0612 10:24:00.545475  2978 net.cpp:399] conv21_p -> conv21_p
I0612 10:24:00.548949  2978 net.cpp:141] Setting up conv21_p
I0612 10:24:00.548977  2978 net.cpp:148] Top shape: 410 128 13 13 (8869120)
I0612 10:24:00.548986  2978 net.cpp:156] Memory required for data: 624154480
I0612 10:24:00.549005  2978 net.cpp:484] Sharing parameters 'conv21_w' owned by layer 'conv21', param index 0
I0612 10:24:00.549027  2978 net.cpp:484] Sharing parameters 'conv21_b' owned by layer 'conv21', param index 1
I0612 10:24:00.549037  2978 layer_factory.hpp:77] Creating layer relu21_p
I0612 10:24:00.549049  2978 net.cpp:91] Creating Layer relu21_p
I0612 10:24:00.549058  2978 net.cpp:425] relu21_p <- conv21_p
I0612 10:24:00.549072  2978 net.cpp:386] relu21_p -> conv21_p (in-place)
I0612 10:24:00.549304  2978 net.cpp:141] Setting up relu21_p
I0612 10:24:00.549324  2978 net.cpp:148] Top shape: 410 128 13 13 (8869120)
I0612 10:24:00.549331  2978 net.cpp:156] Memory required for data: 659630960
I0612 10:24:00.549345  2978 layer_factory.hpp:77] Creating layer bn21_p
I0612 10:24:00.549362  2978 net.cpp:91] Creating Layer bn21_p
I0612 10:24:00.549372  2978 net.cpp:425] bn21_p <- conv21_p
I0612 10:24:00.549402  2978 net.cpp:399] bn21_p -> bn21_p
I0612 10:24:00.549809  2978 net.cpp:141] Setting up bn21_p
I0612 10:24:00.549829  2978 net.cpp:148] Top shape: 410 128 13 13 (8869120)
I0612 10:24:00.549836  2978 net.cpp:156] Memory required for data: 695107440
I0612 10:24:00.549852  2978 layer_factory.hpp:77] Creating layer pool2_p
I0612 10:24:00.549867  2978 net.cpp:91] Creating Layer pool2_p
I0612 10:24:00.549877  2978 net.cpp:425] pool2_p <- bn21_p
I0612 10:24:00.549890  2978 net.cpp:399] pool2_p -> pool2_p
I0612 10:24:00.549993  2978 net.cpp:141] Setting up pool2_p
I0612 10:24:00.550012  2978 net.cpp:148] Top shape: 410 128 7 7 (2571520)
I0612 10:24:00.550020  2978 net.cpp:156] Memory required for data: 705393520
I0612 10:24:00.550029  2978 layer_factory.hpp:77] Creating layer conv31_p
I0612 10:24:00.550050  2978 net.cpp:91] Creating Layer conv31_p
I0612 10:24:00.550060  2978 net.cpp:425] conv31_p <- pool2_p
I0612 10:24:00.550079  2978 net.cpp:399] conv31_p -> conv31_p
I0612 10:24:00.553591  2978 net.cpp:141] Setting up conv31_p
I0612 10:24:00.553619  2978 net.cpp:148] Top shape: 410 128 7 7 (2571520)
I0612 10:24:00.553629  2978 net.cpp:156] Memory required for data: 715679600
I0612 10:24:00.553639  2978 net.cpp:484] Sharing parameters 'conv31_w' owned by layer 'conv31', param index 0
I0612 10:24:00.553650  2978 net.cpp:484] Sharing parameters 'conv31_b' owned by layer 'conv31', param index 1
I0612 10:24:00.553659  2978 layer_factory.hpp:77] Creating layer relu31_p
I0612 10:24:00.553676  2978 net.cpp:91] Creating Layer relu31_p
I0612 10:24:00.553685  2978 net.cpp:425] relu31_p <- conv31_p
I0612 10:24:00.553699  2978 net.cpp:386] relu31_p -> conv31_p (in-place)
I0612 10:24:00.553889  2978 net.cpp:141] Setting up relu31_p
I0612 10:24:00.553905  2978 net.cpp:148] Top shape: 410 128 7 7 (2571520)
I0612 10:24:00.553913  2978 net.cpp:156] Memory required for data: 725965680
I0612 10:24:00.553925  2978 layer_factory.hpp:77] Creating layer bn31_p
I0612 10:24:00.553943  2978 net.cpp:91] Creating Layer bn31_p
I0612 10:24:00.553953  2978 net.cpp:425] bn31_p <- conv31_p
I0612 10:24:00.553967  2978 net.cpp:399] bn31_p -> bn31_p
I0612 10:24:00.554349  2978 net.cpp:141] Setting up bn31_p
I0612 10:24:00.554368  2978 net.cpp:148] Top shape: 410 128 7 7 (2571520)
I0612 10:24:00.554376  2978 net.cpp:156] Memory required for data: 736251760
I0612 10:24:00.554394  2978 layer_factory.hpp:77] Creating layer fc4_p
I0612 10:24:00.554412  2978 net.cpp:91] Creating Layer fc4_p
I0612 10:24:00.554421  2978 net.cpp:425] fc4_p <- bn31_p
I0612 10:24:00.554436  2978 net.cpp:399] fc4_p -> fc4_p
I0612 10:24:00.638712  2978 net.cpp:141] Setting up fc4_p
I0612 10:24:00.638774  2978 net.cpp:148] Top shape: 410 1024 (419840)
I0612 10:24:00.638784  2978 net.cpp:156] Memory required for data: 737931120
I0612 10:24:00.638798  2978 net.cpp:484] Sharing parameters 'fc4_w' owned by layer 'fc4', param index 0
I0612 10:24:00.638813  2978 net.cpp:484] Sharing parameters 'fc4_b' owned by layer 'fc4', param index 1
I0612 10:24:00.638823  2978 layer_factory.hpp:77] Creating layer relu4_p
I0612 10:24:00.638856  2978 net.cpp:91] Creating Layer relu4_p
I0612 10:24:00.638870  2978 net.cpp:425] relu4_p <- fc4_p
I0612 10:24:00.638911  2978 net.cpp:386] relu4_p -> fc4_p (in-place)
I0612 10:24:00.639116  2978 net.cpp:141] Setting up relu4_p
I0612 10:24:00.639133  2978 net.cpp:148] Top shape: 410 1024 (419840)
I0612 10:24:00.639142  2978 net.cpp:156] Memory required for data: 739610480
I0612 10:24:00.639155  2978 layer_factory.hpp:77] Creating layer fc4_p_relu4_p_0_split
I0612 10:24:00.639170  2978 net.cpp:91] Creating Layer fc4_p_relu4_p_0_split
I0612 10:24:00.639180  2978 net.cpp:425] fc4_p_relu4_p_0_split <- fc4_p
I0612 10:24:00.639194  2978 net.cpp:399] fc4_p_relu4_p_0_split -> fc4_p_relu4_p_0_split_0
I0612 10:24:00.639214  2978 net.cpp:399] fc4_p_relu4_p_0_split -> fc4_p_relu4_p_0_split_1
I0612 10:24:00.639284  2978 net.cpp:141] Setting up fc4_p_relu4_p_0_split
I0612 10:24:00.639300  2978 net.cpp:148] Top shape: 410 1024 (419840)
I0612 10:24:00.639312  2978 net.cpp:148] Top shape: 410 1024 (419840)
I0612 10:24:00.639318  2978 net.cpp:156] Memory required for data: 742969200
I0612 10:24:00.639328  2978 layer_factory.hpp:77] Creating layer fc5_p
I0612 10:24:00.639348  2978 net.cpp:91] Creating Layer fc5_p
I0612 10:24:00.639358  2978 net.cpp:425] fc5_p <- fc4_p_relu4_p_0_split_0
I0612 10:24:00.639374  2978 net.cpp:399] fc5_p -> fc5_p
I0612 10:24:00.653475  2978 net.cpp:141] Setting up fc5_p
I0612 10:24:00.653518  2978 net.cpp:148] Top shape: 410 1024 (419840)
I0612 10:24:00.653530  2978 net.cpp:156] Memory required for data: 744648560
I0612 10:24:00.653543  2978 net.cpp:484] Sharing parameters 'fc5_w' owned by layer 'fc5', param index 0
I0612 10:24:00.653554  2978 net.cpp:484] Sharing parameters 'fc5_b' owned by layer 'fc5', param index 1
I0612 10:24:00.653563  2978 layer_factory.hpp:77] Creating layer relu5_p
I0612 10:24:00.653578  2978 net.cpp:91] Creating Layer relu5_p
I0612 10:24:00.653586  2978 net.cpp:425] relu5_p <- fc5_p
I0612 10:24:00.653599  2978 net.cpp:386] relu5_p -> fc5_p (in-place)
I0612 10:24:00.653769  2978 net.cpp:141] Setting up relu5_p
I0612 10:24:00.653785  2978 net.cpp:148] Top shape: 410 1024 (419840)
I0612 10:24:00.653794  2978 net.cpp:156] Memory required for data: 746327920
I0612 10:24:00.653805  2978 layer_factory.hpp:77] Creating layer fc5_p_relu5_p_0_split
I0612 10:24:00.653820  2978 net.cpp:91] Creating Layer fc5_p_relu5_p_0_split
I0612 10:24:00.653830  2978 net.cpp:425] fc5_p_relu5_p_0_split <- fc5_p
I0612 10:24:00.653841  2978 net.cpp:399] fc5_p_relu5_p_0_split -> fc5_p_relu5_p_0_split_0
I0612 10:24:00.653857  2978 net.cpp:399] fc5_p_relu5_p_0_split -> fc5_p_relu5_p_0_split_1
I0612 10:24:00.653933  2978 net.cpp:141] Setting up fc5_p_relu5_p_0_split
I0612 10:24:00.653949  2978 net.cpp:148] Top shape: 410 1024 (419840)
I0612 10:24:00.653957  2978 net.cpp:148] Top shape: 410 1024 (419840)
I0612 10:24:00.653964  2978 net.cpp:156] Memory required for data: 749686640
I0612 10:24:00.653972  2978 layer_factory.hpp:77] Creating layer fc5_p_sub
I0612 10:24:00.653990  2978 net.cpp:91] Creating Layer fc5_p_sub
I0612 10:24:00.654000  2978 net.cpp:425] fc5_p_sub <- fc4_p_relu4_p_0_split_1
I0612 10:24:00.654017  2978 net.cpp:399] fc5_p_sub -> fc5_p_sub
I0612 10:24:00.707149  2978 net.cpp:141] Setting up fc5_p_sub
I0612 10:24:00.707190  2978 net.cpp:148] Top shape: 410 1024 (419840)
I0612 10:24:00.707200  2978 net.cpp:156] Memory required for data: 751366000
I0612 10:24:00.707211  2978 net.cpp:484] Sharing parameters 'fc5_sub_w' owned by layer 'fc5_sub', param index 0
I0612 10:24:00.707223  2978 net.cpp:484] Sharing parameters 'fc5_sub_b' owned by layer 'fc5_sub', param index 1
I0612 10:24:00.707233  2978 layer_factory.hpp:77] Creating layer relu5_p_sub
I0612 10:24:00.707247  2978 net.cpp:91] Creating Layer relu5_p_sub
I0612 10:24:00.707258  2978 net.cpp:425] relu5_p_sub <- fc5_p_sub
I0612 10:24:00.707273  2978 net.cpp:386] relu5_p_sub -> fc5_p_sub (in-place)
I0612 10:24:00.707449  2978 net.cpp:141] Setting up relu5_p_sub
I0612 10:24:00.707465  2978 net.cpp:148] Top shape: 410 1024 (419840)
I0612 10:24:00.707473  2978 net.cpp:156] Memory required for data: 753045360
I0612 10:24:00.707501  2978 layer_factory.hpp:77] Creating layer concat_p
I0612 10:24:00.707536  2978 net.cpp:91] Creating Layer concat_p
I0612 10:24:00.707546  2978 net.cpp:425] concat_p <- fc5_p_relu5_p_0_split_0
I0612 10:24:00.707556  2978 net.cpp:425] concat_p <- fc5_p_sub
I0612 10:24:00.707568  2978 net.cpp:399] concat_p -> features_p
I0612 10:24:00.707639  2978 net.cpp:141] Setting up concat_p
I0612 10:24:00.707658  2978 net.cpp:148] Top shape: 410 2048 (839680)
I0612 10:24:00.707664  2978 net.cpp:156] Memory required for data: 756404080
I0612 10:24:00.707674  2978 layer_factory.hpp:77] Creating layer pred_new_p
I0612 10:24:00.707690  2978 net.cpp:91] Creating Layer pred_new_p
I0612 10:24:00.707700  2978 net.cpp:425] pred_new_p <- features_p
I0612 10:24:00.707715  2978 net.cpp:399] pred_new_p -> pred_new_p
I0612 10:24:00.708595  2978 net.cpp:141] Setting up pred_new_p
I0612 10:24:00.708616  2978 net.cpp:148] Top shape: 410 7 (2870)
I0612 10:24:00.708624  2978 net.cpp:156] Memory required for data: 756415560
I0612 10:24:00.708634  2978 net.cpp:484] Sharing parameters 'pred_w' owned by layer 'pred_new', param index 0
I0612 10:24:00.708647  2978 net.cpp:484] Sharing parameters 'pred_b' owned by layer 'pred_new', param index 1
I0612 10:24:00.708655  2978 layer_factory.hpp:77] Creating layer pred
I0612 10:24:00.708673  2978 net.cpp:91] Creating Layer pred
I0612 10:24:00.708683  2978 net.cpp:425] pred <- fc5_relu5_0_split_1
I0612 10:24:00.708698  2978 net.cpp:399] pred -> pred
I0612 10:24:00.710947  2978 net.cpp:141] Setting up pred
I0612 10:24:00.710968  2978 net.cpp:148] Top shape: 410 7 (2870)
I0612 10:24:00.710975  2978 net.cpp:156] Memory required for data: 756427040
I0612 10:24:00.710988  2978 layer_factory.hpp:77] Creating layer pred_p
I0612 10:24:00.711006  2978 net.cpp:91] Creating Layer pred_p
I0612 10:24:00.711016  2978 net.cpp:425] pred_p <- fc5_p_relu5_p_0_split_1
I0612 10:24:00.711042  2978 net.cpp:399] pred_p -> pred_p
I0612 10:24:00.711627  2978 net.cpp:141] Setting up pred_p
I0612 10:24:00.711648  2978 net.cpp:148] Top shape: 410 7 (2870)
I0612 10:24:00.711657  2978 net.cpp:156] Memory required for data: 756438520
I0612 10:24:00.711666  2978 net.cpp:484] Sharing parameters 'pred_exp_w' owned by layer 'pred', param index 0
I0612 10:24:00.711676  2978 net.cpp:484] Sharing parameters 'pred_exp_b' owned by layer 'pred', param index 1
I0612 10:24:00.711684  2978 layer_factory.hpp:77] Creating layer loss_1
I0612 10:24:00.711719  2978 net.cpp:91] Creating Layer loss_1
I0612 10:24:00.711732  2978 net.cpp:425] loss_1 <- pred_new_pred_new_0_split_0
I0612 10:24:00.711743  2978 net.cpp:425] loss_1 <- label1_data_1_split_0
I0612 10:24:00.711755  2978 net.cpp:399] loss_1 -> loss_1
I0612 10:24:00.711776  2978 layer_factory.hpp:77] Creating layer loss_1
I0612 10:24:00.712317  2978 net.cpp:141] Setting up loss_1
I0612 10:24:00.712337  2978 net.cpp:148] Top shape: (1)
I0612 10:24:00.712345  2978 net.cpp:151]     with loss weight 1
I0612 10:24:00.712366  2978 net.cpp:156] Memory required for data: 756438524
I0612 10:24:00.712375  2978 layer_factory.hpp:77] Creating layer score
I0612 10:24:00.712390  2978 net.cpp:91] Creating Layer score
I0612 10:24:00.712399  2978 net.cpp:425] score <- pred_new_pred_new_0_split_1
I0612 10:24:00.712410  2978 net.cpp:425] score <- label1_data_1_split_1
I0612 10:24:00.712427  2978 net.cpp:399] score -> score
I0612 10:24:00.712483  2978 net.cpp:141] Setting up score
I0612 10:24:00.712499  2978 net.cpp:148] Top shape: 1 1 1 1 (1)
I0612 10:24:00.712507  2978 net.cpp:156] Memory required for data: 756438528
I0612 10:24:00.712514  2978 layer_factory.hpp:77] Creating layer accuracy_testing
I0612 10:24:00.712533  2978 net.cpp:91] Creating Layer accuracy_testing
I0612 10:24:00.712543  2978 net.cpp:425] accuracy_testing <- pred_new_pred_new_0_split_2
I0612 10:24:00.712554  2978 net.cpp:425] accuracy_testing <- label1_data_1_split_2
…
