…
I0615 11:38:15.273211 22085 net.cpp:313] The NetState phase (0) differed from the phase (1) specified by a rule in layer score
I0615 11:38:15.273524 22085 net.cpp:49] Initializing net from parameters: 
name: "SiameseNet"
state {
  phase: TRAIN
}
layer {
  name: "data"
  type: "ImageData"
  top: "data"
  top: "label1"
  include {
    phase: TRAIN
  }
  transform_param {
    crop_size: 48
  }
  image_data_param {
    source: "/home/zibo/Data/Database/SFEW/Exp_multi/Train/train"
    batch_size: 1230
    shuffle: false
    new_height: 60
    new_width: 60
    is_color: false
    root_folder: "/home/zibo/Data/Database/SFEW_60x60/"
    image_num: 1
    label_dim: 1
  }
}
layer {
  name: "conv11"
  type: "Convolution"
  bottom: "data"
  top: "conv11"
  param {
    name: "conv11_w"
    lr_mult: 1
    decay_mult: 1
  }
  param {
    name: "conv11_b"
    lr_mult: 2
    decay_mult: 0
  }
  convolution_param {
    num_output: 64
    pad: 1
    kernel_size: 3
    stride: 2
    weight_filler {
      type: "xavier"
    }
    bias_filler {
      type: "constant"
    }
  }
}
layer {
  name: "relu11"
  type: "PReLU"
  bottom: "conv11"
  top: "conv11"
}
layer {
  name: "bn11"
  type: "BatchNorm"
  bottom: "conv11"
  top: "bn11"
  param {
    lr_mult: 0
  }
  param {
    lr_mult: 0
  }
  param {
    lr_mult: 0
  }
}
layer {
  name: "pool1"
  type: "Pooling"
  bottom: "bn11"
  top: "pool1"
  pooling_param {
    pool: MAX
    kernel_size: 3
    stride: 2
    pad: 1
  }
}
layer {
  name: "conv21"
  type: "Convolution"
  bottom: "pool1"
  top: "conv21"
  param {
    name: "conv21_w"
    lr_mult: 1
    decay_mult: 1
  }
  param {
    name: "conv21_b"
    lr_mult: 2
    decay_mult: 0
  }
  convolution_param {
    num_output: 128
    pad: 1
    kernel_size: 3
    weight_filler {
      type: "xavier"
    }
    bias_filler {
      type: "constant"
    }
  }
}
layer {
  name: "relu21"
  type: "PReLU"
  bottom: "conv21"
  top: "conv21"
}
layer {
  name: "bn21"
  type: "BatchNorm"
  bottom: "conv21"
  top: "bn21"
  param {
    lr_mult: 0
  }
  param {
    lr_mult: 0
  }
  param {
    lr_mult: 0
  }
}
layer {
  name: "pool2"
  type: "Pooling"
  bottom: "bn21"
  top: "pool2"
  pooling_param {
    pool: MAX
    kernel_size: 3
    stride: 2
    pad: 1
  }
}
layer {
  name: "conv31"
  type: "Convolution"
  bottom: "pool2"
  top: "conv31"
  param {
    name: "conv31_w"
    lr_mult: 1
    decay_mult: 1
  }
  param {
    name: "conv31_b"
    lr_mult: 2
    decay_mult: 0
  }
  convolution_param {
    num_output: 128
    pad: 1
    kernel_size: 3
    weight_filler {
      type: "xavier"
    }
    bias_filler {
      type: "constant"
    }
  }
}
layer {
  name: "relu31"
  type: "PReLU"
  bottom: "conv31"
  top: "conv31"
}
layer {
  name: "bn31"
  type: "BatchNorm"
  bottom: "conv31"
  top: "bn31"
  param {
    lr_mult: 0
  }
  param {
    lr_mult: 0
  }
  param {
    lr_mult: 0
  }
}
layer {
  name: "fc4"
  type: "InnerProduct"
  bottom: "bn31"
  top: "fc4"
  param {
    name: "fc4_w"
    lr_mult: 1
    decay_mult: 1
  }
  param {
    name: "fc4_b"
    lr_mult: 2
    decay_mult: 0
  }
  inner_product_param {
    num_output: 1024
    weight_filler {
      type: "xavier"
    }
    bias_filler {
      type: "constant"
    }
  }
}
layer {
  name: "relu4"
  type: "PReLU"
  bottom: "fc4"
  top: "fc4"
}
layer {
  name: "drop4"
  type: "Dropout"
  bottom: "fc4"
  top: "fc4"
  include {
    phase: TRAIN
  }
  dropout_param {
    dropout_ratio: 0.6
  }
}
layer {
  name: "fc5"
  type: "InnerProduct"
  bottom: "fc4"
  top: "fc5"
  param {
    name: "fc5_w"
    lr_mult: 1
    decay_mult: 1
  }
  param {
    name: "fc5_b"
    lr_mult: 2
    decay_mult: 0
  }
  inner_product_param {
    num_output: 1024
    weight_filler {
      type: "gaussian"
      std: 0.0001
    }
    bias_filler {
      type: "constant"
    }
  }
}
layer {
  name: "relu5"
  type: "PReLU"
  bottom: "fc5"
  top: "fc5"
}
layer {
  name: "drop5"
  type: "Dropout"
  bottom: "fc5"
  top: "fc5"
  include {
    phase: TRAIN
  }
  dropout_param {
    dropout_ratio: 0.6
  }
}
layer {
  name: "pred"
  type: "InnerProduct"
  bottom: "fc5"
  top: "pred"
  param {
    name: "pred_exp_w"
    lr_mult: 1
    decay_mult: 1
  }
  param {
    name: "pred_exp_b"
    lr_mult: 2
    decay_mult: 0
  }
  inner_product_param {
    num_output: 7
    weight_filler {
      type: "gaussian"
      std: 0.01
    }
    bias_filler {
      type: "constant"
      value: 0
    }
  }
}
layer {
  name: "accuracy_exp"
  type: "Accuracy"
  bottom: "pred"
  bottom: "label1"
  top: "accuracy_exp"
}
layer {
  name: "loss_exp"
  type: "SoftmaxWithLoss"
  bottom: "pred"
  bottom: "label1"
  top: "loss_exp"
  loss_weight: 1
  include {
    phase: TRAIN
  }
}
I0615 11:38:15.273758 22085 layer_factory.hpp:77] Creating layer data
I0615 11:38:15.273819 22085 net.cpp:91] Creating Layer data
I0615 11:38:15.273834 22085 net.cpp:399] data -> data
I0615 11:38:15.273879 22085 net.cpp:399] data -> label1
I0615 11:38:15.274446 22085 image_data_layer.cpp:40] Opening file /home/zibo/Data/Database/SFEW/Exp_multi/Train/train
I0615 11:38:15.276341 22085 image_data_layer.cpp:75] A total of 868 images.
I0615 11:38:15.293753 22085 image_data_layer.cpp:106] output data size: 1230,1,48,48
I0615 11:38:15.324537 22085 net.cpp:141] Setting up data
I0615 11:38:15.324620 22085 net.cpp:148] Top shape: 1230 1 48 48 (2833920)
I0615 11:38:15.324631 22085 net.cpp:148] Top shape: 1230 1 (1230)
I0615 11:38:15.324640 22085 net.cpp:156] Memory required for data: 11340600
I0615 11:38:15.324656 22085 layer_factory.hpp:77] Creating layer label1_data_1_split
I0615 11:38:15.324681 22085 net.cpp:91] Creating Layer label1_data_1_split
I0615 11:38:15.324694 22085 net.cpp:425] label1_data_1_split <- label1
I0615 11:38:15.324717 22085 net.cpp:399] label1_data_1_split -> label1_data_1_split_0
I0615 11:38:15.324740 22085 net.cpp:399] label1_data_1_split -> label1_data_1_split_1
I0615 11:38:15.324844 22085 net.cpp:141] Setting up label1_data_1_split
I0615 11:38:15.324859 22085 net.cpp:148] Top shape: 1230 1 (1230)
I0615 11:38:15.324868 22085 net.cpp:148] Top shape: 1230 1 (1230)
I0615 11:38:15.324875 22085 net.cpp:156] Memory required for data: 11350440
I0615 11:38:15.324883 22085 layer_factory.hpp:77] Creating layer conv11
I0615 11:38:15.324937 22085 net.cpp:91] Creating Layer conv11
I0615 11:38:15.324949 22085 net.cpp:425] conv11 <- data
I0615 11:38:15.324966 22085 net.cpp:399] conv11 -> conv11
I0615 11:38:15.750102 22085 net.cpp:141] Setting up conv11
I0615 11:38:15.750170 22085 net.cpp:148] Top shape: 1230 64 24 24 (45342720)
I0615 11:38:15.750180 22085 net.cpp:156] Memory required for data: 192721320
I0615 11:38:15.750213 22085 layer_factory.hpp:77] Creating layer relu11
I0615 11:38:15.750236 22085 net.cpp:91] Creating Layer relu11
I0615 11:38:15.750246 22085 net.cpp:425] relu11 <- conv11
I0615 11:38:15.750257 22085 net.cpp:386] relu11 -> conv11 (in-place)
I0615 11:38:15.751247 22085 net.cpp:141] Setting up relu11
I0615 11:38:15.751268 22085 net.cpp:148] Top shape: 1230 64 24 24 (45342720)
I0615 11:38:15.751277 22085 net.cpp:156] Memory required for data: 374092200
I0615 11:38:15.751296 22085 layer_factory.hpp:77] Creating layer bn11
I0615 11:38:15.751323 22085 net.cpp:91] Creating Layer bn11
I0615 11:38:15.751332 22085 net.cpp:425] bn11 <- conv11
I0615 11:38:15.751344 22085 net.cpp:399] bn11 -> bn11
I0615 11:38:15.751646 22085 net.cpp:141] Setting up bn11
I0615 11:38:15.751680 22085 net.cpp:148] Top shape: 1230 64 24 24 (45342720)
I0615 11:38:15.751705 22085 net.cpp:156] Memory required for data: 555463080
I0615 11:38:15.751725 22085 layer_factory.hpp:77] Creating layer pool1
I0615 11:38:15.751744 22085 net.cpp:91] Creating Layer pool1
I0615 11:38:15.751751 22085 net.cpp:425] pool1 <- bn11
I0615 11:38:15.751763 22085 net.cpp:399] pool1 -> pool1
I0615 11:38:15.751847 22085 net.cpp:141] Setting up pool1
I0615 11:38:15.751863 22085 net.cpp:148] Top shape: 1230 64 13 13 (13303680)
I0615 11:38:15.751870 22085 net.cpp:156] Memory required for data: 608677800
I0615 11:38:15.751878 22085 layer_factory.hpp:77] Creating layer conv21
I0615 11:38:15.751901 22085 net.cpp:91] Creating Layer conv21
I0615 11:38:15.751910 22085 net.cpp:425] conv21 <- pool1
I0615 11:38:15.751922 22085 net.cpp:399] conv21 -> conv21
I0615 11:38:15.754828 22085 net.cpp:141] Setting up conv21
I0615 11:38:15.754855 22085 net.cpp:148] Top shape: 1230 128 13 13 (26607360)
I0615 11:38:15.754863 22085 net.cpp:156] Memory required for data: 715107240
I0615 11:38:15.754878 22085 layer_factory.hpp:77] Creating layer relu21
I0615 11:38:15.754890 22085 net.cpp:91] Creating Layer relu21
I0615 11:38:15.754899 22085 net.cpp:425] relu21 <- conv21
I0615 11:38:15.754909 22085 net.cpp:386] relu21 -> conv21 (in-place)
I0615 11:38:15.755051 22085 net.cpp:141] Setting up relu21
I0615 11:38:15.755066 22085 net.cpp:148] Top shape: 1230 128 13 13 (26607360)
I0615 11:38:15.755074 22085 net.cpp:156] Memory required for data: 821536680
I0615 11:38:15.755089 22085 layer_factory.hpp:77] Creating layer bn21
I0615 11:38:15.755105 22085 net.cpp:91] Creating Layer bn21
I0615 11:38:15.755112 22085 net.cpp:425] bn21 <- conv21
I0615 11:38:15.755125 22085 net.cpp:399] bn21 -> bn21
I0615 11:38:15.755401 22085 net.cpp:141] Setting up bn21
I0615 11:38:15.755416 22085 net.cpp:148] Top shape: 1230 128 13 13 (26607360)
I0615 11:38:15.755424 22085 net.cpp:156] Memory required for data: 927966120
I0615 11:38:15.755439 22085 layer_factory.hpp:77] Creating layer pool2
I0615 11:38:15.755450 22085 net.cpp:91] Creating Layer pool2
I0615 11:38:15.755458 22085 net.cpp:425] pool2 <- bn21
I0615 11:38:15.755468 22085 net.cpp:399] pool2 -> pool2
I0615 11:38:15.755527 22085 net.cpp:141] Setting up pool2
I0615 11:38:15.755542 22085 net.cpp:148] Top shape: 1230 128 7 7 (7714560)
I0615 11:38:15.755548 22085 net.cpp:156] Memory required for data: 958824360
I0615 11:38:15.755556 22085 layer_factory.hpp:77] Creating layer conv31
I0615 11:38:15.755573 22085 net.cpp:91] Creating Layer conv31
I0615 11:38:15.755580 22085 net.cpp:425] conv31 <- pool2
I0615 11:38:15.755592 22085 net.cpp:399] conv31 -> conv31
I0615 11:38:15.760093 22085 net.cpp:141] Setting up conv31
I0615 11:38:15.760124 22085 net.cpp:148] Top shape: 1230 128 7 7 (7714560)
I0615 11:38:15.760133 22085 net.cpp:156] Memory required for data: 989682600
I0615 11:38:15.760149 22085 layer_factory.hpp:77] Creating layer relu31
I0615 11:38:15.760161 22085 net.cpp:91] Creating Layer relu31
I0615 11:38:15.760169 22085 net.cpp:425] relu31 <- conv31
I0615 11:38:15.760180 22085 net.cpp:386] relu31 -> conv31 (in-place)
I0615 11:38:15.761132 22085 net.cpp:141] Setting up relu31
I0615 11:38:15.761157 22085 net.cpp:148] Top shape: 1230 128 7 7 (7714560)
I0615 11:38:15.761165 22085 net.cpp:156] Memory required for data: 1020540840
I0615 11:38:15.761178 22085 layer_factory.hpp:77] Creating layer bn31
I0615 11:38:15.761191 22085 net.cpp:91] Creating Layer bn31
I0615 11:38:15.761200 22085 net.cpp:425] bn31 <- conv31
I0615 11:38:15.761212 22085 net.cpp:399] bn31 -> bn31
I0615 11:38:15.761488 22085 net.cpp:141] Setting up bn31
I0615 11:38:15.761503 22085 net.cpp:148] Top shape: 1230 128 7 7 (7714560)
I0615 11:38:15.761510 22085 net.cpp:156] Memory required for data: 1051399080
I0615 11:38:15.761531 22085 layer_factory.hpp:77] Creating layer fc4
I0615 11:38:15.761548 22085 net.cpp:91] Creating Layer fc4
I0615 11:38:15.761555 22085 net.cpp:425] fc4 <- bn31
I0615 11:38:15.761569 22085 net.cpp:399] fc4 -> fc4
I0615 11:38:15.845007 22085 net.cpp:141] Setting up fc4
I0615 11:38:15.845114 22085 net.cpp:148] Top shape: 1230 1024 (1259520)
I0615 11:38:15.845124 22085 net.cpp:156] Memory required for data: 1056437160
I0615 11:38:15.845145 22085 layer_factory.hpp:77] Creating layer relu4
I0615 11:38:15.845165 22085 net.cpp:91] Creating Layer relu4
I0615 11:38:15.845175 22085 net.cpp:425] relu4 <- fc4
I0615 11:38:15.845190 22085 net.cpp:386] relu4 -> fc4 (in-place)
I0615 11:38:15.845335 22085 net.cpp:141] Setting up relu4
I0615 11:38:15.845350 22085 net.cpp:148] Top shape: 1230 1024 (1259520)
I0615 11:38:15.845356 22085 net.cpp:156] Memory required for data: 1061475240
I0615 11:38:15.845368 22085 layer_factory.hpp:77] Creating layer drop4
I0615 11:38:15.845402 22085 net.cpp:91] Creating Layer drop4
I0615 11:38:15.845409 22085 net.cpp:425] drop4 <- fc4
I0615 11:38:15.845420 22085 net.cpp:386] drop4 -> fc4 (in-place)
I0615 11:38:15.845474 22085 net.cpp:141] Setting up drop4
I0615 11:38:15.845489 22085 net.cpp:148] Top shape: 1230 1024 (1259520)
I0615 11:38:15.845495 22085 net.cpp:156] Memory required for data: 1066513320
I0615 11:38:15.845504 22085 layer_factory.hpp:77] Creating layer fc5
I0615 11:38:15.845525 22085 net.cpp:91] Creating Layer fc5
I0615 11:38:15.845533 22085 net.cpp:425] fc5 <- fc4
I0615 11:38:15.845546 22085 net.cpp:399] fc5 -> fc5
I0615 11:38:15.901729 22085 net.cpp:141] Setting up fc5
I0615 11:38:15.901800 22085 net.cpp:148] Top shape: 1230 1024 (1259520)
I0615 11:38:15.901811 22085 net.cpp:156] Memory required for data: 1071551400
I0615 11:38:15.901839 22085 layer_factory.hpp:77] Creating layer relu5
I0615 11:38:15.901855 22085 net.cpp:91] Creating Layer relu5
I0615 11:38:15.901865 22085 net.cpp:425] relu5 <- fc5
I0615 11:38:15.901877 22085 net.cpp:386] relu5 -> fc5 (in-place)
I0615 11:38:15.902021 22085 net.cpp:141] Setting up relu5
I0615 11:38:15.902036 22085 net.cpp:148] Top shape: 1230 1024 (1259520)
I0615 11:38:15.902045 22085 net.cpp:156] Memory required for data: 1076589480
I0615 11:38:15.902057 22085 layer_factory.hpp:77] Creating layer drop5
I0615 11:38:15.902077 22085 net.cpp:91] Creating Layer drop5
I0615 11:38:15.902086 22085 net.cpp:425] drop5 <- fc5
I0615 11:38:15.902097 22085 net.cpp:386] drop5 -> fc5 (in-place)
I0615 11:38:15.902138 22085 net.cpp:141] Setting up drop5
I0615 11:38:15.902153 22085 net.cpp:148] Top shape: 1230 1024 (1259520)
I0615 11:38:15.902161 22085 net.cpp:156] Memory required for data: 1081627560
I0615 11:38:15.902169 22085 layer_factory.hpp:77] Creating layer pred
I0615 11:38:15.902184 22085 net.cpp:91] Creating Layer pred
I0615 11:38:15.902192 22085 net.cpp:425] pred <- fc5
I0615 11:38:15.902223 22085 net.cpp:399] pred -> pred
I0615 11:38:15.902761 22085 net.cpp:141] Setting up pred
I0615 11:38:15.902778 22085 net.cpp:148] Top shape: 1230 7 (8610)
I0615 11:38:15.902786 22085 net.cpp:156] Memory required for data: 1081662000
I0615 11:38:15.902797 22085 layer_factory.hpp:77] Creating layer pred_pred_0_split
I0615 11:38:15.902812 22085 net.cpp:91] Creating Layer pred_pred_0_split
I0615 11:38:15.902819 22085 net.cpp:425] pred_pred_0_split <- pred
I0615 11:38:15.902829 22085 net.cpp:399] pred_pred_0_split -> pred_pred_0_split_0
I0615 11:38:15.902842 22085 net.cpp:399] pred_pred_0_split -> pred_pred_0_split_1
I0615 11:38:15.902935 22085 net.cpp:141] Setting up pred_pred_0_split
I0615 11:38:15.902952 22085 net.cpp:148] Top shape: 1230 7 (8610)
I0615 11:38:15.902962 22085 net.cpp:148] Top shape: 1230 7 (8610)
I0615 11:38:15.902969 22085 net.cpp:156] Memory required for data: 1081730880
I0615 11:38:15.902977 22085 layer_factory.hpp:77] Creating layer accuracy_exp
I0615 11:38:15.902997 22085 net.cpp:91] Creating Layer accuracy_exp
I0615 11:38:15.903007 22085 net.cpp:425] accuracy_exp <- pred_pred_0_split_0
I0615 11:38:15.903015 22085 net.cpp:425] accuracy_exp <- label1_data_1_split_0
I0615 11:38:15.903025 22085 net.cpp:399] accuracy_exp -> accuracy_exp
…
I0615 11:38:15.905585 22085 net.cpp:313] The NetState phase (1) differed from the phase (0) specified by a rule in layer loss_exp
I0615 11:38:15.905905 22085 net.cpp:49] Initializing net from parameters: 
name: "SiameseNet"
state {
  phase: TEST
}
layer {
  name: "data"
  type: "ImageData"
  top: "data"
  top: "label1"
  include {
    phase: TEST
  }
  transform_param {
    crop_size: 48
  }
  image_data_param {
    source: "/home/zibo/Data/Database/SFEW/Exp_multi/Train/test"
    batch_size: 410
    shuffle: false
    new_height: 60
    new_width: 60
    is_color: false
    root_folder: "/home/zibo/Data/Database/SFEW_60x60/"
    image_num: 1
    label_dim: 1
  }
}
layer {
  name: "conv11"
  type: "Convolution"
  bottom: "data"
  top: "conv11"
  param {
    name: "conv11_w"
    lr_mult: 1
    decay_mult: 1
  }
  param {
    name: "conv11_b"
    lr_mult: 2
    decay_mult: 0
  }
  convolution_param {
    num_output: 64
    pad: 1
    kernel_size: 3
    stride: 2
    weight_filler {
      type: "xavier"
    }
    bias_filler {
      type: "constant"
    }
  }
}
layer {
  name: "relu11"
  type: "PReLU"
  bottom: "conv11"
  top: "conv11"
}
layer {
  name: "bn11"
  type: "BatchNorm"
  bottom: "conv11"
  top: "bn11"
  param {
    lr_mult: 0
  }
  param {
    lr_mult: 0
  }
  param {
    lr_mult: 0
  }
}
layer {
  name: "pool1"
  type: "Pooling"
  bottom: "bn11"
  top: "pool1"
  pooling_param {
    pool: MAX
    kernel_size: 3
    stride: 2
    pad: 1
  }
}
layer {
  name: "conv21"
  type: "Convolution"
  bottom: "pool1"
  top: "conv21"
  param {
    name: "conv21_w"
    lr_mult: 1
    decay_mult: 1
  }
  param {
    name: "conv21_b"
    lr_mult: 2
    decay_mult: 0
  }
  convolution_param {
    num_output: 128
    pad: 1
    kernel_size: 3
    weight_filler {
      type: "xavier"
    }
    bias_filler {
      type: "constant"
    }
  }
}
layer {
  name: "relu21"
  type: "PReLU"
  bottom: "conv21"
  top: "conv21"
}
layer {
  name: "bn21"
  type: "BatchNorm"
  bottom: "conv21"
  top: "bn21"
  param {
    lr_mult: 0
  }
  param {
    lr_mult: 0
  }
  param {
    lr_mult: 0
  }
}
layer {
  name: "pool2"
  type: "Pooling"
  bottom: "bn21"
  top: "pool2"
  pooling_param {
    pool: MAX
    kernel_size: 3
    stride: 2
    pad: 1
  }
}
layer {
  name: "conv31"
  type: "Convolution"
  bottom: "pool2"
  top: "conv31"
  param {
    name: "conv31_w"
    lr_mult: 1
    decay_mult: 1
  }
  param {
    name: "conv31_b"
    lr_mult: 2
    decay_mult: 0
  }
  convolution_param {
    num_output: 128
    pad: 1
    kernel_size: 3
    weight_filler {
      type: "xavier"
    }
    bias_filler {
      type: "constant"
    }
  }
}
layer {
  name: "relu31"
  type: "PReLU"
  bottom: "conv31"
  top: "conv31"
}
layer {
  name: "bn31"
  type: "BatchNorm"
  bottom: "conv31"
  top: "bn31"
  param {
    lr_mult: 0
  }
  param {
    lr_mult: 0
  }
  param {
    lr_mult: 0
  }
}
layer {
  name: "fc4"
  type: "InnerProduct"
  bottom: "bn31"
  top: "fc4"
  param {
    name: "fc4_w"
    lr_mult: 1
    decay_mult: 1
  }
  param {
    name: "fc4_b"
    lr_mult: 2
    decay_mult: 0
  }
  inner_product_param {
    num_output: 1024
    weight_filler {
      type: "xavier"
    }
    bias_filler {
      type: "constant"
    }
  }
}
layer {
  name: "relu4"
  type: "PReLU"
  bottom: "fc4"
  top: "fc4"
}
layer {
  name: "fc5"
  type: "InnerProduct"
  bottom: "fc4"
  top: "fc5"
  param {
    name: "fc5_w"
    lr_mult: 1
    decay_mult: 1
  }
  param {
    name: "fc5_b"
    lr_mult: 2
    decay_mult: 0
  }
  inner_product_param {
    num_output: 1024
    weight_filler {
      type: "gaussian"
      std: 0.0001
    }
    bias_filler {
      type: "constant"
    }
  }
}
layer {
  name: "relu5"
  type: "PReLU"
  bottom: "fc5"
  top: "fc5"
}
layer {
  name: "pred"
  type: "InnerProduct"
  bottom: "fc5"
  top: "pred"
  param {
    name: "pred_exp_w"
    lr_mult: 1
    decay_mult: 1
  }
  param {
    name: "pred_exp_b"
    lr_mult: 2
    decay_mult: 0
  }
  inner_product_param {
    num_output: 7
    weight_filler {
      type: "gaussian"
      std: 0.01
    }
    bias_filler {
      type: "constant"
      value: 0
    }
  }
}
layer {
  name: "score"
  type: "Score"
  bottom: "pred"
  bottom: "label1"
  top: "score"
  include {
    phase: TEST
  }
  score_param {
    dest_file: "examples/FER2013/results/results_orig"
  }
}
layer {
  name: "accuracy_exp"
  type: "Accuracy"
  bottom: "pred"
  bottom: "label1"
  top: "accuracy_exp"
}
I0615 11:38:15.906074 22085 layer_factory.hpp:77] Creating layer data
I0615 11:38:15.906100 22085 net.cpp:91] Creating Layer data
I0615 11:38:15.906112 22085 net.cpp:399] data -> data
I0615 11:38:15.906128 22085 net.cpp:399] data -> label1
I0615 11:38:15.906144 22085 image_data_layer.cpp:40] Opening file /home/zibo/Data/Database/SFEW/Exp_multi/Train/test
I0615 11:38:15.907073 22085 image_data_layer.cpp:75] A total of 410 images.
I0615 11:38:15.907470 22085 image_data_layer.cpp:106] output data size: 410,1,48,48
I0615 11:38:15.919446 22085 net.cpp:141] Setting up data
I0615 11:38:15.919505 22085 net.cpp:148] Top shape: 410 1 48 48 (944640)
I0615 11:38:15.919517 22085 net.cpp:148] Top shape: 410 1 (410)
I0615 11:38:15.919525 22085 net.cpp:156] Memory required for data: 3780200
I0615 11:38:15.919538 22085 layer_factory.hpp:77] Creating layer label1_data_1_split
I0615 11:38:15.919561 22085 net.cpp:91] Creating Layer label1_data_1_split
I0615 11:38:15.919572 22085 net.cpp:425] label1_data_1_split <- label1
I0615 11:38:15.919589 22085 net.cpp:399] label1_data_1_split -> label1_data_1_split_0
I0615 11:38:15.919607 22085 net.cpp:399] label1_data_1_split -> label1_data_1_split_1
I0615 11:38:15.919703 22085 net.cpp:141] Setting up label1_data_1_split
I0615 11:38:15.919719 22085 net.cpp:148] Top shape: 410 1 (410)
I0615 11:38:15.919728 22085 net.cpp:148] Top shape: 410 1 (410)
I0615 11:38:15.919735 22085 net.cpp:156] Memory required for data: 3783480
I0615 11:38:15.919744 22085 layer_factory.hpp:77] Creating layer conv11
I0615 11:38:15.919770 22085 net.cpp:91] Creating Layer conv11
I0615 11:38:15.919780 22085 net.cpp:425] conv11 <- data
I0615 11:38:15.919792 22085 net.cpp:399] conv11 -> conv11
I0615 11:38:15.922032 22085 net.cpp:141] Setting up conv11
I0615 11:38:15.922060 22085 net.cpp:148] Top shape: 410 64 24 24 (15114240)
I0615 11:38:15.922070 22085 net.cpp:156] Memory required for data: 64240440
I0615 11:38:15.922091 22085 layer_factory.hpp:77] Creating layer relu11
I0615 11:38:15.922103 22085 net.cpp:91] Creating Layer relu11
I0615 11:38:15.922113 22085 net.cpp:425] relu11 <- conv11
I0615 11:38:15.922127 22085 net.cpp:386] relu11 -> conv11 (in-place)
I0615 11:38:15.922374 22085 net.cpp:141] Setting up relu11
I0615 11:38:15.922396 22085 net.cpp:148] Top shape: 410 64 24 24 (15114240)
I0615 11:38:15.922405 22085 net.cpp:156] Memory required for data: 124697400
I0615 11:38:15.922421 22085 layer_factory.hpp:77] Creating layer bn11
I0615 11:38:15.922457 22085 net.cpp:91] Creating Layer bn11
I0615 11:38:15.922468 22085 net.cpp:425] bn11 <- conv11
I0615 11:38:15.922480 22085 net.cpp:399] bn11 -> bn11
I0615 11:38:15.922829 22085 net.cpp:141] Setting up bn11
I0615 11:38:15.922847 22085 net.cpp:148] Top shape: 410 64 24 24 (15114240)
I0615 11:38:15.922854 22085 net.cpp:156] Memory required for data: 185154360
I0615 11:38:15.922874 22085 layer_factory.hpp:77] Creating layer pool1
I0615 11:38:15.922893 22085 net.cpp:91] Creating Layer pool1
I0615 11:38:15.922900 22085 net.cpp:425] pool1 <- bn11
I0615 11:38:15.922912 22085 net.cpp:399] pool1 -> pool1
I0615 11:38:15.923523 22085 net.cpp:141] Setting up pool1
I0615 11:38:15.923545 22085 net.cpp:148] Top shape: 410 64 13 13 (4434560)
I0615 11:38:15.923553 22085 net.cpp:156] Memory required for data: 202892600
I0615 11:38:15.923562 22085 layer_factory.hpp:77] Creating layer conv21
I0615 11:38:15.923599 22085 net.cpp:91] Creating Layer conv21
I0615 11:38:15.923610 22085 net.cpp:425] conv21 <- pool1
I0615 11:38:15.923625 22085 net.cpp:399] conv21 -> conv21
I0615 11:38:15.926964 22085 net.cpp:141] Setting up conv21
I0615 11:38:15.926991 22085 net.cpp:148] Top shape: 410 128 13 13 (8869120)
I0615 11:38:15.927000 22085 net.cpp:156] Memory required for data: 238369080
I0615 11:38:15.927012 22085 layer_factory.hpp:77] Creating layer relu21
I0615 11:38:15.927024 22085 net.cpp:91] Creating Layer relu21
I0615 11:38:15.927033 22085 net.cpp:425] relu21 <- conv21
I0615 11:38:15.927048 22085 net.cpp:386] relu21 -> conv21 (in-place)
I0615 11:38:15.927225 22085 net.cpp:141] Setting up relu21
I0615 11:38:15.927242 22085 net.cpp:148] Top shape: 410 128 13 13 (8869120)
I0615 11:38:15.927248 22085 net.cpp:156] Memory required for data: 273845560
I0615 11:38:15.927265 22085 layer_factory.hpp:77] Creating layer bn21
I0615 11:38:15.927300 22085 net.cpp:91] Creating Layer bn21
I0615 11:38:15.927312 22085 net.cpp:425] bn21 <- conv21
I0615 11:38:15.927328 22085 net.cpp:399] bn21 -> bn21
I0615 11:38:15.927657 22085 net.cpp:141] Setting up bn21
I0615 11:38:15.927675 22085 net.cpp:148] Top shape: 410 128 13 13 (8869120)
I0615 11:38:15.927712 22085 net.cpp:156] Memory required for data: 309322040
I0615 11:38:15.927727 22085 layer_factory.hpp:77] Creating layer pool2
I0615 11:38:15.927742 22085 net.cpp:91] Creating Layer pool2
I0615 11:38:15.927749 22085 net.cpp:425] pool2 <- bn21
I0615 11:38:15.927759 22085 net.cpp:399] pool2 -> pool2
I0615 11:38:15.927834 22085 net.cpp:141] Setting up pool2
I0615 11:38:15.927850 22085 net.cpp:148] Top shape: 410 128 7 7 (2571520)
I0615 11:38:15.927857 22085 net.cpp:156] Memory required for data: 319608120
I0615 11:38:15.927865 22085 layer_factory.hpp:77] Creating layer conv31
I0615 11:38:15.927887 22085 net.cpp:91] Creating Layer conv31
I0615 11:38:15.927896 22085 net.cpp:425] conv31 <- pool2
I0615 11:38:15.927911 22085 net.cpp:399] conv31 -> conv31
I0615 11:38:15.930994 22085 net.cpp:141] Setting up conv31
I0615 11:38:15.931020 22085 net.cpp:148] Top shape: 410 128 7 7 (2571520)
I0615 11:38:15.931028 22085 net.cpp:156] Memory required for data: 329894200
I0615 11:38:15.931042 22085 layer_factory.hpp:77] Creating layer relu31
I0615 11:38:15.931056 22085 net.cpp:91] Creating Layer relu31
I0615 11:38:15.931064 22085 net.cpp:425] relu31 <- conv31
I0615 11:38:15.931076 22085 net.cpp:386] relu31 -> conv31 (in-place)
I0615 11:38:15.931246 22085 net.cpp:141] Setting up relu31
I0615 11:38:15.931264 22085 net.cpp:148] Top shape: 410 128 7 7 (2571520)
I0615 11:38:15.931272 22085 net.cpp:156] Memory required for data: 340180280
I0615 11:38:15.931282 22085 layer_factory.hpp:77] Creating layer bn31
I0615 11:38:15.931294 22085 net.cpp:91] Creating Layer bn31
I0615 11:38:15.931303 22085 net.cpp:425] bn31 <- conv31
I0615 11:38:15.931316 22085 net.cpp:399] bn31 -> bn31
I0615 11:38:15.931664 22085 net.cpp:141] Setting up bn31
I0615 11:38:15.931681 22085 net.cpp:148] Top shape: 410 128 7 7 (2571520)
I0615 11:38:15.931689 22085 net.cpp:156] Memory required for data: 350466360
I0615 11:38:15.931710 22085 layer_factory.hpp:77] Creating layer fc4
I0615 11:38:15.931728 22085 net.cpp:91] Creating Layer fc4
I0615 11:38:15.931736 22085 net.cpp:425] fc4 <- bn31
I0615 11:38:15.931748 22085 net.cpp:399] fc4 -> fc4
I0615 11:38:16.020342 22085 net.cpp:141] Setting up fc4
I0615 11:38:16.020423 22085 net.cpp:148] Top shape: 410 1024 (419840)
I0615 11:38:16.020432 22085 net.cpp:156] Memory required for data: 352145720
I0615 11:38:16.020457 22085 layer_factory.hpp:77] Creating layer relu4
I0615 11:38:16.020476 22085 net.cpp:91] Creating Layer relu4
I0615 11:38:16.020488 22085 net.cpp:425] relu4 <- fc4
I0615 11:38:16.020508 22085 net.cpp:386] relu4 -> fc4 (in-place)
I0615 11:38:16.020668 22085 net.cpp:141] Setting up relu4
I0615 11:38:16.020685 22085 net.cpp:148] Top shape: 410 1024 (419840)
I0615 11:38:16.020692 22085 net.cpp:156] Memory required for data: 353825080
I0615 11:38:16.020706 22085 layer_factory.hpp:77] Creating layer fc5
I0615 11:38:16.020727 22085 net.cpp:91] Creating Layer fc5
I0615 11:38:16.020737 22085 net.cpp:425] fc5 <- fc4
I0615 11:38:16.020753 22085 net.cpp:399] fc5 -> fc5
I0615 11:38:16.074502 22085 net.cpp:141] Setting up fc5
I0615 11:38:16.074532 22085 net.cpp:148] Top shape: 410 1024 (419840)
I0615 11:38:16.074540 22085 net.cpp:156] Memory required for data: 355504440
I0615 11:38:16.074553 22085 layer_factory.hpp:77] Creating layer relu5
I0615 11:38:16.074570 22085 net.cpp:91] Creating Layer relu5
I0615 11:38:16.074579 22085 net.cpp:425] relu5 <- fc5
I0615 11:38:16.074590 22085 net.cpp:386] relu5 -> fc5 (in-place)
I0615 11:38:16.074738 22085 net.cpp:141] Setting up relu5
I0615 11:38:16.074753 22085 net.cpp:148] Top shape: 410 1024 (419840)
I0615 11:38:16.074761 22085 net.cpp:156] Memory required for data: 357183800
I0615 11:38:16.074774 22085 layer_factory.hpp:77] Creating layer pred
I0615 11:38:16.074792 22085 net.cpp:91] Creating Layer pred
I0615 11:38:16.074801 22085 net.cpp:425] pred <- fc5
I0615 11:38:16.074815 22085 net.cpp:399] pred -> pred
I0615 11:38:16.075338 22085 net.cpp:141] Setting up pred
I0615 11:38:16.075356 22085 net.cpp:148] Top shape: 410 7 (2870)
I0615 11:38:16.075383 22085 net.cpp:156] Memory required for data: 357195280
I0615 11:38:16.075414 22085 layer_factory.hpp:77] Creating layer pred_pred_0_split
I0615 11:38:16.075428 22085 net.cpp:91] Creating Layer pred_pred_0_split
I0615 11:38:16.075435 22085 net.cpp:425] pred_pred_0_split <- pred
I0615 11:38:16.075445 22085 net.cpp:399] pred_pred_0_split -> pred_pred_0_split_0
I0615 11:38:16.075459 22085 net.cpp:399] pred_pred_0_split -> pred_pred_0_split_1
I0615 11:38:16.075528 22085 net.cpp:141] Setting up pred_pred_0_split
I0615 11:38:16.075544 22085 net.cpp:148] Top shape: 410 7 (2870)
I0615 11:38:16.075556 22085 net.cpp:148] Top shape: 410 7 (2870)
I0615 11:38:16.075563 22085 net.cpp:156] Memory required for data: 357218240
I0615 11:38:16.075572 22085 layer_factory.hpp:77] Creating layer score
I0615 11:38:16.075592 22085 net.cpp:91] Creating Layer score
I0615 11:38:16.075600 22085 net.cpp:425] score <- pred_pred_0_split_0
I0615 11:38:16.075610 22085 net.cpp:425] score <- label1_data_1_split_0
I0615 11:38:16.075620 22085 net.cpp:399] score -> score
I0615 11:38:16.075671 22085 net.cpp:141] Setting up score
I0615 11:38:16.075685 22085 net.cpp:148] Top shape: 1 1 1 1 (1)
I0615 11:38:16.075691 22085 net.cpp:156] Memory required for data: 357218244
I0615 11:38:16.075700 22085 layer_factory.hpp:77] Creating layer accuracy_exp
I0615 11:38:16.075713 22085 net.cpp:91] Creating Layer accuracy_exp
I0615 11:38:16.075721 22085 net.cpp:425] accuracy_exp <- pred_pred_0_split_1
I0615 11:38:16.075731 22085 net.cpp:425] accuracy_exp <- label1_data_1_split_1
I0615 11:38:16.075745 22085 net.cpp:399] accuracy_exp -> accuracy_exp
…
