…
I0616 10:02:39.716791 26323 net.cpp:49] Initializing net from parameters: 
name: "SiameseNet"
state {
  phase: TRAIN
}
layer {
  name: "pair_data"
  type: "ImageData"
  top: "pair_data"
  top: "labels"
  include {
    phase: TRAIN
  }
  transform_param {
    mirror: true
    crop_size: 48
  }
  image_data_param {
    source: "examples/SFEW/data/siamese_bi_multi/Train/train"
    batch_size: 64
    shuffle: true
    new_height: 60
    new_width: 60
    is_color: false
    root_folder: "/home/zibo/Data/Database/SFEW_60x60/"
    image_num: 2
    label_dim: 3
  }
}
layer {
  name: "slice_pair"
  type: "Slice"
  bottom: "pair_data"
  top: "data"
  top: "data_p"
  include {
    phase: TRAIN
  }
  slice_param {
    slice_dim: 1
    slice_point: 1
  }
}
layer {
  name: "slice_tri"
  type: "Slice"
  bottom: "labels"
  top: "sim"
  top: "label1"
  top: "label2"
  include {
    phase: TRAIN
  }
  slice_param {
    slice_dim: 1
    slice_point: 1
    slice_point: 2
  }
}
layer {
  name: "conv11"
  type: "Convolution"
  bottom: "data"
  top: "conv11"
  param {
    name: "conv11_w"
    lr_mult: 1
    decay_mult: 1
  }
  param {
    name: "conv11_b"
    lr_mult: 2
    decay_mult: 0
  }
  convolution_param {
    num_output: 64
    pad: 1
    kernel_size: 3
    stride: 2
    weight_filler {
      type: "xavier"
    }
    bias_filler {
      type: "constant"
    }
  }
}
layer {
  name: "relu11"
  type: "PReLU"
  bottom: "conv11"
  top: "conv11"
}
layer {
  name: "bn11"
  type: "BatchNorm"
  bottom: "conv11"
  top: "bn11"
  param {
    lr_mult: 0
  }
  param {
    lr_mult: 0
  }
  param {
    lr_mult: 0
  }
}
layer {
  name: "pool1"
  type: "Pooling"
  bottom: "bn11"
  top: "pool1"
  pooling_param {
    pool: MAX
    kernel_size: 3
    stride: 2
    pad: 1
  }
}
layer {
  name: "conv21"
  type: "Convolution"
  bottom: "pool1"
  top: "conv21"
  param {
    name: "conv21_w"
    lr_mult: 1
    decay_mult: 1
  }
  param {
    name: "conv21_b"
    lr_mult: 2
    decay_mult: 0
  }
  convolution_param {
    num_output: 128
    pad: 1
    kernel_size: 3
    weight_filler {
      type: "xavier"
    }
    bias_filler {
      type: "constant"
    }
  }
}
layer {
  name: "relu21"
  type: "PReLU"
  bottom: "conv21"
  top: "conv21"
}
layer {
  name: "bn21"
  type: "BatchNorm"
  bottom: "conv21"
  top: "bn21"
  param {
    lr_mult: 0
  }
  param {
    lr_mult: 0
  }
  param {
    lr_mult: 0
  }
}
layer {
  name: "pool2"
  type: "Pooling"
  bottom: "bn21"
  top: "pool2"
  pooling_param {
    pool: MAX
    kernel_size: 3
    stride: 2
    pad: 1
  }
}
layer {
  name: "conv31"
  type: "Convolution"
  bottom: "pool2"
  top: "conv31"
  param {
    name: "conv31_w"
    lr_mult: 1
    decay_mult: 1
  }
  param {
    name: "conv31_b"
    lr_mult: 2
    decay_mult: 0
  }
  convolution_param {
    num_output: 128
    pad: 1
    kernel_size: 3
    weight_filler {
      type: "xavier"
    }
    bias_filler {
      type: "constant"
    }
  }
}
layer {
  name: "relu31"
  type: "PReLU"
  bottom: "conv31"
  top: "conv31"
}
layer {
  name: "bn31"
  type: "BatchNorm"
  bottom: "conv31"
  top: "bn31"
  param {
    lr_mult: 0
  }
  param {
    lr_mult: 0
  }
  param {
    lr_mult: 0
  }
}
layer {
  name: "fc4"
  type: "InnerProduct"
  bottom: "bn31"
  top: "fc4"
  param {
    name: "fc4_w"
    lr_mult: 1
    decay_mult: 1
  }
  param {
    name: "fc4_b"
    lr_mult: 2
    decay_mult: 0
  }
  inner_product_param {
    num_output: 1024
    weight_filler {
      type: "xavier"
    }
    bias_filler {
      type: "constant"
    }
  }
}
layer {
  name: "relu4"
  type: "PReLU"
  bottom: "fc4"
  top: "fc4"
}
layer {
  name: "drop4"
  type: "Dropout"
  bottom: "fc4"
  top: "fc4"
  include {
    phase: TRAIN
  }
  dropout_param {
    dropout_ratio: 0.6
  }
}
layer {
  name: "fc5"
  type: "InnerProduct"
  bottom: "fc4"
  top: "fc5"
  param {
    name: "fc5_w"
    lr_mult: 1
    decay_mult: 1
  }
  param {
    name: "fc5_b"
    lr_mult: 2
    decay_mult: 0
  }
  inner_product_param {
    num_output: 1024
    weight_filler {
      type: "gaussian"
      std: 0.0001
    }
    bias_filler {
      type: "constant"
    }
  }
}
layer {
  name: "relu5"
  type: "PReLU"
  bottom: "fc5"
  top: "fc5"
}
layer {
  name: "drop5"
  type: "Dropout"
  bottom: "fc5"
  top: "fc5"
  include {
    phase: TRAIN
  }
  dropout_param {
    dropout_ratio: 0.6
  }
}
layer {
  name: "conv11_p"
  type: "Convolution"
  bottom: "data_p"
  top: "conv11_p"
  param {
    name: "conv11_w"
    lr_mult: 1
    decay_mult: 1
  }
  param {
    name: "conv11_b"
    lr_mult: 2
    decay_mult: 0
  }
  include {
    phase: TRAIN
  }
  convolution_param {
    num_output: 64
    pad: 1
    kernel_size: 3
    stride: 2
    weight_filler {
      type: "xavier"
    }
    bias_filler {
      type: "constant"
    }
  }
}
layer {
  name: "relu11_p"
  type: "PReLU"
  bottom: "conv11_p"
  top: "conv11_p"
}
layer {
  name: "bn11_p"
  type: "BatchNorm"
  bottom: "conv11_p"
  top: "bn11_p"
  param {
    lr_mult: 0
  }
  param {
    lr_mult: 0
  }
  param {
    lr_mult: 0
  }
}
layer {
  name: "pool1_p"
  type: "Pooling"
  bottom: "bn11_p"
  top: "pool1_p"
  pooling_param {
    pool: MAX
    kernel_size: 3
    stride: 2
    pad: 1
  }
}
layer {
  name: "conv21_p"
  type: "Convolution"
  bottom: "pool1_p"
  top: "conv21_p"
  param {
    name: "conv21_w"
    lr_mult: 1
    decay_mult: 1
  }
  param {
    name: "conv21_b"
    lr_mult: 2
    decay_mult: 0
  }
  convolution_param {
    num_output: 128
    pad: 1
    kernel_size: 3
    weight_filler {
      type: "xavier"
    }
    bias_filler {
      type: "constant"
    }
  }
}
layer {
  name: "relu21_p"
  type: "PReLU"
  bottom: "conv21_p"
  top: "conv21_p"
}
layer {
  name: "bn21_p"
  type: "BatchNorm"
  bottom: "conv21_p"
  top: "bn21_p"
  param {
    lr_mult: 0
  }
  param {
    lr_mult: 0
  }
  param {
    lr_mult: 0
  }
}
layer {
  name: "pool2_p"
  type: "Pooling"
  bottom: "bn21_p"
  top: "pool2_p"
  pooling_param {
    pool: MAX
    kernel_size: 3
    stride: 2
    pad: 1
  }
}
layer {
  name: "conv31_p"
  type: "Convolution"
  bottom: "pool2_p"
  top: "conv31_p"
  param {
    name: "conv31_w"
    lr_mult: 1
    decay_mult: 1
  }
  param {
    name: "conv31_b"
    lr_mult: 2
    decay_mult: 0
  }
  convolution_param {
    num_output: 128
    pad: 1
    kernel_size: 3
    weight_filler {
      type: "xavier"
    }
    bias_filler {
      type: "constant"
    }
  }
}
layer {
  name: "relu31_p"
  type: "PReLU"
  bottom: "conv31_p"
  top: "conv31_p"
}
layer {
  name: "bn31_p"
  type: "BatchNorm"
  bottom: "conv31_p"
  top: "bn31_p"
  param {
    lr_mult: 0
  }
  param {
    lr_mult: 0
  }
  param {
    lr_mult: 0
  }
}
layer {
  name: "fc4_p"
  type: "InnerProduct"
  bottom: "bn31_p"
  top: "fc4_p"
  param {
    name: "fc4_w"
    lr_mult: 1
    decay_mult: 1
  }
  param {
    name: "fc4_b"
    lr_mult: 2
    decay_mult: 0
  }
  inner_product_param {
    num_output: 1024
    weight_filler {
      type: "xavier"
    }
    bias_filler {
      type: "constant"
    }
  }
}
layer {
  name: "relu4_p"
  type: "PReLU"
  bottom: "fc4_p"
  top: "fc4_p"
}
layer {
  name: "drop4_p"
  type: "Dropout"
  bottom: "fc4_p"
  top: "fc4_p"
  include {
    phase: TRAIN
  }
  dropout_param {
    dropout_ratio: 0.6
  }
}
layer {
  name: "fc5_p"
  type: "InnerProduct"
  bottom: "fc4_p"
  top: "fc5_p"
  param {
    name: "fc5_w"
    lr_mult: 1
    decay_mult: 1
  }
  param {
    name: "fc5_b"
    lr_mult: 2
    decay_mult: 0
  }
  inner_product_param {
    num_output: 1024
    weight_filler {
      type: "xavier"
    }
    bias_filler {
      type: "constant"
    }
  }
}
layer {
  name: "relu5_p"
  type: "PReLU"
  bottom: "fc5_p"
  top: "fc5_p"
}
layer {
  name: "drop5_p"
  type: "Dropout"
  bottom: "fc5_p"
  top: "fc5_p"
  include {
    phase: TRAIN
  }
  dropout_param {
    dropout_ratio: 0.6
  }
}
layer {
  name: "pred"
  type: "InnerProduct"
  bottom: "fc5"
  top: "pred"
  param {
    name: "pred_exp_w"
    lr_mult: 1
    decay_mult: 1
  }
  param {
    name: "pred_exp_b"
    lr_mult: 2
    decay_mult: 0
  }
  inner_product_param {
    num_output: 7
    weight_filler {
      type: "gaussian"
      std: 0.01
    }
    bias_filler {
      type: "constant"
      value: 0
    }
  }
}
layer {
  name: "pred_p"
  type: "InnerProduct"
  bottom: "fc5_p"
  top: "pred_p"
  param {
    name: "pred_exp_w"
    lr_mult: 1
    decay_mult: 1
  }
  param {
    name: "pred_exp_b"
    lr_mult: 2
    decay_mult: 0
  }
  inner_product_param {
    num_output: 7
    weight_filler {
      type: "gaussian"
      std: 0.01
    }
    bias_filler {
      type: "constant"
      value: 0
    }
  }
}
layer {
  name: "loss_contrastive"
  type: "ContrastiveLoss"
  bottom: "fc5"
  bottom: "fc5_p"
  bottom: "sim"
  top: "contrastive_loss_label"
  loss_weight: 1
  include {
    phase: TRAIN
  }
  contrastive_loss_param {
    margin: 10
  }
}
layer {
  name: "accuracy_exp"
  type: "Accuracy"
  bottom: "pred"
  bottom: "label1"
  top: "accuracy_exp"
}
layer {
  name: "accuracy_exp_p"
  type: "Accuracy"
  bottom: "pred_p"
  bottom: "label2"
  top: "accuracy_exp_p"
  include {
    phase: TRAIN
  }
}
layer {
  name: "loss_exp"
  type: "SoftmaxWithLoss"
  bottom: "pred"
  bottom: "label1"
  top: "loss_exp"
  loss_weight: 1
  include {
    phase: TRAIN
  }
}
layer {
  name: "loss_exp_p"
  type: "SoftmaxWithLoss"
  bottom: "pred_p"
  bottom: "label2"
  top: "loss_exp_p"
  loss_weight: 1
  include {
    phase: TRAIN
  }
}
I0616 10:02:39.717384 26323 layer_factory.hpp:77] Creating layer pair_data
I0616 10:02:39.717466 26323 net.cpp:91] Creating Layer pair_data
I0616 10:02:39.717491 26323 net.cpp:399] pair_data -> pair_data
I0616 10:02:39.717546 26323 net.cpp:399] pair_data -> labels
I0616 10:02:39.718291 26323 image_data_layer.cpp:40] Opening file examples/SFEW/data/siamese_bi_multi/Train/train
I0616 10:02:41.119936 26323 image_data_layer.cpp:70] Shuffling data
I0616 10:02:41.408723 26323 image_data_layer.cpp:75] A total of 376278 images.
I0616 10:02:41.426782 26323 image_data_layer.cpp:106] output data size: 64,2,48,48
I0616 10:02:41.430469 26323 net.cpp:141] Setting up pair_data
I0616 10:02:41.430503 26323 net.cpp:148] Top shape: 64 2 48 48 (294912)
I0616 10:02:41.430513 26323 net.cpp:148] Top shape: 64 3 (192)
I0616 10:02:41.430519 26323 net.cpp:156] Memory required for data: 1180416
I0616 10:02:41.430762 26323 layer_factory.hpp:77] Creating layer slice_pair
I0616 10:02:41.430855 26323 net.cpp:91] Creating Layer slice_pair
I0616 10:02:41.430869 26323 net.cpp:425] slice_pair <- pair_data
I0616 10:02:41.430893 26323 net.cpp:399] slice_pair -> data
I0616 10:02:41.430920 26323 net.cpp:399] slice_pair -> data_p
I0616 10:02:41.431094 26323 net.cpp:141] Setting up slice_pair
I0616 10:02:41.431121 26323 net.cpp:148] Top shape: 64 1 48 48 (147456)
I0616 10:02:41.431145 26323 net.cpp:148] Top shape: 64 1 48 48 (147456)
I0616 10:02:41.431151 26323 net.cpp:156] Memory required for data: 2360064
I0616 10:02:41.431157 26323 layer_factory.hpp:77] Creating layer slice_tri
I0616 10:02:41.431169 26323 net.cpp:91] Creating Layer slice_tri
I0616 10:02:41.431175 26323 net.cpp:425] slice_tri <- labels
I0616 10:02:41.431197 26323 net.cpp:399] slice_tri -> sim
I0616 10:02:41.431210 26323 net.cpp:399] slice_tri -> label1
I0616 10:02:41.431227 26323 net.cpp:399] slice_tri -> label2
I0616 10:02:41.431365 26323 net.cpp:141] Setting up slice_tri
I0616 10:02:41.431380 26323 net.cpp:148] Top shape: 64 1 (64)
I0616 10:02:41.431386 26323 net.cpp:148] Top shape: 64 1 (64)
I0616 10:02:41.431393 26323 net.cpp:148] Top shape: 64 1 (64)
I0616 10:02:41.431398 26323 net.cpp:156] Memory required for data: 2360832
I0616 10:02:41.431404 26323 layer_factory.hpp:77] Creating layer label1_slice_tri_1_split
I0616 10:02:41.431442 26323 net.cpp:91] Creating Layer label1_slice_tri_1_split
I0616 10:02:41.431452 26323 net.cpp:425] label1_slice_tri_1_split <- label1
I0616 10:02:41.431462 26323 net.cpp:399] label1_slice_tri_1_split -> label1_slice_tri_1_split_0
I0616 10:02:41.431473 26323 net.cpp:399] label1_slice_tri_1_split -> label1_slice_tri_1_split_1
I0616 10:02:41.431538 26323 net.cpp:141] Setting up label1_slice_tri_1_split
I0616 10:02:41.431550 26323 net.cpp:148] Top shape: 64 1 (64)
I0616 10:02:41.431557 26323 net.cpp:148] Top shape: 64 1 (64)
I0616 10:02:41.431562 26323 net.cpp:156] Memory required for data: 2361344
I0616 10:02:41.431578 26323 layer_factory.hpp:77] Creating layer label2_slice_tri_2_split
I0616 10:02:41.431591 26323 net.cpp:91] Creating Layer label2_slice_tri_2_split
I0616 10:02:41.431596 26323 net.cpp:425] label2_slice_tri_2_split <- label2
I0616 10:02:41.431605 26323 net.cpp:399] label2_slice_tri_2_split -> label2_slice_tri_2_split_0
I0616 10:02:41.431615 26323 net.cpp:399] label2_slice_tri_2_split -> label2_slice_tri_2_split_1
I0616 10:02:41.431658 26323 net.cpp:141] Setting up label2_slice_tri_2_split
I0616 10:02:41.431668 26323 net.cpp:148] Top shape: 64 1 (64)
I0616 10:02:41.431675 26323 net.cpp:148] Top shape: 64 1 (64)
I0616 10:02:41.431680 26323 net.cpp:156] Memory required for data: 2361856
I0616 10:02:41.431686 26323 layer_factory.hpp:77] Creating layer conv11
I0616 10:02:41.431730 26323 net.cpp:91] Creating Layer conv11
I0616 10:02:41.431738 26323 net.cpp:425] conv11 <- data
I0616 10:02:41.431749 26323 net.cpp:399] conv11 -> conv11
I0616 10:02:41.819491 26323 net.cpp:141] Setting up conv11
I0616 10:02:41.819552 26323 net.cpp:148] Top shape: 64 64 24 24 (2359296)
I0616 10:02:41.819561 26323 net.cpp:156] Memory required for data: 11799040
I0616 10:02:41.819591 26323 layer_factory.hpp:77] Creating layer relu11
I0616 10:02:41.819608 26323 net.cpp:91] Creating Layer relu11
I0616 10:02:41.819618 26323 net.cpp:425] relu11 <- conv11
I0616 10:02:41.819628 26323 net.cpp:386] relu11 -> conv11 (in-place)
I0616 10:02:41.820479 26323 net.cpp:141] Setting up relu11
I0616 10:02:41.820497 26323 net.cpp:148] Top shape: 64 64 24 24 (2359296)
I0616 10:02:41.820502 26323 net.cpp:156] Memory required for data: 21236224
I0616 10:02:41.820519 26323 layer_factory.hpp:77] Creating layer bn11
I0616 10:02:41.820540 26323 net.cpp:91] Creating Layer bn11
I0616 10:02:41.820547 26323 net.cpp:425] bn11 <- conv11
I0616 10:02:41.820557 26323 net.cpp:399] bn11 -> bn11
I0616 10:02:41.820791 26323 net.cpp:141] Setting up bn11
I0616 10:02:41.820804 26323 net.cpp:148] Top shape: 64 64 24 24 (2359296)
I0616 10:02:41.820811 26323 net.cpp:156] Memory required for data: 30673408
I0616 10:02:41.820837 26323 layer_factory.hpp:77] Creating layer pool1
I0616 10:02:41.820852 26323 net.cpp:91] Creating Layer pool1
I0616 10:02:41.820859 26323 net.cpp:425] pool1 <- bn11
I0616 10:02:41.820875 26323 net.cpp:399] pool1 -> pool1
I0616 10:02:41.820963 26323 net.cpp:141] Setting up pool1
I0616 10:02:41.820977 26323 net.cpp:148] Top shape: 64 64 13 13 (692224)
I0616 10:02:41.820996 26323 net.cpp:156] Memory required for data: 33442304
I0616 10:02:41.821017 26323 layer_factory.hpp:77] Creating layer conv21
I0616 10:02:41.821041 26323 net.cpp:91] Creating Layer conv21
I0616 10:02:41.821050 26323 net.cpp:425] conv21 <- pool1
I0616 10:02:41.821060 26323 net.cpp:399] conv21 -> conv21
I0616 10:02:41.823462 26323 net.cpp:141] Setting up conv21
I0616 10:02:41.823483 26323 net.cpp:148] Top shape: 64 128 13 13 (1384448)
I0616 10:02:41.823489 26323 net.cpp:156] Memory required for data: 38980096
I0616 10:02:41.823499 26323 layer_factory.hpp:77] Creating layer relu21
I0616 10:02:41.823509 26323 net.cpp:91] Creating Layer relu21
I0616 10:02:41.823516 26323 net.cpp:425] relu21 <- conv21
I0616 10:02:41.823524 26323 net.cpp:386] relu21 -> conv21 (in-place)
I0616 10:02:41.823640 26323 net.cpp:141] Setting up relu21
I0616 10:02:41.823652 26323 net.cpp:148] Top shape: 64 128 13 13 (1384448)
I0616 10:02:41.823658 26323 net.cpp:156] Memory required for data: 44517888
I0616 10:02:41.823670 26323 layer_factory.hpp:77] Creating layer bn21
I0616 10:02:41.823693 26323 net.cpp:91] Creating Layer bn21
I0616 10:02:41.823700 26323 net.cpp:425] bn21 <- conv21
I0616 10:02:41.823709 26323 net.cpp:399] bn21 -> bn21
I0616 10:02:41.823931 26323 net.cpp:141] Setting up bn21
I0616 10:02:41.823943 26323 net.cpp:148] Top shape: 64 128 13 13 (1384448)
I0616 10:02:41.823950 26323 net.cpp:156] Memory required for data: 50055680
I0616 10:02:41.823968 26323 layer_factory.hpp:77] Creating layer pool2
I0616 10:02:41.823979 26323 net.cpp:91] Creating Layer pool2
I0616 10:02:41.823987 26323 net.cpp:425] pool2 <- bn21
I0616 10:02:41.823994 26323 net.cpp:399] pool2 -> pool2
I0616 10:02:41.824045 26323 net.cpp:141] Setting up pool2
I0616 10:02:41.824057 26323 net.cpp:148] Top shape: 64 128 7 7 (401408)
I0616 10:02:41.824062 26323 net.cpp:156] Memory required for data: 51661312
I0616 10:02:41.824069 26323 layer_factory.hpp:77] Creating layer conv31
I0616 10:02:41.824082 26323 net.cpp:91] Creating Layer conv31
I0616 10:02:41.824090 26323 net.cpp:425] conv31 <- pool2
I0616 10:02:41.824100 26323 net.cpp:399] conv31 -> conv31
I0616 10:02:41.826310 26323 net.cpp:141] Setting up conv31
I0616 10:02:41.826329 26323 net.cpp:148] Top shape: 64 128 7 7 (401408)
I0616 10:02:41.826336 26323 net.cpp:156] Memory required for data: 53266944
I0616 10:02:41.826346 26323 layer_factory.hpp:77] Creating layer relu31
I0616 10:02:41.826355 26323 net.cpp:91] Creating Layer relu31
I0616 10:02:41.826361 26323 net.cpp:425] relu31 <- conv31
I0616 10:02:41.826370 26323 net.cpp:386] relu31 -> conv31 (in-place)
I0616 10:02:41.827129 26323 net.cpp:141] Setting up relu31
I0616 10:02:41.827147 26323 net.cpp:148] Top shape: 64 128 7 7 (401408)
I0616 10:02:41.827153 26323 net.cpp:156] Memory required for data: 54872576
I0616 10:02:41.827172 26323 layer_factory.hpp:77] Creating layer bn31
I0616 10:02:41.827196 26323 net.cpp:91] Creating Layer bn31
I0616 10:02:41.827204 26323 net.cpp:425] bn31 <- conv31
I0616 10:02:41.827214 26323 net.cpp:399] bn31 -> bn31
I0616 10:02:41.827445 26323 net.cpp:141] Setting up bn31
I0616 10:02:41.827455 26323 net.cpp:148] Top shape: 64 128 7 7 (401408)
I0616 10:02:41.827461 26323 net.cpp:156] Memory required for data: 56478208
I0616 10:02:41.827477 26323 layer_factory.hpp:77] Creating layer fc4
I0616 10:02:41.827491 26323 net.cpp:91] Creating Layer fc4
I0616 10:02:41.827498 26323 net.cpp:425] fc4 <- bn31
I0616 10:02:41.827508 26323 net.cpp:399] fc4 -> fc4
I0616 10:02:41.894574 26323 net.cpp:141] Setting up fc4
I0616 10:02:41.894634 26323 net.cpp:148] Top shape: 64 1024 (65536)
I0616 10:02:41.894641 26323 net.cpp:156] Memory required for data: 56740352
I0616 10:02:41.894660 26323 layer_factory.hpp:77] Creating layer relu4
I0616 10:02:41.894676 26323 net.cpp:91] Creating Layer relu4
I0616 10:02:41.894685 26323 net.cpp:425] relu4 <- fc4
I0616 10:02:41.894697 26323 net.cpp:386] relu4 -> fc4 (in-place)
I0616 10:02:41.894812 26323 net.cpp:141] Setting up relu4
I0616 10:02:41.894824 26323 net.cpp:148] Top shape: 64 1024 (65536)
I0616 10:02:41.894852 26323 net.cpp:156] Memory required for data: 57002496
I0616 10:02:41.894878 26323 layer_factory.hpp:77] Creating layer drop4
I0616 10:02:41.894927 26323 net.cpp:91] Creating Layer drop4
I0616 10:02:41.894934 26323 net.cpp:425] drop4 <- fc4
I0616 10:02:41.894943 26323 net.cpp:386] drop4 -> fc4 (in-place)
I0616 10:02:41.894989 26323 net.cpp:141] Setting up drop4
I0616 10:02:41.894999 26323 net.cpp:148] Top shape: 64 1024 (65536)
I0616 10:02:41.895004 26323 net.cpp:156] Memory required for data: 57264640
I0616 10:02:41.895018 26323 layer_factory.hpp:77] Creating layer fc5
I0616 10:02:41.895032 26323 net.cpp:91] Creating Layer fc5
I0616 10:02:41.895038 26323 net.cpp:425] fc5 <- fc4
I0616 10:02:41.895048 26323 net.cpp:399] fc5 -> fc5
I0616 10:02:41.937196 26323 net.cpp:141] Setting up fc5
I0616 10:02:41.937219 26323 net.cpp:148] Top shape: 64 1024 (65536)
I0616 10:02:41.937227 26323 net.cpp:156] Memory required for data: 57526784
I0616 10:02:41.937237 26323 layer_factory.hpp:77] Creating layer relu5
I0616 10:02:41.937247 26323 net.cpp:91] Creating Layer relu5
I0616 10:02:41.937254 26323 net.cpp:425] relu5 <- fc5
I0616 10:02:41.937263 26323 net.cpp:386] relu5 -> fc5 (in-place)
I0616 10:02:41.937368 26323 net.cpp:141] Setting up relu5
I0616 10:02:41.937381 26323 net.cpp:148] Top shape: 64 1024 (65536)
I0616 10:02:41.937386 26323 net.cpp:156] Memory required for data: 57788928
I0616 10:02:41.937394 26323 layer_factory.hpp:77] Creating layer drop5
I0616 10:02:41.937417 26323 net.cpp:91] Creating Layer drop5
I0616 10:02:41.937424 26323 net.cpp:425] drop5 <- fc5
I0616 10:02:41.937433 26323 net.cpp:386] drop5 -> fc5 (in-place)
I0616 10:02:41.937464 26323 net.cpp:141] Setting up drop5
I0616 10:02:41.937474 26323 net.cpp:148] Top shape: 64 1024 (65536)
I0616 10:02:41.937480 26323 net.cpp:156] Memory required for data: 58051072
I0616 10:02:41.937485 26323 layer_factory.hpp:77] Creating layer fc5_drop5_0_split
I0616 10:02:41.937502 26323 net.cpp:91] Creating Layer fc5_drop5_0_split
I0616 10:02:41.937510 26323 net.cpp:425] fc5_drop5_0_split <- fc5
I0616 10:02:41.937517 26323 net.cpp:399] fc5_drop5_0_split -> fc5_drop5_0_split_0
I0616 10:02:41.937527 26323 net.cpp:399] fc5_drop5_0_split -> fc5_drop5_0_split_1
I0616 10:02:41.937572 26323 net.cpp:141] Setting up fc5_drop5_0_split
I0616 10:02:41.937582 26323 net.cpp:148] Top shape: 64 1024 (65536)
I0616 10:02:41.937589 26323 net.cpp:148] Top shape: 64 1024 (65536)
I0616 10:02:41.937594 26323 net.cpp:156] Memory required for data: 58575360
I0616 10:02:41.937600 26323 layer_factory.hpp:77] Creating layer conv11_p
I0616 10:02:41.937619 26323 net.cpp:91] Creating Layer conv11_p
I0616 10:02:41.937628 26323 net.cpp:425] conv11_p <- data_p
I0616 10:02:41.937638 26323 net.cpp:399] conv11_p -> conv11_p
I0616 10:02:41.939013 26323 net.cpp:141] Setting up conv11_p
I0616 10:02:41.939033 26323 net.cpp:148] Top shape: 64 64 24 24 (2359296)
I0616 10:02:41.939039 26323 net.cpp:156] Memory required for data: 68012544
I0616 10:02:41.939048 26323 net.cpp:485] Sharing parameters 'conv11_w' owned by layer 'conv11', param index 0
I0616 10:02:41.939055 26323 net.cpp:485] Sharing parameters 'conv11_b' owned by layer 'conv11', param index 1
I0616 10:02:41.939062 26323 layer_factory.hpp:77] Creating layer relu11_p
I0616 10:02:41.939080 26323 net.cpp:91] Creating Layer relu11_p
I0616 10:02:41.939088 26323 net.cpp:425] relu11_p <- conv11_p
I0616 10:02:41.939097 26323 net.cpp:386] relu11_p -> conv11_p (in-place)
I0616 10:02:41.939254 26323 net.cpp:141] Setting up relu11_p
I0616 10:02:41.939266 26323 net.cpp:148] Top shape: 64 64 24 24 (2359296)
I0616 10:02:41.939272 26323 net.cpp:156] Memory required for data: 77449728
I0616 10:02:41.939280 26323 layer_factory.hpp:77] Creating layer bn11_p
I0616 10:02:41.939294 26323 net.cpp:91] Creating Layer bn11_p
I0616 10:02:41.939301 26323 net.cpp:425] bn11_p <- conv11_p
I0616 10:02:41.939311 26323 net.cpp:399] bn11_p -> bn11_p
I0616 10:02:41.939571 26323 net.cpp:141] Setting up bn11_p
I0616 10:02:41.939582 26323 net.cpp:148] Top shape: 64 64 24 24 (2359296)
I0616 10:02:41.939596 26323 net.cpp:156] Memory required for data: 86886912
I0616 10:02:41.939620 26323 layer_factory.hpp:77] Creating layer pool1_p
I0616 10:02:41.939641 26323 net.cpp:91] Creating Layer pool1_p
I0616 10:02:41.939647 26323 net.cpp:425] pool1_p <- bn11_p
I0616 10:02:41.939657 26323 net.cpp:399] pool1_p -> pool1_p
I0616 10:02:41.939713 26323 net.cpp:141] Setting up pool1_p
I0616 10:02:41.939724 26323 net.cpp:148] Top shape: 64 64 13 13 (692224)
I0616 10:02:41.939730 26323 net.cpp:156] Memory required for data: 89655808
I0616 10:02:41.939736 26323 layer_factory.hpp:77] Creating layer conv21_p
I0616 10:02:41.939752 26323 net.cpp:91] Creating Layer conv21_p
I0616 10:02:41.939759 26323 net.cpp:425] conv21_p <- pool1_p
I0616 10:02:41.939770 26323 net.cpp:399] conv21_p -> conv21_p
I0616 10:02:41.942311 26323 net.cpp:141] Setting up conv21_p
I0616 10:02:41.942333 26323 net.cpp:148] Top shape: 64 128 13 13 (1384448)
I0616 10:02:41.942339 26323 net.cpp:156] Memory required for data: 95193600
I0616 10:02:41.942348 26323 net.cpp:485] Sharing parameters 'conv21_w' owned by layer 'conv21', param index 0
I0616 10:02:41.942355 26323 net.cpp:485] Sharing parameters 'conv21_b' owned by layer 'conv21', param index 1
I0616 10:02:41.942361 26323 layer_factory.hpp:77] Creating layer relu21_p
I0616 10:02:41.942371 26323 net.cpp:91] Creating Layer relu21_p
I0616 10:02:41.942378 26323 net.cpp:425] relu21_p <- conv21_p
I0616 10:02:41.942387 26323 net.cpp:386] relu21_p -> conv21_p (in-place)
I0616 10:02:41.942526 26323 net.cpp:141] Setting up relu21_p
I0616 10:02:41.942539 26323 net.cpp:148] Top shape: 64 128 13 13 (1384448)
I0616 10:02:41.942545 26323 net.cpp:156] Memory required for data: 100731392
I0616 10:02:41.942564 26323 layer_factory.hpp:77] Creating layer bn21_p
I0616 10:02:41.942576 26323 net.cpp:91] Creating Layer bn21_p
I0616 10:02:41.942584 26323 net.cpp:425] bn21_p <- conv21_p
I0616 10:02:41.942592 26323 net.cpp:399] bn21_p -> bn21_p
I0616 10:02:41.942843 26323 net.cpp:141] Setting up bn21_p
I0616 10:02:41.942855 26323 net.cpp:148] Top shape: 64 128 13 13 (1384448)
I0616 10:02:41.942862 26323 net.cpp:156] Memory required for data: 106269184
I0616 10:02:41.942881 26323 layer_factory.hpp:77] Creating layer pool2_p
I0616 10:02:41.942899 26323 net.cpp:91] Creating Layer pool2_p
I0616 10:02:41.942906 26323 net.cpp:425] pool2_p <- bn21_p
I0616 10:02:41.942915 26323 net.cpp:399] pool2_p -> pool2_p
I0616 10:02:41.942970 26323 net.cpp:141] Setting up pool2_p
I0616 10:02:41.942981 26323 net.cpp:148] Top shape: 64 128 7 7 (401408)
I0616 10:02:41.942986 26323 net.cpp:156] Memory required for data: 107874816
I0616 10:02:41.942992 26323 layer_factory.hpp:77] Creating layer conv31_p
I0616 10:02:41.943006 26323 net.cpp:91] Creating Layer conv31_p
I0616 10:02:41.943013 26323 net.cpp:425] conv31_p <- pool2_p
I0616 10:02:41.943025 26323 net.cpp:399] conv31_p -> conv31_p
I0616 10:02:41.945534 26323 net.cpp:141] Setting up conv31_p
I0616 10:02:41.945554 26323 net.cpp:148] Top shape: 64 128 7 7 (401408)
I0616 10:02:41.945560 26323 net.cpp:156] Memory required for data: 109480448
I0616 10:02:41.945567 26323 net.cpp:485] Sharing parameters 'conv31_w' owned by layer 'conv31', param index 0
I0616 10:02:41.945575 26323 net.cpp:485] Sharing parameters 'conv31_b' owned by layer 'conv31', param index 1
I0616 10:02:41.945581 26323 layer_factory.hpp:77] Creating layer relu31_p
I0616 10:02:41.945597 26323 net.cpp:91] Creating Layer relu31_p
I0616 10:02:41.945605 26323 net.cpp:425] relu31_p <- conv31_p
I0616 10:02:41.945614 26323 net.cpp:386] relu31_p -> conv31_p (in-place)
I0616 10:02:41.945739 26323 net.cpp:141] Setting up relu31_p
I0616 10:02:41.945751 26323 net.cpp:148] Top shape: 64 128 7 7 (401408)
I0616 10:02:41.945756 26323 net.cpp:156] Memory required for data: 111086080
I0616 10:02:41.945766 26323 layer_factory.hpp:77] Creating layer bn31_p
I0616 10:02:41.945788 26323 net.cpp:91] Creating Layer bn31_p
I0616 10:02:41.945796 26323 net.cpp:425] bn31_p <- conv31_p
I0616 10:02:41.945806 26323 net.cpp:399] bn31_p -> bn31_p
I0616 10:02:41.946069 26323 net.cpp:141] Setting up bn31_p
I0616 10:02:41.946090 26323 net.cpp:148] Top shape: 64 128 7 7 (401408)
I0616 10:02:41.946096 26323 net.cpp:156] Memory required for data: 112691712
I0616 10:02:41.946121 26323 layer_factory.hpp:77] Creating layer fc4_p
I0616 10:02:41.946135 26323 net.cpp:91] Creating Layer fc4_p
I0616 10:02:41.946142 26323 net.cpp:425] fc4_p <- bn31_p
I0616 10:02:41.946156 26323 net.cpp:399] fc4_p -> fc4_p
I0616 10:02:42.014427 26323 net.cpp:141] Setting up fc4_p
I0616 10:02:42.014485 26323 net.cpp:148] Top shape: 64 1024 (65536)
I0616 10:02:42.014492 26323 net.cpp:156] Memory required for data: 112953856
I0616 10:02:42.014505 26323 net.cpp:485] Sharing parameters 'fc4_w' owned by layer 'fc4', param index 0
I0616 10:02:42.014515 26323 net.cpp:485] Sharing parameters 'fc4_b' owned by layer 'fc4', param index 1
I0616 10:02:42.014523 26323 layer_factory.hpp:77] Creating layer relu4_p
I0616 10:02:42.014538 26323 net.cpp:91] Creating Layer relu4_p
I0616 10:02:42.014545 26323 net.cpp:425] relu4_p <- fc4_p
I0616 10:02:42.014561 26323 net.cpp:386] relu4_p -> fc4_p (in-place)
I0616 10:02:42.014684 26323 net.cpp:141] Setting up relu4_p
I0616 10:02:42.014698 26323 net.cpp:148] Top shape: 64 1024 (65536)
I0616 10:02:42.014704 26323 net.cpp:156] Memory required for data: 113216000
I0616 10:02:42.014714 26323 layer_factory.hpp:77] Creating layer drop4_p
I0616 10:02:42.014744 26323 net.cpp:91] Creating Layer drop4_p
I0616 10:02:42.014751 26323 net.cpp:425] drop4_p <- fc4_p
I0616 10:02:42.014760 26323 net.cpp:386] drop4_p -> fc4_p (in-place)
I0616 10:02:42.014801 26323 net.cpp:141] Setting up drop4_p
I0616 10:02:42.014811 26323 net.cpp:148] Top shape: 64 1024 (65536)
I0616 10:02:42.014816 26323 net.cpp:156] Memory required for data: 113478144
I0616 10:02:42.014822 26323 layer_factory.hpp:77] Creating layer fc5_p
I0616 10:02:42.014843 26323 net.cpp:91] Creating Layer fc5_p
I0616 10:02:42.014849 26323 net.cpp:425] fc5_p <- fc4_p
I0616 10:02:42.014861 26323 net.cpp:399] fc5_p -> fc5_p
I0616 10:02:42.025871 26323 net.cpp:141] Setting up fc5_p
I0616 10:02:42.025892 26323 net.cpp:148] Top shape: 64 1024 (65536)
I0616 10:02:42.025897 26323 net.cpp:156] Memory required for data: 113740288
I0616 10:02:42.025905 26323 net.cpp:485] Sharing parameters 'fc5_w' owned by layer 'fc5', param index 0
I0616 10:02:42.025913 26323 net.cpp:485] Sharing parameters 'fc5_b' owned by layer 'fc5', param index 1
I0616 10:02:42.025919 26323 layer_factory.hpp:77] Creating layer relu5_p
I0616 10:02:42.025928 26323 net.cpp:91] Creating Layer relu5_p
I0616 10:02:42.025934 26323 net.cpp:425] relu5_p <- fc5_p
I0616 10:02:42.025943 26323 net.cpp:386] relu5_p -> fc5_p (in-place)
I0616 10:02:42.026056 26323 net.cpp:141] Setting up relu5_p
I0616 10:02:42.026067 26323 net.cpp:148] Top shape: 64 1024 (65536)
I0616 10:02:42.026072 26323 net.cpp:156] Memory required for data: 114002432
I0616 10:02:42.026080 26323 layer_factory.hpp:77] Creating layer drop5_p
I0616 10:02:42.026098 26323 net.cpp:91] Creating Layer drop5_p
I0616 10:02:42.026106 26323 net.cpp:425] drop5_p <- fc5_p
I0616 10:02:42.026115 26323 net.cpp:386] drop5_p -> fc5_p (in-place)
I0616 10:02:42.026152 26323 net.cpp:141] Setting up drop5_p
I0616 10:02:42.026162 26323 net.cpp:148] Top shape: 64 1024 (65536)
I0616 10:02:42.026168 26323 net.cpp:156] Memory required for data: 114264576
I0616 10:02:42.026175 26323 layer_factory.hpp:77] Creating layer fc5_p_drop5_p_0_split
I0616 10:02:42.026185 26323 net.cpp:91] Creating Layer fc5_p_drop5_p_0_split
I0616 10:02:42.026190 26323 net.cpp:425] fc5_p_drop5_p_0_split <- fc5_p
I0616 10:02:42.026199 26323 net.cpp:399] fc5_p_drop5_p_0_split -> fc5_p_drop5_p_0_split_0
I0616 10:02:42.026211 26323 net.cpp:399] fc5_p_drop5_p_0_split -> fc5_p_drop5_p_0_split_1
I0616 10:02:42.026260 26323 net.cpp:141] Setting up fc5_p_drop5_p_0_split
I0616 10:02:42.026271 26323 net.cpp:148] Top shape: 64 1024 (65536)
I0616 10:02:42.026278 26323 net.cpp:148] Top shape: 64 1024 (65536)
I0616 10:02:42.026283 26323 net.cpp:156] Memory required for data: 114788864
I0616 10:02:42.026305 26323 layer_factory.hpp:77] Creating layer pred
I0616 10:02:42.026331 26323 net.cpp:91] Creating Layer pred
I0616 10:02:42.026338 26323 net.cpp:425] pred <- fc5_drop5_0_split_0
I0616 10:02:42.026350 26323 net.cpp:399] pred -> pred
I0616 10:02:42.026772 26323 net.cpp:141] Setting up pred
I0616 10:02:42.026785 26323 net.cpp:148] Top shape: 64 7 (448)
I0616 10:02:42.026792 26323 net.cpp:156] Memory required for data: 114790656
I0616 10:02:42.026800 26323 layer_factory.hpp:77] Creating layer pred_pred_0_split
I0616 10:02:42.026810 26323 net.cpp:91] Creating Layer pred_pred_0_split
I0616 10:02:42.026816 26323 net.cpp:425] pred_pred_0_split <- pred
I0616 10:02:42.026825 26323 net.cpp:399] pred_pred_0_split -> pred_pred_0_split_0
I0616 10:02:42.026835 26323 net.cpp:399] pred_pred_0_split -> pred_pred_0_split_1
I0616 10:02:42.026885 26323 net.cpp:141] Setting up pred_pred_0_split
I0616 10:02:42.026895 26323 net.cpp:148] Top shape: 64 7 (448)
I0616 10:02:42.026902 26323 net.cpp:148] Top shape: 64 7 (448)
I0616 10:02:42.026907 26323 net.cpp:156] Memory required for data: 114794240
I0616 10:02:42.026913 26323 layer_factory.hpp:77] Creating layer pred_p
I0616 10:02:42.026932 26323 net.cpp:91] Creating Layer pred_p
I0616 10:02:42.026940 26323 net.cpp:425] pred_p <- fc5_p_drop5_p_0_split_0
I0616 10:02:42.026954 26323 net.cpp:399] pred_p -> pred_p
I0616 10:02:42.027356 26323 net.cpp:141] Setting up pred_p
I0616 10:02:42.027369 26323 net.cpp:148] Top shape: 64 7 (448)
I0616 10:02:42.027374 26323 net.cpp:156] Memory required for data: 114796032
I0616 10:02:42.027380 26323 net.cpp:485] Sharing parameters 'pred_exp_w' owned by layer 'pred', param index 0
I0616 10:02:42.027387 26323 net.cpp:485] Sharing parameters 'pred_exp_b' owned by layer 'pred', param index 1
I0616 10:02:42.027393 26323 layer_factory.hpp:77] Creating layer pred_p_pred_p_0_split
I0616 10:02:42.027402 26323 net.cpp:91] Creating Layer pred_p_pred_p_0_split
I0616 10:02:42.027408 26323 net.cpp:425] pred_p_pred_p_0_split <- pred_p
I0616 10:02:42.027418 26323 net.cpp:399] pred_p_pred_p_0_split -> pred_p_pred_p_0_split_0
I0616 10:02:42.027429 26323 net.cpp:399] pred_p_pred_p_0_split -> pred_p_pred_p_0_split_1
I0616 10:02:42.027478 26323 net.cpp:141] Setting up pred_p_pred_p_0_split
I0616 10:02:42.027489 26323 net.cpp:148] Top shape: 64 7 (448)
I0616 10:02:42.027496 26323 net.cpp:148] Top shape: 64 7 (448)
I0616 10:02:42.027501 26323 net.cpp:156] Memory required for data: 114799616
I0616 10:02:42.027508 26323 layer_factory.hpp:77] Creating layer loss_contrastive
I0616 10:02:42.027520 26323 net.cpp:91] Creating Layer loss_contrastive
I0616 10:02:42.027528 26323 net.cpp:425] loss_contrastive <- fc5_drop5_0_split_1
I0616 10:02:42.027534 26323 net.cpp:425] loss_contrastive <- fc5_p_drop5_p_0_split_1
…
I0616 10:02:42.039548 26323 net.cpp:313] The NetState phase (1) differed from the phase (0) specified by a rule in layer loss_exp_p
I0616 10:02:42.040143 26323 net.cpp:49] Initializing net from parameters: 
name: "SiameseNet"
state {
  phase: TEST
}
layer {
  name: "data_p"
  type: "ImageData"
  top: "data_p"
  top: "label2"
  include {
    phase: TEST
  }
  transform_param {
    crop_size: 48
  }
  image_data_param {
    source: "/home/zibo/Data/Database/SFEW/Exp_multi/Train/train"
    batch_size: 1230
    shuffle: false
    new_height: 60
    new_width: 60
    is_color: false
    root_folder: "/home/zibo/Data/Database/SFEW_60x60/"
    image_num: 1
    label_dim: 1
  }
}
layer {
  name: "silence"
  type: "Silence"
  bottom: "data_p"
  include {
    phase: TEST
  }
}
layer {
  name: "silence"
  type: "Silence"
  bottom: "label2"
  include {
    phase: TEST
  }
}
layer {
  name: "data"
  type: "ImageData"
  top: "data"
  top: "label1"
  include {
    phase: TEST
  }
  transform_param {
    crop_size: 48
  }
  image_data_param {
    source: "/home/zibo/Data/Database/SFEW/Exp_multi/Train/test"
    batch_size: 410
    shuffle: false
    new_height: 60
    new_width: 60
    is_color: false
    root_folder: "/home/zibo/Data/Database/SFEW_60x60/"
    image_num: 1
    label_dim: 1
  }
}
layer {
  name: "conv11"
  type: "Convolution"
  bottom: "data"
  top: "conv11"
  param {
    name: "conv11_w"
    lr_mult: 1
    decay_mult: 1
  }
  param {
    name: "conv11_b"
    lr_mult: 2
    decay_mult: 0
  }
  convolution_param {
    num_output: 64
    pad: 1
    kernel_size: 3
    stride: 2
    weight_filler {
      type: "xavier"
    }
    bias_filler {
      type: "constant"
    }
  }
}
layer {
  name: "relu11"
  type: "PReLU"
  bottom: "conv11"
  top: "conv11"
}
layer {
  name: "bn11"
  type: "BatchNorm"
  bottom: "conv11"
  top: "bn11"
  param {
    lr_mult: 0
  }
  param {
    lr_mult: 0
  }
  param {
    lr_mult: 0
  }
}
layer {
  name: "pool1"
  type: "Pooling"
  bottom: "bn11"
  top: "pool1"
  pooling_param {
    pool: MAX
    kernel_size: 3
    stride: 2
    pad: 1
  }
}
layer {
  name: "conv21"
  type: "Convolution"
  bottom: "pool1"
  top: "conv21"
  param {
    name: "conv21_w"
    lr_mult: 1
    decay_mult: 1
  }
  param {
    name: "conv21_b"
    lr_mult: 2
    decay_mult: 0
  }
  convolution_param {
    num_output: 128
    pad: 1
    kernel_size: 3
    weight_filler {
      type: "xavier"
    }
    bias_filler {
      type: "constant"
    }
  }
}
layer {
  name: "relu21"
  type: "PReLU"
  bottom: "conv21"
  top: "conv21"
}
layer {
  name: "bn21"
  type: "BatchNorm"
  bottom: "conv21"
  top: "bn21"
  param {
    lr_mult: 0
  }
  param {
    lr_mult: 0
  }
  param {
    lr_mult: 0
  }
}
layer {
  name: "pool2"
  type: "Pooling"
  bottom: "bn21"
  top: "pool2"
  pooling_param {
    pool: MAX
    kernel_size: 3
    stride: 2
    pad: 1
  }
}
layer {
  name: "conv31"
  type: "Convolution"
  bottom: "pool2"
  top: "conv31"
  param {
    name: "conv31_w"
    lr_mult: 1
    decay_mult: 1
  }
  param {
    name: "conv31_b"
    lr_mult: 2
    decay_mult: 0
  }
  convolution_param {
    num_output: 128
    pad: 1
    kernel_size: 3
    weight_filler {
      type: "xavier"
    }
    bias_filler {
      type: "constant"
    }
  }
}
layer {
  name: "relu31"
  type: "PReLU"
  bottom: "conv31"
  top: "conv31"
}
layer {
  name: "bn31"
  type: "BatchNorm"
  bottom: "conv31"
  top: "bn31"
  param {
    lr_mult: 0
  }
  param {
    lr_mult: 0
  }
  param {
    lr_mult: 0
  }
}
layer {
  name: "fc4"
  type: "InnerProduct"
  bottom: "bn31"
  top: "fc4"
  param {
    name: "fc4_w"
    lr_mult: 1
    decay_mult: 1
  }
  param {
    name: "fc4_b"
    lr_mult: 2
    decay_mult: 0
  }
  inner_product_param {
    num_output: 1024
    weight_filler {
      type: "xavier"
    }
    bias_filler {
      type: "constant"
    }
  }
}
layer {
  name: "relu4"
  type: "PReLU"
  bottom: "fc4"
  top: "fc4"
}
layer {
  name: "fc5"
  type: "InnerProduct"
  bottom: "fc4"
  top: "fc5"
  param {
    name: "fc5_w"
    lr_mult: 1
    decay_mult: 1
  }
  param {
    name: "fc5_b"
    lr_mult: 2
    decay_mult: 0
  }
  inner_product_param {
    num_output: 1024
    weight_filler {
      type: "gaussian"
      std: 0.0001
    }
    bias_filler {
      type: "constant"
    }
  }
}
layer {
  name: "relu5"
  type: "PReLU"
  bottom: "fc5"
  top: "fc5"
}
layer {
  name: "conv11_p"
  type: "Convolution"
  bottom: "data"
  top: "conv11_p"
  param {
    name: "conv11_w"
    lr_mult: 1
    decay_mult: 1
  }
  param {
    name: "conv11_b"
    lr_mult: 2
    decay_mult: 0
  }
  include {
    phase: TEST
  }
  convolution_param {
    num_output: 64
    pad: 1
    kernel_size: 3
    stride: 2
    weight_filler {
      type: "xavier"
    }
    bias_filler {
      type: "constant"
    }
  }
}
layer {
  name: "relu11_p"
  type: "PReLU"
  bottom: "conv11_p"
  top: "conv11_p"
}
layer {
  name: "bn11_p"
  type: "BatchNorm"
  bottom: "conv11_p"
  top: "bn11_p"
  param {
    lr_mult: 0
  }
  param {
    lr_mult: 0
  }
  param {
    lr_mult: 0
  }
}
layer {
  name: "pool1_p"
  type: "Pooling"
  bottom: "bn11_p"
  top: "pool1_p"
  pooling_param {
    pool: MAX
    kernel_size: 3
    stride: 2
    pad: 1
  }
}
layer {
  name: "conv21_p"
  type: "Convolution"
  bottom: "pool1_p"
  top: "conv21_p"
  param {
    name: "conv21_w"
    lr_mult: 1
    decay_mult: 1
  }
  param {
    name: "conv21_b"
    lr_mult: 2
    decay_mult: 0
  }
  convolution_param {
    num_output: 128
    pad: 1
    kernel_size: 3
    weight_filler {
      type: "xavier"
    }
    bias_filler {
      type: "constant"
    }
  }
}
layer {
  name: "relu21_p"
  type: "PReLU"
  bottom: "conv21_p"
  top: "conv21_p"
}
layer {
  name: "bn21_p"
  type: "BatchNorm"
  bottom: "conv21_p"
  top: "bn21_p"
  param {
    lr_mult: 0
  }
  param {
    lr_mult: 0
  }
  param {
    lr_mult: 0
  }
}
layer {
  name: "pool2_p"
  type: "Pooling"
  bottom: "bn21_p"
  top: "pool2_p"
  pooling_param {
    pool: MAX
    kernel_size: 3
    stride: 2
    pad: 1
  }
}
layer {
  name: "conv31_p"
  type: "Convolution"
  bottom: "pool2_p"
  top: "conv31_p"
  param {
    name: "conv31_w"
    lr_mult: 1
    decay_mult: 1
  }
  param {
    name: "conv31_b"
    lr_mult: 2
    decay_mult: 0
  }
  convolution_param {
    num_output: 128
    pad: 1
    kernel_size: 3
    weight_filler {
      type: "xavier"
    }
    bias_filler {
      type: "constant"
    }
  }
}
layer {
  name: "relu31_p"
  type: "PReLU"
  bottom: "conv31_p"
  top: "conv31_p"
}
layer {
  name: "bn31_p"
  type: "BatchNorm"
  bottom: "conv31_p"
  top: "bn31_p"
  param {
    lr_mult: 0
  }
  param {
    lr_mult: 0
  }
  param {
    lr_mult: 0
  }
}
layer {
  name: "fc4_p"
  type: "InnerProduct"
  bottom: "bn31_p"
  top: "fc4_p"
  param {
    name: "fc4_w"
    lr_mult: 1
    decay_mult: 1
  }
  param {
    name: "fc4_b"
    lr_mult: 2
    decay_mult: 0
  }
  inner_product_param {
    num_output: 1024
    weight_filler {
      type: "xavier"
    }
    bias_filler {
      type: "constant"
    }
  }
}
layer {
  name: "relu4_p"
  type: "PReLU"
  bottom: "fc4_p"
  top: "fc4_p"
}
layer {
  name: "fc5_p"
  type: "InnerProduct"
  bottom: "fc4_p"
  top: "fc5_p"
  param {
    name: "fc5_w"
    lr_mult: 1
    decay_mult: 1
  }
  param {
    name: "fc5_b"
    lr_mult: 2
    decay_mult: 0
  }
  inner_product_param {
    num_output: 1024
    weight_filler {
      type: "xavier"
    }
    bias_filler {
      type: "constant"
    }
  }
}
layer {
  name: "relu5_p"
  type: "PReLU"
  bottom: "fc5_p"
  top: "fc5_p"
}
layer {
  name: "pred"
  type: "InnerProduct"
  bottom: "fc5"
  top: "pred"
  param {
    name: "pred_exp_w"
    lr_mult: 1
    decay_mult: 1
  }
  param {
    name: "pred_exp_b"
    lr_mult: 2
    decay_mult: 0
  }
  inner_product_param {
    num_output: 7
    weight_filler {
      type: "gaussian"
      std: 0.01
    }
    bias_filler {
      type: "constant"
      value: 0
    }
  }
}
layer {
  name: "pred_p"
  type: "InnerProduct"
  bottom: "fc5_p"
  top: "pred_p"
  param {
    name: "pred_exp_w"
    lr_mult: 1
    decay_mult: 1
  }
  param {
    name: "pred_exp_b"
    lr_mult: 2
    decay_mult: 0
  }
  inner_product_param {
    num_output: 7
    weight_filler {
      type: "gaussian"
      std: 0.01
    }
    bias_filler {
      type: "constant"
      value: 0
    }
  }
}
layer {
  name: "score"
  type: "Score"
  bottom: "pred"
  bottom: "label1"
  top: "score"
  include {
    phase: TEST
  }
  score_param {
    dest_file: "examples/FER2013/results/results_exp"
  }
}
layer {
  name: "accuracy_exp"
  type: "Accuracy"
  bottom: "pred"
  bottom: "label1"
  top: "accuracy_exp"
}
layer {
  name: "accuracy_exp_p"
  type: "Accuracy"
  bottom: "pred_p"
  bottom: "label1"
  top: "accuracy_exp_p"
  include {
    phase: TEST
  }
}
I0616 10:02:42.040406 26323 layer_factory.hpp:77] Creating layer data_p
I0616 10:02:42.040432 26323 net.cpp:91] Creating Layer data_p
I0616 10:02:42.040441 26323 net.cpp:399] data_p -> data_p
I0616 10:02:42.040457 26323 net.cpp:399] data_p -> label2
I0616 10:02:42.040470 26323 image_data_layer.cpp:40] Opening file /home/zibo/Data/Database/SFEW/Exp_multi/Train/train
I0616 10:02:42.042233 26323 image_data_layer.cpp:75] A total of 868 images.
I0616 10:02:42.042619 26323 image_data_layer.cpp:106] output data size: 1230,1,48,48
I0616 10:02:42.068955 26323 net.cpp:141] Setting up data_p
I0616 10:02:42.069011 26323 net.cpp:148] Top shape: 1230 1 48 48 (2833920)
I0616 10:02:42.069021 26323 net.cpp:148] Top shape: 1230 1 (1230)
I0616 10:02:42.069027 26323 net.cpp:156] Memory required for data: 11340600
I0616 10:02:42.069039 26323 layer_factory.hpp:77] Creating layer silence
I0616 10:02:42.069066 26323 net.cpp:91] Creating Layer silence
I0616 10:02:42.069074 26323 net.cpp:425] silence <- data_p
I0616 10:02:42.069087 26323 net.cpp:141] Setting up silence
I0616 10:02:42.069092 26323 net.cpp:156] Memory required for data: 11340600
I0616 10:02:42.069097 26323 layer_factory.hpp:77] Creating layer silence
I0616 10:02:42.069108 26323 net.cpp:91] Creating Layer silence
I0616 10:02:42.069114 26323 net.cpp:425] silence <- label2
I0616 10:02:42.069123 26323 net.cpp:141] Setting up silence
I0616 10:02:42.069128 26323 net.cpp:156] Memory required for data: 11340600
I0616 10:02:42.069133 26323 layer_factory.hpp:77] Creating layer data
I0616 10:02:42.069162 26323 net.cpp:91] Creating Layer data
I0616 10:02:42.069174 26323 net.cpp:399] data -> data
I0616 10:02:42.069195 26323 net.cpp:399] data -> label1
I0616 10:02:42.069211 26323 image_data_layer.cpp:40] Opening file /home/zibo/Data/Database/SFEW/Exp_multi/Train/test
I0616 10:02:42.070106 26323 image_data_layer.cpp:75] A total of 410 images.
I0616 10:02:42.070516 26323 image_data_layer.cpp:106] output data size: 410,1,48,48
I0616 10:02:42.096077 26323 net.cpp:141] Setting up data
I0616 10:02:42.096151 26323 net.cpp:148] Top shape: 410 1 48 48 (944640)
I0616 10:02:42.096166 26323 net.cpp:148] Top shape: 410 1 (410)
I0616 10:02:42.096176 26323 net.cpp:156] Memory required for data: 15120800
I0616 10:02:42.096191 26323 layer_factory.hpp:77] Creating layer data_data_0_split
I0616 10:02:42.096220 26323 net.cpp:91] Creating Layer data_data_0_split
I0616 10:02:42.096232 26323 net.cpp:425] data_data_0_split <- data
I0616 10:02:42.096258 26323 net.cpp:399] data_data_0_split -> data_data_0_split_0
I0616 10:02:42.096287 26323 net.cpp:399] data_data_0_split -> data_data_0_split_1
I0616 10:02:42.096459 26323 net.cpp:141] Setting up data_data_0_split
I0616 10:02:42.096485 26323 net.cpp:148] Top shape: 410 1 48 48 (944640)
I0616 10:02:42.096498 26323 net.cpp:148] Top shape: 410 1 48 48 (944640)
I0616 10:02:42.096508 26323 net.cpp:156] Memory required for data: 22677920
I0616 10:02:42.096520 26323 layer_factory.hpp:77] Creating layer label1_data_1_split
I0616 10:02:42.096537 26323 net.cpp:91] Creating Layer label1_data_1_split
I0616 10:02:42.096549 26323 net.cpp:425] label1_data_1_split <- label1
I0616 10:02:42.096573 26323 net.cpp:399] label1_data_1_split -> label1_data_1_split_0
I0616 10:02:42.096601 26323 net.cpp:399] label1_data_1_split -> label1_data_1_split_1
I0616 10:02:42.096621 26323 net.cpp:399] label1_data_1_split -> label1_data_1_split_2
I0616 10:02:42.096781 26323 net.cpp:141] Setting up label1_data_1_split
I0616 10:02:42.096806 26323 net.cpp:148] Top shape: 410 1 (410)
I0616 10:02:42.096822 26323 net.cpp:148] Top shape: 410 1 (410)
I0616 10:02:42.096834 26323 net.cpp:148] Top shape: 410 1 (410)
I0616 10:02:42.096844 26323 net.cpp:156] Memory required for data: 22682840
I0616 10:02:42.096855 26323 layer_factory.hpp:77] Creating layer conv11
I0616 10:02:42.096896 26323 net.cpp:91] Creating Layer conv11
I0616 10:02:42.096909 26323 net.cpp:425] conv11 <- data_data_0_split_0
I0616 10:02:42.096981 26323 net.cpp:399] conv11 -> conv11
I0616 10:02:42.111124 26323 net.cpp:141] Setting up conv11
I0616 10:02:42.111166 26323 net.cpp:148] Top shape: 410 64 24 24 (15114240)
I0616 10:02:42.111178 26323 net.cpp:156] Memory required for data: 83139800
I0616 10:02:42.111205 26323 layer_factory.hpp:77] Creating layer relu11
I0616 10:02:42.111228 26323 net.cpp:91] Creating Layer relu11
I0616 10:02:42.111240 26323 net.cpp:425] relu11 <- conv11
I0616 10:02:42.111256 26323 net.cpp:386] relu11 -> conv11 (in-place)
I0616 10:02:42.111634 26323 net.cpp:141] Setting up relu11
I0616 10:02:42.111663 26323 net.cpp:148] Top shape: 410 64 24 24 (15114240)
I0616 10:02:42.111675 26323 net.cpp:156] Memory required for data: 143596760
I0616 10:02:42.111696 26323 layer_factory.hpp:77] Creating layer bn11
I0616 10:02:42.111718 26323 net.cpp:91] Creating Layer bn11
I0616 10:02:42.111731 26323 net.cpp:425] bn11 <- conv11
I0616 10:02:42.111750 26323 net.cpp:399] bn11 -> bn11
I0616 10:02:42.112344 26323 net.cpp:141] Setting up bn11
I0616 10:02:42.112373 26323 net.cpp:148] Top shape: 410 64 24 24 (15114240)
I0616 10:02:42.112385 26323 net.cpp:156] Memory required for data: 204053720
I0616 10:02:42.112413 26323 layer_factory.hpp:77] Creating layer pool1
I0616 10:02:42.112434 26323 net.cpp:91] Creating Layer pool1
I0616 10:02:42.112447 26323 net.cpp:425] pool1 <- bn11
I0616 10:02:42.112462 26323 net.cpp:399] pool1 -> pool1
I0616 10:02:42.112568 26323 net.cpp:141] Setting up pool1
I0616 10:02:42.112588 26323 net.cpp:148] Top shape: 410 64 13 13 (4434560)
I0616 10:02:42.112598 26323 net.cpp:156] Memory required for data: 221791960
I0616 10:02:42.112612 26323 layer_factory.hpp:77] Creating layer conv21
I0616 10:02:42.112648 26323 net.cpp:91] Creating Layer conv21
I0616 10:02:42.112660 26323 net.cpp:425] conv21 <- pool1
I0616 10:02:42.112684 26323 net.cpp:399] conv21 -> conv21
I0616 10:02:42.116976 26323 net.cpp:141] Setting up conv21
I0616 10:02:42.117022 26323 net.cpp:148] Top shape: 410 128 13 13 (8869120)
I0616 10:02:42.117034 26323 net.cpp:156] Memory required for data: 257268440
I0616 10:02:42.117051 26323 layer_factory.hpp:77] Creating layer relu21
I0616 10:02:42.117074 26323 net.cpp:91] Creating Layer relu21
I0616 10:02:42.117086 26323 net.cpp:425] relu21 <- conv21
I0616 10:02:42.117105 26323 net.cpp:386] relu21 -> conv21 (in-place)
I0616 10:02:42.117350 26323 net.cpp:141] Setting up relu21
I0616 10:02:42.117374 26323 net.cpp:148] Top shape: 410 128 13 13 (8869120)
I0616 10:02:42.117383 26323 net.cpp:156] Memory required for data: 292744920
I0616 10:02:42.117405 26323 layer_factory.hpp:77] Creating layer bn21
I0616 10:02:42.117429 26323 net.cpp:91] Creating Layer bn21
I0616 10:02:42.117441 26323 net.cpp:425] bn21 <- conv21
I0616 10:02:42.117458 26323 net.cpp:399] bn21 -> bn21
I0616 10:02:42.117975 26323 net.cpp:141] Setting up bn21
I0616 10:02:42.118000 26323 net.cpp:148] Top shape: 410 128 13 13 (8869120)
I0616 10:02:42.118010 26323 net.cpp:156] Memory required for data: 328221400
I0616 10:02:42.118031 26323 layer_factory.hpp:77] Creating layer pool2
I0616 10:02:42.118047 26323 net.cpp:91] Creating Layer pool2
I0616 10:02:42.118058 26323 net.cpp:425] pool2 <- bn21
I0616 10:02:42.118080 26323 net.cpp:399] pool2 -> pool2
I0616 10:02:42.118176 26323 net.cpp:141] Setting up pool2
I0616 10:02:42.118194 26323 net.cpp:148] Top shape: 410 128 7 7 (2571520)
I0616 10:02:42.118207 26323 net.cpp:156] Memory required for data: 338507480
I0616 10:02:42.118216 26323 layer_factory.hpp:77] Creating layer conv31
I0616 10:02:42.118247 26323 net.cpp:91] Creating Layer conv31
I0616 10:02:42.118258 26323 net.cpp:425] conv31 <- pool2
I0616 10:02:42.118299 26323 net.cpp:399] conv31 -> conv31
I0616 10:02:42.122753 26323 net.cpp:141] Setting up conv31
I0616 10:02:42.122788 26323 net.cpp:148] Top shape: 410 128 7 7 (2571520)
I0616 10:02:42.122799 26323 net.cpp:156] Memory required for data: 348793560
I0616 10:02:42.122817 26323 layer_factory.hpp:77] Creating layer relu31
I0616 10:02:42.122838 26323 net.cpp:91] Creating Layer relu31
I0616 10:02:42.122862 26323 net.cpp:425] relu31 <- conv31
I0616 10:02:42.122895 26323 net.cpp:386] relu31 -> conv31 (in-place)
I0616 10:02:42.123126 26323 net.cpp:141] Setting up relu31
I0616 10:02:42.123149 26323 net.cpp:148] Top shape: 410 128 7 7 (2571520)
I0616 10:02:42.123159 26323 net.cpp:156] Memory required for data: 359079640
I0616 10:02:42.123172 26323 layer_factory.hpp:77] Creating layer bn31
I0616 10:02:42.123199 26323 net.cpp:91] Creating Layer bn31
I0616 10:02:42.123214 26323 net.cpp:425] bn31 <- conv31
I0616 10:02:42.123229 26323 net.cpp:399] bn31 -> bn31
I0616 10:02:42.123750 26323 net.cpp:141] Setting up bn31
I0616 10:02:42.123775 26323 net.cpp:148] Top shape: 410 128 7 7 (2571520)
I0616 10:02:42.123785 26323 net.cpp:156] Memory required for data: 369365720
I0616 10:02:42.123811 26323 layer_factory.hpp:77] Creating layer fc4
I0616 10:02:42.123833 26323 net.cpp:91] Creating Layer fc4
I0616 10:02:42.123845 26323 net.cpp:425] fc4 <- bn31
I0616 10:02:42.123862 26323 net.cpp:399] fc4 -> fc4
I0616 10:02:42.215442 26323 net.cpp:141] Setting up fc4
I0616 10:02:42.215507 26323 net.cpp:148] Top shape: 410 1024 (419840)
I0616 10:02:42.215515 26323 net.cpp:156] Memory required for data: 371045080
I0616 10:02:42.215538 26323 layer_factory.hpp:77] Creating layer relu4
I0616 10:02:42.215555 26323 net.cpp:91] Creating Layer relu4
I0616 10:02:42.215566 26323 net.cpp:425] relu4 <- fc4
I0616 10:02:42.215584 26323 net.cpp:386] relu4 -> fc4 (in-place)
I0616 10:02:42.215764 26323 net.cpp:141] Setting up relu4
I0616 10:02:42.215780 26323 net.cpp:148] Top shape: 410 1024 (419840)
I0616 10:02:42.215786 26323 net.cpp:156] Memory required for data: 372724440
I0616 10:02:42.215798 26323 layer_factory.hpp:77] Creating layer fc5
I0616 10:02:42.215817 26323 net.cpp:91] Creating Layer fc5
I0616 10:02:42.215824 26323 net.cpp:425] fc5 <- fc4
I0616 10:02:42.215840 26323 net.cpp:399] fc5 -> fc5
I0616 10:02:42.262591 26323 net.cpp:141] Setting up fc5
I0616 10:02:42.262614 26323 net.cpp:148] Top shape: 410 1024 (419840)
I0616 10:02:42.262620 26323 net.cpp:156] Memory required for data: 374403800
I0616 10:02:42.262631 26323 layer_factory.hpp:77] Creating layer relu5
I0616 10:02:42.262645 26323 net.cpp:91] Creating Layer relu5
I0616 10:02:42.262652 26323 net.cpp:425] relu5 <- fc5
I0616 10:02:42.262662 26323 net.cpp:386] relu5 -> fc5 (in-place)
I0616 10:02:42.262805 26323 net.cpp:141] Setting up relu5
I0616 10:02:42.262825 26323 net.cpp:148] Top shape: 410 1024 (419840)
I0616 10:02:42.262832 26323 net.cpp:156] Memory required for data: 376083160
I0616 10:02:42.262841 26323 layer_factory.hpp:77] Creating layer conv11_p
I0616 10:02:42.262866 26323 net.cpp:91] Creating Layer conv11_p
I0616 10:02:42.262874 26323 net.cpp:425] conv11_p <- data_data_0_split_1
I0616 10:02:42.262890 26323 net.cpp:399] conv11_p -> conv11_p
I0616 10:02:42.264521 26323 net.cpp:141] Setting up conv11_p
I0616 10:02:42.264540 26323 net.cpp:148] Top shape: 410 64 24 24 (15114240)
I0616 10:02:42.264546 26323 net.cpp:156] Memory required for data: 436540120
I0616 10:02:42.264554 26323 net.cpp:485] Sharing parameters 'conv11_w' owned by layer 'conv11', param index 0
I0616 10:02:42.264564 26323 net.cpp:485] Sharing parameters 'conv11_b' owned by layer 'conv11', param index 1
I0616 10:02:42.264570 26323 layer_factory.hpp:77] Creating layer relu11_p
I0616 10:02:42.264580 26323 net.cpp:91] Creating Layer relu11_p
I0616 10:02:42.264587 26323 net.cpp:425] relu11_p <- conv11_p
I0616 10:02:42.264602 26323 net.cpp:386] relu11_p -> conv11_p (in-place)
I0616 10:02:42.264797 26323 net.cpp:141] Setting up relu11_p
I0616 10:02:42.264811 26323 net.cpp:148] Top shape: 410 64 24 24 (15114240)
I0616 10:02:42.264817 26323 net.cpp:156] Memory required for data: 496997080
I0616 10:02:42.264827 26323 layer_factory.hpp:77] Creating layer bn11_p
I0616 10:02:42.264838 26323 net.cpp:91] Creating Layer bn11_p
I0616 10:02:42.264845 26323 net.cpp:425] bn11_p <- conv11_p
I0616 10:02:42.264865 26323 net.cpp:399] bn11_p -> bn11_p
I0616 10:02:42.265211 26323 net.cpp:141] Setting up bn11_p
I0616 10:02:42.265228 26323 net.cpp:148] Top shape: 410 64 24 24 (15114240)
I0616 10:02:42.265261 26323 net.cpp:156] Memory required for data: 557454040
I0616 10:02:42.265276 26323 layer_factory.hpp:77] Creating layer pool1_p
I0616 10:02:42.265290 26323 net.cpp:91] Creating Layer pool1_p
I0616 10:02:42.265297 26323 net.cpp:425] pool1_p <- bn11_p
I0616 10:02:42.265307 26323 net.cpp:399] pool1_p -> pool1_p
I0616 10:02:42.265370 26323 net.cpp:141] Setting up pool1_p
I0616 10:02:42.265383 26323 net.cpp:148] Top shape: 410 64 13 13 (4434560)
I0616 10:02:42.265388 26323 net.cpp:156] Memory required for data: 575192280
I0616 10:02:42.265393 26323 layer_factory.hpp:77] Creating layer conv21_p
I0616 10:02:42.265409 26323 net.cpp:91] Creating Layer conv21_p
I0616 10:02:42.265416 26323 net.cpp:425] conv21_p <- pool1_p
I0616 10:02:42.265429 26323 net.cpp:399] conv21_p -> conv21_p
I0616 10:02:42.268230 26323 net.cpp:141] Setting up conv21_p
I0616 10:02:42.268249 26323 net.cpp:148] Top shape: 410 128 13 13 (8869120)
I0616 10:02:42.268255 26323 net.cpp:156] Memory required for data: 610668760
I0616 10:02:42.268263 26323 net.cpp:485] Sharing parameters 'conv21_w' owned by layer 'conv21', param index 0
I0616 10:02:42.268271 26323 net.cpp:485] Sharing parameters 'conv21_b' owned by layer 'conv21', param index 1
I0616 10:02:42.268277 26323 layer_factory.hpp:77] Creating layer relu21_p
I0616 10:02:42.268290 26323 net.cpp:91] Creating Layer relu21_p
I0616 10:02:42.268297 26323 net.cpp:425] relu21_p <- conv21_p
I0616 10:02:42.268308 26323 net.cpp:386] relu21_p -> conv21_p (in-place)
I0616 10:02:42.268474 26323 net.cpp:141] Setting up relu21_p
I0616 10:02:42.268488 26323 net.cpp:148] Top shape: 410 128 13 13 (8869120)
I0616 10:02:42.268493 26323 net.cpp:156] Memory required for data: 646145240
I0616 10:02:42.268513 26323 layer_factory.hpp:77] Creating layer bn21_p
I0616 10:02:42.268527 26323 net.cpp:91] Creating Layer bn21_p
I0616 10:02:42.268532 26323 net.cpp:425] bn21_p <- conv21_p
I0616 10:02:42.268548 26323 net.cpp:399] bn21_p -> bn21_p
I0616 10:02:42.268879 26323 net.cpp:141] Setting up bn21_p
I0616 10:02:42.268893 26323 net.cpp:148] Top shape: 410 128 13 13 (8869120)
I0616 10:02:42.268899 26323 net.cpp:156] Memory required for data: 681621720
I0616 10:02:42.268913 26323 layer_factory.hpp:77] Creating layer pool2_p
I0616 10:02:42.268939 26323 net.cpp:91] Creating Layer pool2_p
I0616 10:02:42.268949 26323 net.cpp:425] pool2_p <- bn21_p
I0616 10:02:42.268960 26323 net.cpp:399] pool2_p -> pool2_p
I0616 10:02:42.269017 26323 net.cpp:141] Setting up pool2_p
I0616 10:02:42.269029 26323 net.cpp:148] Top shape: 410 128 7 7 (2571520)
I0616 10:02:42.269035 26323 net.cpp:156] Memory required for data: 691907800
I0616 10:02:42.269040 26323 layer_factory.hpp:77] Creating layer conv31_p
I0616 10:02:42.269060 26323 net.cpp:91] Creating Layer conv31_p
I0616 10:02:42.269068 26323 net.cpp:425] conv31_p <- pool2_p
I0616 10:02:42.269079 26323 net.cpp:399] conv31_p -> conv31_p
I0616 10:02:42.271744 26323 net.cpp:141] Setting up conv31_p
I0616 10:02:42.271764 26323 net.cpp:148] Top shape: 410 128 7 7 (2571520)
I0616 10:02:42.271771 26323 net.cpp:156] Memory required for data: 702193880
I0616 10:02:42.271780 26323 net.cpp:485] Sharing parameters 'conv31_w' owned by layer 'conv31', param index 0
I0616 10:02:42.271787 26323 net.cpp:485] Sharing parameters 'conv31_b' owned by layer 'conv31', param index 1
I0616 10:02:42.271793 26323 layer_factory.hpp:77] Creating layer relu31_p
I0616 10:02:42.271805 26323 net.cpp:91] Creating Layer relu31_p
I0616 10:02:42.271811 26323 net.cpp:425] relu31_p <- conv31_p
I0616 10:02:42.271821 26323 net.cpp:386] relu31_p -> conv31_p (in-place)
I0616 10:02:42.271989 26323 net.cpp:141] Setting up relu31_p
I0616 10:02:42.272004 26323 net.cpp:148] Top shape: 410 128 7 7 (2571520)
I0616 10:02:42.272011 26323 net.cpp:156] Memory required for data: 712479960
I0616 10:02:42.272020 26323 layer_factory.hpp:77] Creating layer bn31_p
I0616 10:02:42.272035 26323 net.cpp:91] Creating Layer bn31_p
I0616 10:02:42.272042 26323 net.cpp:425] bn31_p <- conv31_p
I0616 10:02:42.272061 26323 net.cpp:399] bn31_p -> bn31_p
I0616 10:02:42.272388 26323 net.cpp:141] Setting up bn31_p
I0616 10:02:42.272403 26323 net.cpp:148] Top shape: 410 128 7 7 (2571520)
I0616 10:02:42.272409 26323 net.cpp:156] Memory required for data: 722766040
I0616 10:02:42.272423 26323 layer_factory.hpp:77] Creating layer fc4_p
I0616 10:02:42.272441 26323 net.cpp:91] Creating Layer fc4_p
I0616 10:02:42.272449 26323 net.cpp:425] fc4_p <- bn31_p
I0616 10:02:42.272459 26323 net.cpp:399] fc4_p -> fc4_p
I0616 10:02:42.344097 26323 net.cpp:141] Setting up fc4_p
I0616 10:02:42.344151 26323 net.cpp:148] Top shape: 410 1024 (419840)
I0616 10:02:42.344159 26323 net.cpp:156] Memory required for data: 724445400
I0616 10:02:42.344172 26323 net.cpp:485] Sharing parameters 'fc4_w' owned by layer 'fc4', param index 0
I0616 10:02:42.344182 26323 net.cpp:485] Sharing parameters 'fc4_b' owned by layer 'fc4', param index 1
I0616 10:02:42.344189 26323 layer_factory.hpp:77] Creating layer relu4_p
I0616 10:02:42.344204 26323 net.cpp:91] Creating Layer relu4_p
I0616 10:02:42.344213 26323 net.cpp:425] relu4_p <- fc4_p
I0616 10:02:42.344230 26323 net.cpp:386] relu4_p -> fc4_p (in-place)
I0616 10:02:42.344425 26323 net.cpp:141] Setting up relu4_p
I0616 10:02:42.344439 26323 net.cpp:148] Top shape: 410 1024 (419840)
I0616 10:02:42.344445 26323 net.cpp:156] Memory required for data: 726124760
I0616 10:02:42.344455 26323 layer_factory.hpp:77] Creating layer fc5_p
I0616 10:02:42.344470 26323 net.cpp:91] Creating Layer fc5_p
I0616 10:02:42.344476 26323 net.cpp:425] fc5_p <- fc4_p
I0616 10:02:42.344492 26323 net.cpp:399] fc5_p -> fc5_p
I0616 10:02:42.355928 26323 net.cpp:141] Setting up fc5_p
I0616 10:02:42.355947 26323 net.cpp:148] Top shape: 410 1024 (419840)
I0616 10:02:42.355953 26323 net.cpp:156] Memory required for data: 727804120
I0616 10:02:42.355962 26323 net.cpp:485] Sharing parameters 'fc5_w' owned by layer 'fc5', param index 0
I0616 10:02:42.355969 26323 net.cpp:485] Sharing parameters 'fc5_b' owned by layer 'fc5', param index 1
I0616 10:02:42.355976 26323 layer_factory.hpp:77] Creating layer relu5_p
I0616 10:02:42.355990 26323 net.cpp:91] Creating Layer relu5_p
I0616 10:02:42.355999 26323 net.cpp:425] relu5_p <- fc5_p
I0616 10:02:42.356009 26323 net.cpp:386] relu5_p -> fc5_p (in-place)
I0616 10:02:42.356142 26323 net.cpp:141] Setting up relu5_p
I0616 10:02:42.356155 26323 net.cpp:148] Top shape: 410 1024 (419840)
I0616 10:02:42.356161 26323 net.cpp:156] Memory required for data: 729483480
I0616 10:02:42.356170 26323 layer_factory.hpp:77] Creating layer pred
I0616 10:02:42.356184 26323 net.cpp:91] Creating Layer pred
I0616 10:02:42.356190 26323 net.cpp:425] pred <- fc5
I0616 10:02:42.356202 26323 net.cpp:399] pred -> pred
I0616 10:02:42.356645 26323 net.cpp:141] Setting up pred
I0616 10:02:42.356660 26323 net.cpp:148] Top shape: 410 7 (2870)
I0616 10:02:42.356667 26323 net.cpp:156] Memory required for data: 729494960
I0616 10:02:42.356675 26323 layer_factory.hpp:77] Creating layer pred_pred_0_split
I0616 10:02:42.356688 26323 net.cpp:91] Creating Layer pred_pred_0_split
I0616 10:02:42.356693 26323 net.cpp:425] pred_pred_0_split <- pred
I0616 10:02:42.356706 26323 net.cpp:399] pred_pred_0_split -> pred_pred_0_split_0
I0616 10:02:42.356719 26323 net.cpp:399] pred_pred_0_split -> pred_pred_0_split_1
I0616 10:02:42.356783 26323 net.cpp:141] Setting up pred_pred_0_split
I0616 10:02:42.356794 26323 net.cpp:148] Top shape: 410 7 (2870)
I0616 10:02:42.356802 26323 net.cpp:148] Top shape: 410 7 (2870)
I0616 10:02:42.356808 26323 net.cpp:156] Memory required for data: 729517920
I0616 10:02:42.356814 26323 layer_factory.hpp:77] Creating layer pred_p
I0616 10:02:42.356829 26323 net.cpp:91] Creating Layer pred_p
I0616 10:02:42.356837 26323 net.cpp:425] pred_p <- fc5_p
I0616 10:02:42.356848 26323 net.cpp:399] pred_p -> pred_p
I0616 10:02:42.357300 26323 net.cpp:141] Setting up pred_p
I0616 10:02:42.357316 26323 net.cpp:148] Top shape: 410 7 (2870)
I0616 10:02:42.357322 26323 net.cpp:156] Memory required for data: 729529400
I0616 10:02:42.357331 26323 net.cpp:485] Sharing parameters 'pred_exp_w' owned by layer 'pred', param index 0
I0616 10:02:42.357364 26323 net.cpp:485] Sharing parameters 'pred_exp_b' owned by layer 'pred', param index 1
I0616 10:02:42.357372 26323 layer_factory.hpp:77] Creating layer score
I0616 10:02:42.357383 26323 net.cpp:91] Creating Layer score
I0616 10:02:42.357390 26323 net.cpp:425] score <- pred_pred_0_split_0
I0616 10:02:42.357398 26323 net.cpp:425] score <- label1_data_1_split_0
I0616 10:02:42.357409 26323 net.cpp:399] score -> score
I0616 10:02:42.357453 26323 net.cpp:141] Setting up score
I0616 10:02:42.357465 26323 net.cpp:148] Top shape: 1 1 1 1 (1)
I0616 10:02:42.357470 26323 net.cpp:156] Memory required for data: 729529404
I0616 10:02:42.357476 26323 layer_factory.hpp:77] Creating layer accuracy_exp
I0616 10:02:42.357496 26323 net.cpp:91] Creating Layer accuracy_exp
I0616 10:02:42.357504 26323 net.cpp:425] accuracy_exp <- pred_pred_0_split_1
I0616 10:02:42.357512 26323 net.cpp:425] accuracy_exp <- label1_data_1_split_1
I0616 10:02:42.357522 26323 net.cpp:399] accuracy_exp -> accuracy_exp
…
